checkpoint_actor1.pth (torch_old, 163740 bytes, 10 tensors)

bn.weight f4 [256]
000000 25 f4 41 3f d6 01 8f 3e 18 5f ce 3e 48 14 3c 3f
       0.7576316 0.27931088 0.40306926 0.73468447
000010 e0 df ef 3c 89 c3 4c 3f 96 55 cb 3e 85 1e 41 3f
       0.029281557 0.7998586 0.39713734 0.75437194
000020 4f cb 11 3f 80 a7 e0 3e 90 80 23 3f 81 50 06 3f
       0.5695085 0.43877792 0.63868046 0.5246659
000030 cc bf 2e 3f 8e 3c 9c 3e da 55 ed 3e f8 f3 e8 3e
       0.6826141 0.3051495 0.46354562 0.45498633
000040 86 8d 12 3f 32 fa fe 3e b2 e4 6f 3f 14 d5 27 3f
       0.572472 0.4980026 0.93708336 0.65559506
000050 fc a9 a0 3e 94 c5 4a 3e 24 17 d5 3e a8 93 91 3e
       0.31379688 0.19801933 0.41619217 0.28432965
000060 16 f7 ad 3e fc 20 06 3f ea 4d 4c 3f 9c 92 45 3f
       0.33977574 0.5239408 0.7980639 0.77176833
000070 40 e7 37 3c 8e 59 4f 3f 32 c2 23 3f 44 6a 79 3f
       0.011224568 0.80996025 0.63968194 0.97427773
000080 d7 7c 54 3f 70 fd 35 3d 20 7d c9 3c e2 85 84 3e
       0.8300299 0.04443115 0.024595797 0.25883394
000090 f7 65 70 3f bc 5b d5 3e 60 c7 36 3f ac 08 89 3e
       0.93905586 0.4167155 0.7139797 0.2676443
0000a0 8d 98 7d 3f d2 af 93 3e 89 fd 5f 3f 07 84 01 3f
       0.990609 0.28845078 0.8749624 0.5059208
0000b0 fc 44 72 3e 3d cb 41 3f 58 38 70 3e 39 a5 25 3f
       0.23659128 0.7570074 0.23458993 0.64705235
0000c0 02 14 b6 3e 00 ef e3 3e 80 27 9e 3c a2 f1 85 3e
       0.3556214 0.4451828 0.019305944 0.26160914
0000d0 08 75 45 3f b0 c5 c1 3e 8d 7e 7f 3f 73 9a 66 3f
       0.771317 0.37846136 0.99802476 0.9007942
0000e0 5e 03 f4 3e a8 3f 2a 3e 79 f2 4d 3f c8 b9 27 3f
       0.4765882 0.16625845 0.8044811 0.65517855
0000f0 78 08 35 3e 47 24 53 3f 83 b5 4d 3f c6 85 71 3f
       0.17679012 0.8247723 0.8035509 0.9434475
000100 54 fe 60 3e 62 dc d5 3e 72 0a fb 3e 03 b2 12 3f
       0.21972018 0.417697 0.49031407 0.57302874
000110 20 de f6 3d 60 ac 14 3e f1 a1 45 3f 56 f8 c3 3e
       0.12054086 0.14518881 0.7720023 0.38275403
000120 4c 86 3e 3f 1a 4c 07 3f 34 07 2a 3f 50 25 1c 3f
       0.7442367 0.52850497 0.6641724 0.60994434
000130 6d 8a 2e 3f 73 73 3f 3f 90 52 17 3d d2 6d 40 3f
       0.6817997 0.74785537 0.036943972 0.7516757
000140 3c 00 18 3e 00 62 fb 3d c4 c8 07 3f 32 60 d4 3e
       0.1484384 0.122745514 0.5304072 0.4147964
000150 6f 2d 4b 3f 88 7b 57 3e 70 5d 63 3d 87 27 5d 3f
       0.793662 0.21043217 0.05550903 0.8638844
000160 34 0a da 3e 99 fe 47 3f 68 26 29 3f 58 10 00 3e
       0.4258591 0.7812286 0.6607423 0.12506235
000170 09 b7 19 3f c3 be 1e 3f 9c 2f 29 3e fc 88 86 3e
       0.60044914 0.6200983 0.16522068 0.26276386
000180 17 a5 2b 3f 7d ed 16 3f c8 1a 93 3e 36 81 b2 3e
       0.6704878 0.5895613 0.2873137 0.34864205
000190 a5 3b 75 3f 72 a2 d0 3e 53 2a 48 3f a6 6c 37 3f
       0.95794135 0.40748936 0.7818958 0.7165016
0001a0 20 0a 35 3e 00 29 99 3d a2 dd 7a 3f 0a af 06 3f
       0.17679644 0.07478523 0.97994435 0.5261084
0001b0 17 bd 57 3f 8f 86 1a 3f ef 2a 29 3f 57 9c 5f 3f
       0.84272903 0.6036157 0.66081136 0.8734793
0001c0 19 5f 79 3f 1c 3f 2c 3e f3 00 10 3f 5c 85 5f 3f
       0.9741073 0.1682095 0.5625145 0.87312865
0001d0 4a ba 5c 3f be 84 4f 3f b8 74 0d 3e 80 4e 0f 3e
       0.86221755 0.81061924 0.13814056 0.13994789
0001e0 60 5b 4a 3e 97 14 10 3f b7 92 7f 3f 04 95 3c 3e
       0.1976142 0.5628142 0.99833244 0.1841622
0001f0 71 35 44 3f 34 9d 64 3e 60 e0 f4 3c 00 97 c9 3e
       0.76644045 0.22325593 0.029892147 0.39373016
000200 f8 bf 49 3f fd d4 76 3f 34 07 42 3e 06 c7 1b 3f
       0.78808546 0.96418744 0.1894806 0.6085056
000210 34 72 6e 3f d5 d1 54 3f c6 c5 4f 3f 02 f6 5a 3f
       0.9314301 0.8313268 0.81161153 0.8553163
000220 4c f6 50 3f db 0f 21 3f 54 e2 21 3e 58 16 a4 3d
       0.8162582 0.6291482 0.15808994 0.08012074
000230 0e b2 8a 3e 9a 30 e2 3e 20 2b 46 3e 4b d4 2e 3f
       0.2708897 0.44177705 0.19352388 0.68292683
000240 4c 9d 27 3f 56 08 c6 3e 14 32 31 3f 1e 5e 29 3f
       0.6547439 0.38678235 0.6921704 0.66159236
000250 24 26 4e 3f 67 33 56 3f 0e 4e a9 3e 2d 0f 7d 3f
       0.8052695 0.83672184 0.33067364 0.9885128
000260 88 67 e2 3e 72 34 f7 3e 00 de e5 3c f0 77 36 3e
       0.44219613 0.482822 0.02805996 0.1781919
000270 48 e3 54 3e c0 80 92 3e 0d 01 5b 3f 14 58 ac 3e
       0.20789826 0.28613853 0.8554848 0.33660948
000280 5c 64 01 3e 7c 3f 31 3f 51 fb 28 3f 87 e7 52 3f
       0.1263594 0.69237494 0.6600848 0.8238453
000290 e4 0d 77 3e 98 c0 1b 3f 94 cd a2 3e b8 7b c6 3e
       0.24126393 0.6084075 0.3179747 0.38766265
0002a0 a0 f4 cf 3d 40 53 8b 3e 18 99 b1 3e c1 bc 36 3f
       0.101540804 0.27211952 0.34687114 0.71381766
0002b0 5e 62 17 3f 3c 9e 1f 3f e9 c1 7f 3f 98 c0 7c 3f
       0.5913447 0.6235082 0.9990526 0.98731375
0002c0 52 4d 57 3f 73 13 04 3f 84 cd 1d 3e 82 08 64 3f
       0.84102356 0.5159218 0.15410429 0.8907548
0002d0 d8 fb bf 3e b8 4d eb 3e 38 d3 8d 3d c4 6e cd 3e
       0.3749683 0.45957732 0.069250524 0.4012357
0002e0 28 c4 35 3e b6 9e 75 3f 00 bb 8a 3d 48 cf e1 3d
       0.17750609 0.959453 0.06773949 0.11025864
0002f0 a4 4e f7 3e 58 27 6b 3e c6 cc 2d 3f 84 75 9d 3e
       0.48302186 0.22964227 0.67890584 0.3075372
000300 8e c2 87 3e e7 3f 07 3f b0 a8 5c 3f d8 d8 17 3e
       0.2651562 0.5283188 0.86194897 0.14828813
000310 0f 1c 3c 3f 85 3b 52 3f 91 35 7d 3f a8 a2 19 3e
       0.73480314 0.8212207 0.9890986 0.15003455
000320 14 00 1f 3f d8 69 05 3e b0 47 6d 3f 2c b2 9c 3e
       0.62109494 0.13028657 0.9268751 0.30604684
000330 e5 19 4d 3f 8d cf 03 3f e2 0f ec 3e e4 d4 f7 3e
       0.80117637 0.5148857 0.46105868 0.4840461
000340 61 c2 15 3f b5 56 3c 3f 54 87 14 3f 0a 0c 27 3f
       0.58499724 0.73569804 0.58018994 0.65252745
000350 00 c6 4d 3d b7 40 5d 3f 3d 99 6f 3f 38 ce 69 3f
       0.050237656 0.8642687 0.935932 0.9133029
000360 d9 9e 5e 3f 54 86 0e 3e ce 19 a1 3e 60 dc 70 3f
       0.8696113 0.1391843 0.31465 0.94086266
000370 c8 0f f4 3d d3 1f 74 3f c8 a0 da 3d c4 57 17 3e
       0.119170725 0.9536106 0.10675198 0.14779574
000380 8e 93 3e 3f 34 22 10 3e a8 59 c5 3e 74 1e 5d 3f
       0.744439 0.14075547 0.38544965 0.8637459
000390 2b 63 65 3f 86 0e 79 3f 9a 0d cc 3e c0 15 e4 3d
       0.89604443 0.97287786 0.39854127 0.11136961
0003a0 bb 07 7e 3f 1e 77 c9 3e 30 ac 96 3e fb 33 1f 3f
       0.99230546 0.39348692 0.29428244 0.6218869
0003b0 24 f2 19 3e c2 21 54 3f c7 38 50 3f a8 79 d3 3d
       0.15033776 0.8286401 0.81336635 0.103259385
0003c0 28 ea b6 3d 48 93 e9 3e 65 c3 35 3f f0 95 f8 3e
       0.089313805 0.4562018 0.71001273 0.48551893
0003d0 54 60 7c 3e 28 ed 02 3f a0 09 f6 3c 6c 23 16 3e
       0.24646121 0.5114312 0.030033886 0.1466195
0003e0 c4 2a 2b 3e 71 69 69 3f 2f d5 70 3f 9a 0b a9 3e
       0.16715533 0.91176516 0.9407529 0.33016664
0003f0 a8 bd 05 3f ce 15 39 3f 2d 56 0f 3f 5c 9d 7f 3e
       0.5224252 0.72298896 0.5599087 0.24962372

bn.bias f4 [256]
000000 00 00 00 00 00 00 00 00 00 00 00 00 00 00 00 00
       0.0 0.0 0.0 0.0
000010 00 00 00 00 00 00 00 00 00 00 00 00 00 00 00 00
       0.0 0.0 0.0 0.0
000020 00 00 00 00 00 00 00 00 00 00 00 00 00 00 00 00
       0.0 0.0 0.0 0.0
000030 00 00 00 00 00 00 00 00 00 00 00 00 00 00 00 00
       0.0 0.0 0.0 0.0
000040 00 00 00 00 00 00 00 00 00 00 00 00 00 00 00 00
       0.0 0.0 0.0 0.0
000050 00 00 00 00 00 00 00 00 00 00 00 00 00 00 00 00
       0.0 0.0 0.0 0.0
000060 00 00 00 00 00 00 00 00 00 00 00 00 00 00 00 00
       0.0 0.0 0.0 0.0
000070 00 00 00 00 00 00 00 00 00 00 00 00 00 00 00 00
       0.0 0.0 0.0 0.0
000080 00 00 00 00 00 00 00 00 00 00 00 00 00 00 00 00
       0.0 0.0 0.0 0.0
000090 00 00 00 00 00 00 00 00 00 00 00 00 00 00 00 00
       0.0 0.0 0.0 0.0
0000a0 00 00 00 00 00 00 00 00 00 00 00 00 00 00 00 00
       0.0 0.0 0.0 0.0
0000b0 00 00 00 00 00 00 00 00 00 00 00 00 00 00 00 00
       0.0 0.0 0.0 0.0
0000c0 00 00 00 00 00 00 00 00 00 00 00 00 00 00 00 00
       0.0 0.0 0.0 0.0
0000d0 00 00 00 00 00 00 00 00 00 00 00 00 00 00 00 00
       0.0 0.0 0.0 0.0
0000e0 00 00 00 00 00 00 00 00 00 00 00 00 00 00 00 00
       0.0 0.0 0.0 0.0
0000f0 00 00 00 00 00 00 00 00 00 00 00 00 00 00 00 00
       0.0 0.0 0.0 0.0
000100 00 00 00 00 00 00 00 00 00 00 00 00 00 00 00 00
       0.0 0.0 0.0 0.0
000110 00 00 00 00 00 00 00 00 00 00 00 00 00 00 00 00
       0.0 0.0 0.0 0.0
000120 00 00 00 00 00 00 00 00 00 00 00 00 00 00 00 00
       0.0 0.0 0.0 0.0
000130 00 00 00 00 00 00 00 00 00 00 00 00 00 00 00 00
       0.0 0.0 0.0 0.0
000140 00 00 00 00 00 00 00 00 00 00 00 00 00 00 00 00
       0.0 0.0 0.0 0.0
000150 00 00 00 00 00 00 00 00 00 00 00 00 00 00 00 00
       0.0 0.0 0.0 0.0
000160 00 00 00 00 00 00 00 00 00 00 00 00 00 00 00 00
       0.0 0.0 0.0 0.0
000170 00 00 00 00 00 00 00 00 00 00 00 00 00 00 00 00
       0.0 0.0 0.0 0.0
000180 00 00 00 00 00 00 00 00 00 00 00 00 00 00 00 00
       0.0 0.0 0.0 0.0
000190 00 00 00 00 00 00 00 00 00 00 00 00 00 00 00 00
       0.0 0.0 0.0 0.0
0001a0 00 00 00 00 00 00 00 00 00 00 00 00 00 00 00 00
       0.0 0.0 0.0 0.0
0001b0 00 00 00 00 00 00 00 00 00 00 00 00 00 00 00 00
       0.0 0.0 0.0 0.0
0001c0 00 00 00 00 00 00 00 00 00 00 00 00 00 00 00 00
       0.0 0.0 0.0 0.0
0001d0 00 00 00 00 00 00 00 00 00 00 00 00 00 00 00 00
       0.0 0.0 0.0 0.0
0001e0 00 00 00 00 00 00 00 00 00 00 00 00 00 00 00 00
       0.0 0.0 0.0 0.0
0001f0 00 00 00 00 00 00 00 00 00 00 00 00 00 00 00 00
       0.0 0.0 0.0 0.0
000200 00 00 00 00 00 00 00 00 00 00 00 00 00 00 00 00
       0.0 0.0 0.0 0.0
000210 00 00 00 00 00 00 00 00 00 00 00 00 00 00 00 00
       0.0 0.0 0.0 0.0
000220 00 00 00 00 00 00 00 00 00 00 00 00 00 00 00 00
       0.0 0.0 0.0 0.0
000230 00 00 00 00 00 00 00 00 00 00 00 00 00 00 00 00
       0.0 0.0 0.0 0.0
000240 00 00 00 00 00 00 00 00 00 00 00 00 00 00 00 00
       0.0 0.0 0.0 0.0
000250 00 00 00 00 00 00 00 00 00 00 00 00 00 00 00 00
       0.0 0.0 0.0 0.0
000260 00 00 00 00 00 00 00 00 00 00 00 00 00 00 00 00
       0.0 0.0 0.0 0.0
000270 00 00 00 00 00 00 00 00 00 00 00 00 00 00 00 00
       0.0 0.0 0.0 0.0
000280 00 00 00 00 00 00 00 00 00 00 00 00 00 00 00 00
       0.0 0.0 0.0 0.0
000290 00 00 00 00 00 00 00 00 00 00 00 00 00 00 00 00
       0.0 0.0 0.0 0.0
0002a0 00 00 00 00 00 00 00 00 00 00 00 00 00 00 00 00
       0.0 0.0 0.0 0.0
0002b0 00 00 00 00 00 00 00 00 00 00 00 00 00 00 00 00
       0.0 0.0 0.0 0.0
0002c0 00 00 00 00 00 00 00 00 00 00 00 00 00 00 00 00
       0.0 0.0 0.0 0.0
0002d0 00 00 00 00 00 00 00 00 00 00 00 00 00 00 00 00
       0.0 0.0 0.0 0.0
0002e0 00 00 00 00 00 00 00 00 00 00 00 00 00 00 00 00
       0.0 0.0 0.0 0.0
0002f0 00 00 00 00 00 00 00 00 00 00 00 00 00 00 00 00
       0.0 0.0 0.0 0.0
000300 00 00 00 00 00 00 00 00 00 00 00 00 00 00 00 00
       0.0 0.0 0.0 0.0
000310 00 00 00 00 00 00 00 00 00 00 00 00 00 00 00 00
       0.0 0.0 0.0 0.0
000320 00 00 00 00 00 00 00 00 00 00 00 00 00 00 00 00
       0.0 0.0 0.0 0.0
000330 00 00 00 00 00 00 00 00 00 00 00 00 00 00 00 00
       0.0 0.0 0.0 0.0
000340 00 00 00 00 00 00 00 00 00 00 00 00 00 00 00 00
       0.0 0.0 0.0 0.0
000350 00 00 00 00 00 00 00 00 00 00 00 00 00 00 00 00
       0.0 0.0 0.0 0.0
000360 00 00 00 00 00 00 00 00 00 00 00 00 00 00 00 00
       0.0 0.0 0.0 0.0
000370 00 00 00 00 00 00 00 00 00 00 00 00 00 00 00 00
       0.0 0.0 0.0 0.0
000380 00 00 00 00 00 00 00 00 00 00 00 00 00 00 00 00
       0.0 0.0 0.0 0.0
000390 00 00 00 00 00 00 00 00 00 00 00 00 00 00 00 00
       0.0 0.0 0.0 0.0
0003a0 00 00 00 00 00 00 00 00 00 00 00 00 00 00 00 00
       0.0 0.0 0.0 0.0
0003b0 00 00 00 00 00 00 00 00 00 00 00 00 00 00 00 00
       0.0 0.0 0.0 0.0
0003c0 00 00 00 00 00 00 00 00 00 00 00 00 00 00 00 00
       0.0 0.0 0.0 0.0
0003d0 00 00 00 00 00 00 00 00 00 00 00 00 00 00 00 00
       0.0 0.0 0.0 0.0
0003e0 00 00 00 00 00 00 00 00 00 00 00 00 00 00 00 00
       0.0 0.0 0.0 0.0
0003f0 00 00 00 00 00 00 00 00 00 00 00 00 00 00 00 00
       0.0 0.0 0.0 0.0

bn.running_mean f4 [256]
000000 00 00 00 00 00 00 00 00 00 00 00 00 00 00 00 00
       0.0 0.0 0.0 0.0
000010 00 00 00 00 00 00 00 00 00 00 00 00 00 00 00 00
       0.0 0.0 0.0 0.0
000020 00 00 00 00 00 00 00 00 00 00 00 00 00 00 00 00
       0.0 0.0 0.0 0.0
000030 00 00 00 00 00 00 00 00 00 00 00 00 00 00 00 00
       0.0 0.0 0.0 0.0
000040 00 00 00 00 00 00 00 00 00 00 00 00 00 00 00 00
       0.0 0.0 0.0 0.0
000050 00 00 00 00 00 00 00 00 00 00 00 00 00 00 00 00
       0.0 0.0 0.0 0.0
000060 00 00 00 00 00 00 00 00 00 00 00 00 00 00 00 00
       0.0 0.0 0.0 0.0
000070 00 00 00 00 00 00 00 00 00 00 00 00 00 00 00 00
       0.0 0.0 0.0 0.0
000080 00 00 00 00 00 00 00 00 00 00 00 00 00 00 00 00
       0.0 0.0 0.0 0.0
000090 00 00 00 00 00 00 00 00 00 00 00 00 00 00 00 00
       0.0 0.0 0.0 0.0
0000a0 00 00 00 00 00 00 00 00 00 00 00 00 00 00 00 00
       0.0 0.0 0.0 0.0
0000b0 00 00 00 00 00 00 00 00 00 00 00 00 00 00 00 00
       0.0 0.0 0.0 0.0
0000c0 00 00 00 00 00 00 00 00 00 00 00 00 00 00 00 00
       0.0 0.0 0.0 0.0
0000d0 00 00 00 00 00 00 00 00 00 00 00 00 00 00 00 00
       0.0 0.0 0.0 0.0
0000e0 00 00 00 00 00 00 00 00 00 00 00 00 00 00 00 00
       0.0 0.0 0.0 0.0
0000f0 00 00 00 00 00 00 00 00 00 00 00 00 00 00 00 00
       0.0 0.0 0.0 0.0
000100 00 00 00 00 00 00 00 00 00 00 00 00 00 00 00 00
       0.0 0.0 0.0 0.0
000110 00 00 00 00 00 00 00 00 00 00 00 00 00 00 00 00
       0.0 0.0 0.0 0.0
000120 00 00 00 00 00 00 00 00 00 00 00 00 00 00 00 00
       0.0 0.0 0.0 0.0
000130 00 00 00 00 00 00 00 00 00 00 00 00 00 00 00 00
       0.0 0.0 0.0 0.0
000140 00 00 00 00 00 00 00 00 00 00 00 00 00 00 00 00
       0.0 0.0 0.0 0.0
000150 00 00 00 00 00 00 00 00 00 00 00 00 00 00 00 00
       0.0 0.0 0.0 0.0
000160 00 00 00 00 00 00 00 00 00 00 00 00 00 00 00 00
       0.0 0.0 0.0 0.0
000170 00 00 00 00 00 00 00 00 00 00 00 00 00 00 00 00
       0.0 0.0 0.0 0.0
000180 00 00 00 00 00 00 00 00 00 00 00 00 00 00 00 00
       0.0 0.0 0.0 0.0
000190 00 00 00 00 00 00 00 00 00 00 00 00 00 00 00 00
       0.0 0.0 0.0 0.0
0001a0 00 00 00 00 00 00 00 00 00 00 00 00 00 00 00 00
       0.0 0.0 0.0 0.0
0001b0 00 00 00 00 00 00 00 00 00 00 00 00 00 00 00 00
       0.0 0.0 0.0 0.0
0001c0 00 00 00 00 00 00 00 00 00 00 00 00 00 00 00 00
       0.0 0.0 0.0 0.0
0001d0 00 00 00 00 00 00 00 00 00 00 00 00 00 00 00 00
       0.0 0.0 0.0 0.0
0001e0 00 00 00 00 00 00 00 00 00 00 00 00 00 00 00 00
       0.0 0.0 0.0 0.0
0001f0 00 00 00 00 00 00 00 00 00 00 00 00 00 00 00 00
       0.0 0.0 0.0 0.0
000200 00 00 00 00 00 00 00 00 00 00 00 00 00 00 00 00
       0.0 0.0 0.0 0.0
000210 00 00 00 00 00 00 00 00 00 00 00 00 00 00 00 00
       0.0 0.0 0.0 0.0
000220 00 00 00 00 00 00 00 00 00 00 00 00 00 00 00 00
       0.0 0.0 0.0 0.0
000230 00 00 00 00 00 00 00 00 00 00 00 00 00 00 00 00
       0.0 0.0 0.0 0.0
000240 00 00 00 00 00 00 00 00 00 00 00 00 00 00 00 00
       0.0 0.0 0.0 0.0
000250 00 00 00 00 00 00 00 00 00 00 00 00 00 00 00 00
       0.0 0.0 0.0 0.0
000260 00 00 00 00 00 00 00 00 00 00 00 00 00 00 00 00
       0.0 0.0 0.0 0.0
000270 00 00 00 00 00 00 00 00 00 00 00 00 00 00 00 00
       0.0 0.0 0.0 0.0
000280 00 00 00 00 00 00 00 00 00 00 00 00 00 00 00 00
       0.0 0.0 0.0 0.0
000290 00 00 00 00 00 00 00 00 00 00 00 00 00 00 00 00
       0.0 0.0 0.0 0.0
0002a0 00 00 00 00 00 00 00 00 00 00 00 00 00 00 00 00
       0.0 0.0 0.0 0.0
0002b0 00 00 00 00 00 00 00 00 00 00 00 00 00 00 00 00
       0.0 0.0 0.0 0.0
0002c0 00 00 00 00 00 00 00 00 00 00 00 00 00 00 00 00
       0.0 0.0 0.0 0.0
0002d0 00 00 00 00 00 00 00 00 00 00 00 00 00 00 00 00
       0.0 0.0 0.0 0.0
0002e0 00 00 00 00 00 00 00 00 00 00 00 00 00 00 00 00
       0.0 0.0 0.0 0.0
0002f0 00 00 00 00 00 00 00 00 00 00 00 00 00 00 00 00
       0.0 0.0 0.0 0.0
000300 00 00 00 00 00 00 00 00 00 00 00 00 00 00 00 00
       0.0 0.0 0.0 0.0
000310 00 00 00 00 00 00 00 00 00 00 00 00 00 00 00 00
       0.0 0.0 0.0 0.0
000320 00 00 00 00 00 00 00 00 00 00 00 00 00 00 00 00
       0.0 0.0 0.0 0.0
000330 00 00 00 00 00 00 00 00 00 00 00 00 00 00 00 00
       0.0 0.0 0.0 0.0
000340 00 00 00 00 00 00 00 00 00 00 00 00 00 00 00 00
       0.0 0.0 0.0 0.0
000350 00 00 00 00 00 00 00 00 00 00 00 00 00 00 00 00
       0.0 0.0 0.0 0.0
000360 00 00 00 00 00 00 00 00 00 00 00 00 00 00 00 00
       0.0 0.0 0.0 0.0
000370 00 00 00 00 00 00 00 00 00 00 00 00 00 00 00 00
       0.0 0.0 0.0 0.0
000380 00 00 00 00 00 00 00 00 00 00 00 00 00 00 00 00
       0.0 0.0 0.0 0.0
000390 00 00 00 00 00 00 00 00 00 00 00 00 00 00 00 00
       0.0 0.0 0.0 0.0
0003a0 00 00 00 00 00 00 00 00 00 00 00 00 00 00 00 00
       0.0 0.0 0.0 0.0
0003b0 00 00 00 00 00 00 00 00 00 00 00 00 00 00 00 00
       0.0 0.0 0.0 0.0
0003c0 00 00 00 00 00 00 00 00 00 00 00 00 00 00 00 00
       0.0 0.0 0.0 0.0
0003d0 00 00 00 00 00 00 00 00 00 00 00 00 00 00 00 00
       0.0 0.0 0.0 0.0
0003e0 00 00 00 00 00 00 00 00 00 00 00 00 00 00 00 00
       0.0 0.0 0.0 0.0
0003f0 00 00 00 00 00 00 00 00 00 00 00 00 00 00 00 00
       0.0 0.0 0.0 0.0

bn.running_var f4 [256]
000000 00 00 80 3f 00 00 80 3f 00 00 80 3f 00 00 80 3f
       1.0 1.0 1.0 1.0
000010 00 00 80 3f 00 00 80 3f 00 00 80 3f 00 00 80 3f
       1.0 1.0 1.0 1.0
000020 00 00 80 3f 00 00 80 3f 00 00 80 3f 00 00 80 3f
       1.0 1.0 1.0 1.0
000030 00 00 80 3f 00 00 80 3f 00 00 80 3f 00 00 80 3f
       1.0 1.0 1.0 1.0
000040 00 00 80 3f 00 00 80 3f 00 00 80 3f 00 00 80 3f
       1.0 1.0 1.0 1.0
000050 00 00 80 3f 00 00 80 3f 00 00 80 3f 00 00 80 3f
       1.0 1.0 1.0 1.0
000060 00 00 80 3f 00 00 80 3f 00 00 80 3f 00 00 80 3f
       1.0 1.0 1.0 1.0
000070 00 00 80 3f 00 00 80 3f 00 00 80 3f 00 00 80 3f
       1.0 1.0 1.0 1.0
000080 00 00 80 3f 00 00 80 3f 00 00 80 3f 00 00 80 3f
       1.0 1.0 1.0 1.0
000090 00 00 80 3f 00 00 80 3f 00 00 80 3f 00 00 80 3f
       1.0 1.0 1.0 1.0
0000a0 00 00 80 3f 00 00 80 3f 00 00 80 3f 00 00 80 3f
       1.0 1.0 1.0 1.0
0000b0 00 00 80 3f 00 00 80 3f 00 00 80 3f 00 00 80 3f
       1.0 1.0 1.0 1.0
0000c0 00 00 80 3f 00 00 80 3f 00 00 80 3f 00 00 80 3f
       1.0 1.0 1.0 1.0
0000d0 00 00 80 3f 00 00 80 3f 00 00 80 3f 00 00 80 3f
       1.0 1.0 1.0 1.0
0000e0 00 00 80 3f 00 00 80 3f 00 00 80 3f 00 00 80 3f
       1.0 1.0 1.0 1.0
0000f0 00 00 80 3f 00 00 80 3f 00 00 80 3f 00 00 80 3f
       1.0 1.0 1.0 1.0
000100 00 00 80 3f 00 00 80 3f 00 00 80 3f 00 00 80 3f
       1.0 1.0 1.0 1.0
000110 00 00 80 3f 00 00 80 3f 00 00 80 3f 00 00 80 3f
       1.0 1.0 1.0 1.0
000120 00 00 80 3f 00 00 80 3f 00 00 80 3f 00 00 80 3f
       1.0 1.0 1.0 1.0
000130 00 00 80 3f 00 00 80 3f 00 00 80 3f 00 00 80 3f
       1.0 1.0 1.0 1.0
000140 00 00 80 3f 00 00 80 3f 00 00 80 3f 00 00 80 3f
       1.0 1.0 1.0 1.0
000150 00 00 80 3f 00 00 80 3f 00 00 80 3f 00 00 80 3f
       1.0 1.0 1.0 1.0
000160 00 00 80 3f 00 00 80 3f 00 00 80 3f 00 00 80 3f
       1.0 1.0 1.0 1.0
000170 00 00 80 3f 00 00 80 3f 00 00 80 3f 00 00 80 3f
       1.0 1.0 1.0 1.0
000180 00 00 80 3f 00 00 80 3f 00 00 80 3f 00 00 80 3f
       1.0 1.0 1.0 1.0
000190 00 00 80 3f 00 00 80 3f 00 00 80 3f 00 00 80 3f
       1.0 1.0 1.0 1.0
0001a0 00 00 80 3f 00 00 80 3f 00 00 80 3f 00 00 80 3f
       1.0 1.0 1.0 1.0
0001b0 00 00 80 3f 00 00 80 3f 00 00 80 3f 00 00 80 3f
       1.0 1.0 1.0 1.0
0001c0 00 00 80 3f 00 00 80 3f 00 00 80 3f 00 00 80 3f
       1.0 1.0 1.0 1.0
0001d0 00 00 80 3f 00 00 80 3f 00 00 80 3f 00 00 80 3f
       1.0 1.0 1.0 1.0
0001e0 00 00 80 3f 00 00 80 3f 00 00 80 3f 00 00 80 3f
       1.0 1.0 1.0 1.0
0001f0 00 00 80 3f 00 00 80 3f 00 00 80 3f 00 00 80 3f
       1.0 1.0 1.0 1.0
000200 00 00 80 3f 00 00 80 3f 00 00 80 3f 00 00 80 3f
       1.0 1.0 1.0 1.0
000210 00 00 80 3f 00 00 80 3f 00 00 80 3f 00 00 80 3f
       1.0 1.0 1.0 1.0
000220 00 00 80 3f 00 00 80 3f 00 00 80 3f 00 00 80 3f
       1.0 1.0 1.0 1.0
000230 00 00 80 3f 00 00 80 3f 00 00 80 3f 00 00 80 3f
       1.0 1.0 1.0 1.0
000240 00 00 80 3f 00 00 80 3f 00 00 80 3f 00 00 80 3f
       1.0 1.0 1.0 1.0
000250 00 00 80 3f 00 00 80 3f 00 00 80 3f 00 00 80 3f
       1.0 1.0 1.0 1.0
000260 00 00 80 3f 00 00 80 3f 00 00 80 3f 00 00 80 3f
       1.0 1.0 1.0 1.0
000270 00 00 80 3f 00 00 80 3f 00 00 80 3f 00 00 80 3f
       1.0 1.0 1.0 1.0
000280 00 00 80 3f 00 00 80 3f 00 00 80 3f 00 00 80 3f
       1.0 1.0 1.0 1.0
000290 00 00 80 3f 00 00 80 3f 00 00 80 3f 00 00 80 3f
       1.0 1.0 1.0 1.0
0002a0 00 00 80 3f 00 00 80 3f 00 00 80 3f 00 00 80 3f
       1.0 1.0 1.0 1.0
0002b0 00 00 80 3f 00 00 80 3f 00 00 80 3f 00 00 80 3f
       1.0 1.0 1.0 1.0
0002c0 00 00 80 3f 00 00 80 3f 00 00 80 3f 00 00 80 3f
       1.0 1.0 1.0 1.0
0002d0 00 00 80 3f 00 00 80 3f 00 00 80 3f 00 00 80 3f
       1.0 1.0 1.0 1.0
0002e0 00 00 80 3f 00 00 80 3f 00 00 80 3f 00 00 80 3f
       1.0 1.0 1.0 1.0
0002f0 00 00 80 3f 00 00 80 3f 00 00 80 3f 00 00 80 3f
       1.0 1.0 1.0 1.0
000300 00 00 80 3f 00 00 80 3f 00 00 80 3f 00 00 80 3f
       1.0 1.0 1.0 1.0
000310 00 00 80 3f 00 00 80 3f 00 00 80 3f 00 00 80 3f
       1.0 1.0 1.0 1.0
000320 00 00 80 3f 00 00 80 3f 00 00 80 3f 00 00 80 3f
       1.0 1.0 1.0 1.0
000330 00 00 80 3f 00 00 80 3f 00 00 80 3f 00 00 80 3f
       1.0 1.0 1.0 1.0
000340 00 00 80 3f 00 00 80 3f 00 00 80 3f 00 00 80 3f
       1.0 1.0 1.0 1.0
000350 00 00 80 3f 00 00 80 3f 00 00 80 3f 00 00 80 3f
       1.0 1.0 1.0 1.0
000360 00 00 80 3f 00 00 80 3f 00 00 80 3f 00 00 80 3f
       1.0 1.0 1.0 1.0
000370 00 00 80 3f 00 00 80 3f 00 00 80 3f 00 00 80 3f
       1.0 1.0 1.0 1.0
000380 00 00 80 3f 00 00 80 3f 00 00 80 3f 00 00 80 3f
       1.0 1.0 1.0 1.0
000390 00 00 80 3f 00 00 80 3f 00 00 80 3f 00 00 80 3f
       1.0 1.0 1.0 1.0
0003a0 00 00 80 3f 00 00 80 3f 00 00 80 3f 00 00 80 3f
       1.0 1.0 1.0 1.0
0003b0 00 00 80 3f 00 00 80 3f 00 00 80 3f 00 00 80 3f
       1.0 1.0 1.0 1.0
0003c0 00 00 80 3f 00 00 80 3f 00 00 80 3f 00 00 80 3f
       1.0 1.0 1.0 1.0
0003d0 00 00 80 3f 00 00 80 3f 00 00 80 3f 00 00 80 3f
       1.0 1.0 1.0 1.0
0003e0 00 00 80 3f 00 00 80 3f 00 00 80 3f 00 00 80 3f
       1.0 1.0 1.0 1.0
0003f0 00 00 80 3f 00 00 80 3f 00 00 80 3f 00 00 80 3f
       1.0 1.0 1.0 1.0

fc1.weight f4 [256, 24]
000000 a6 e1 9c bc ee 1f ca 3d 82 6e 18 3d 06 b4 6d bd
       -0.019150566 0.09869371 0.037214763 -0.05803301
000010 36 b1 00 3e 14 75 cb bb 5a eb 69 bc fc 51 89 3c
       0.125676 -0.006209025 -0.014277304 0.016762726
000020 8d 8e 0f bd e8 6e 56 3d d2 6e b0 bd 6d be 08 bd
       -0.035048056 0.052351862 -0.08614887 -0.03338473
000030 37 e9 9c 3e ea 47 b8 3c a5 d3 09 be 9f 61 4a bd
       0.3064668 0.022495229 -0.13459642 -0.049409505
000040 89 96 a2 3c b0 04 90 3a c6 49 1e 3d 73 83 a9 bd
       0.019847171 0.0010987725 0.038644575 -0.08277025
000050 d5 80 49 3e c4 9f 66 bc d9 5b e0 3c 67 c4 bc bd
       0.19678052 -0.014076177 0.027387546 -0.09217148
000060 25 b1 12 bc 83 29 69 bd 1d a9 a9 ba 01 e9 b8 3d
       -0.008953367 -0.056924354 -0.0012944076 0.09028817
000070 79 65 c2 3d fb fe 13 3d d2 f4 d0 bd ff b8 f9 3c
       0.094920106 0.03613184 -0.10202946 0.03048372
000080 f4 9d 01 3d d0 cc 18 3d dd 69 1e bc 65 1d 71 3d
       0.031644776 0.0373047 -0.009668794 0.058865923
000090 48 07 aa bc 02 d1 b4 3e 4e 6f 86 bd 4a c6 01 3d
       -0.020755425 0.3531571 -0.065641984 0.031683244
0000a0 2d e1 62 bc 74 ed a7 bc cf c4 a1 bd 1d ce 9a bc
       -0.013847631 -0.020498969 -0.078988664 -0.01889711
0000b0 ac a0 d8 bd c4 b8 d0 3e 87 99 89 bc c4 f9 5b bd
       -0.10577521 0.40765965 -0.01679684 -0.053704992
0000c0 2a 1e ac bd 0d 9a d9 bc 2f 36 c8 bc 77 8c 87 bc
       -0.08404191 -0.026562715 -0.0244399 -0.016546471
0000d0 ac 07 82 bd 7e 8b 90 bd c1 83 7b bd 94 8a 07 3c
       -0.063491195 -0.07057856 -0.061404947 0.008272786
0000e0 ca e2 b3 bd 5f d0 3e 3d 78 03 ae bd 26 b6 e5 bc
       -0.08783491 0.046585437 -0.08496755 -0.028040957
0000f0 45 5b ff 3c 7f d8 ed be 82 53 8a 3b 32 77 7b bb
       0.03117145 -0.46454236 0.0042213807 -0.0038370606
000100 a5 62 03 bd c4 ed e5 3d a4 6a a2 bc 4d 12 98 bd
       -0.032076497 0.11226991 -0.01982624 -0.074253656
000110 6d 13 30 3c db 67 d9 be 20 4b c1 bc 31 46 29 bd
       0.010746819 -0.42462048 -0.023595393 -0.041326705
000120 54 64 ce bc 60 ae 18 bd 7c 88 07 3d d5 1a 18 3d
       -0.025194325 -0.037275672 0.033089146 0.037134964
000130 ca 71 d4 3c 33 cd 78 bc ae 33 06 bd 1d df bd 3c
       0.025933165 -0.015185642 -0.03276413 0.023177678
000140 1a fb 8f bd 5a 65 30 3b 2e c1 f0 bc cd ae 65 3c
       -0.07030316 0.002691588 -0.02938899 0.014018727
000150 42 5b de bb 55 ee 3d be f4 ea e3 bc fd 9c 08 3d
       -0.006785781 -0.18547948 -0.027821995 0.03335284
000160 38 b8 10 bd a1 ec 74 3d 63 45 20 be 0d f9 2e 3d
       -0.035331935 0.05979598 -0.15651469 0.042717982
000170 31 c5 90 3d 72 14 95 be 5d c0 41 bd 08 41 50 bc
       0.07068861 -0.2911716 -0.047302593 -0.012710817
000180 60 32 8a 3c d0 f5 a1 bd 96 41 74 bb f7 90 93 bc
       0.016869724 -0.07908213 -0.0037270538 -0.01801346
000190 59 2b fc 3c fb cd a0 3d 3d 55 68 3d b7 8e ba bd
       0.030782389 0.07851788 0.056721915 -0.09109252
0001a0 06 1e 49 bd e0 ec b7 bd 8d 9f bf 3b 3b c0 42 bd
       -0.0491009 -0.08980727 0.0058478774 -0.047546607
0001b0 7b df b1 3d f3 80 0d 3e a0 9d 43 bd c9 8e 53 bc
       0.08685204 0.13818721 -0.047757745 -0.012912461
0001c0 30 3b c3 bc f3 ea aa bd 74 68 69 bd 49 05 82 3d
       -0.023831934 -0.08345594 -0.05698438 0.06348664
0001d0 29 cd cf 3d 75 65 85 3c c3 ac fc bd 30 9c 0a 3d
       0.10146553 0.01628373 -0.12337639 0.03384036
0001e0 1f a9 c3 3d dc 5a b6 3b 84 c7 f0 bb eb 76 e2 bb
       0.09553742 0.0055650305 -0.007348003 -0.006911149
0001f0 99 f2 69 3d 01 40 c2 bc 72 ec 4d bd 0c 8e 0d bd
       0.057116125 -0.02371216 -0.05027432 -0.034559295
000200 5e 5b 85 3d 6b 8b 51 3d b8 6d af bc ed 43 51 bd
       0.065115675 0.05115835 -0.021414623 -0.05109017
000210 df 34 82 3c a2 d3 48 3e 54 2a cc bc c9 85 8f bd
       0.015894352 0.19611982 -0.024922527 -0.07007939
000220 73 e9 bb 3c 46 99 45 3d 22 63 ae bc 7f a5 d3 bd
       0.022938466 0.048241876 -0.021287505 -0.103343
000230 04 77 f6 bd 9d 91 b2 3e 8e 57 25 bd f4 8d 23 bd
       -0.12034419 0.3487672 -0.0403667 -0.0399303
000240 60 8f 96 3d 6a ae 39 bd ea e3 be bd dd 57 35 bd
       0.07351565 -0.04533235 -0.09320815 -0.044273246
000250 ae a3 bc 3d c9 8e 00 3e 24 6e 90 bd 79 4a 1e bd
       0.09210907 0.12554468 -0.07052258 -0.03864524
000260 25 7e 2b bc 3c b2 52 bd b7 4e b8 bd b5 17 b0 bc
       -0.010467087 -0.05143951 -0.08999389 -0.02149568
000270 4d 34 5e 3c cb b3 d0 3e ce 2b 85 3a fe ee 38 3d
       0.013562274 0.4076217 0.001016015 0.045149796
000280 7f 80 2a bd 86 a3 31 bc 84 dd bb bd 76 bf 94 bd
       -0.04162645 -0.01084221 -0.0917311 -0.07263081
000290 6c d6 0b be 89 a7 fb 3e b0 22 eb bc d7 05 a9 bc
       -0.13656014 0.49151257 -0.028703064 -0.020632667
0002a0 3c df d5 bd 15 52 bb 3b 2c 0b b0 3c 14 17 94 3c
       -0.10442969 0.005716572 0.021489702 0.01807741
0002b0 b8 18 c8 bd 60 e0 f2 bc b4 1d a8 bd 73 99 6f 3d
       -0.0977034 -0.029648006 -0.082087904 0.05849595
0002c0 91 79 8a bd a9 1d bf 3d d9 84 85 bc df a0 8b 3d
       -0.06761468 0.09331829 -0.016298698 0.06817793
0002d0 37 4d 1a 3d ba 55 b6 be 0d 1e 72 bd 76 d8 9f bc
       0.037671294 -0.3561228 -0.05911069 -0.019512396
0002e0 39 af de bc a5 85 69 3b 55 58 f1 ba b1 83 22 bd
       -0.027183162 0.0035632637 -0.0018413166 -0.039676372
0002f0 33 a3 9a 3d e3 5a e3 be 01 4f a6 bb 4c 57 18 3c
       0.07550659 -0.4440528 -0.005075336 0.009298157
000300 e0 1a 61 3d f6 3f 68 bd e5 56 76 3d d5 9d 97 bc
       0.05495727 -0.056701623 0.060141463 -0.018507877
000310 9e b2 a2 ba ff 31 9b 3c f9 9d 23 bd 41 e4 3f bc
       -0.0012412851 0.018944738 -0.039945576 -0.011712135
000320 1a 01 5f 3d 6b 63 15 bc 9f f1 65 bd 2a 0b 93 bc
       0.05444441 -0.009117941 -0.05613863 -0.01794966
000330 6d fd a7 bd 4a b5 cf 3e fe 70 2e bc ec ae 6c 3c
       -0.08202634 0.40568 -0.010647057 0.0144460015
000340 46 e5 e7 bb f5 6f 96 bd 5a 96 42 bd b2 fe 71 3d
       -0.007076892 -0.07345573 -0.047506668 0.059080787
000350 f5 20 33 be e2 63 e6 3e a7 4d 10 3c bc e2 92 bc
       -0.17493041 0.4499808 0.008807576 -0.017930381
000360 8b a5 34 bc 76 0a 6b 3c 7f 41 9f bc 71 8e c5 3d
       -0.011025797 0.014345756 -0.01944041 0.09646309
000370 9e c4 e6 3e 97 40 6f 3c d1 88 09 3d 46 6e be 3d
       0.45071882 0.014602802 0.033577744 0.09298377
000380 ff 37 76 3d fe f8 5e bd c3 98 06 3b 59 3f 41 3d
       0.060111996 -0.054436676 0.002053783 0.047179554
000390 53 cb 4e 3f ec 76 ca bc 7d f5 fd bb 15 47 e8 bc
       0.80779 -0.02471491 -0.0077502117 -0.028354207
0003a0 69 35 8c 3c b9 3c c3 bd e5 d9 ea 3c f0 1a 8f 3d
       0.017115312 -0.09533066 0.028668353 0.0698756
0003b0 e8 49 f8 3e e5 9e 43 3e 94 19 8c 3c 28 c8 74 3d
       0.48493886 0.19103582 0.01710204 0.059761196
0003c0 f2 4c 9c 3d 1d 9c 01 bc f7 4a aa 3c fb dc 01 3e
       0.07631864 -0.007910755 0.0207877 0.12681954
0003d0 25 7a ff 3e de 1a f6 bc 55 d3 c2 3c e4 53 16 3c
       0.49897876 -0.030042108 0.023782412 0.0091752745
0003e0 99 f2 09 3d ff 9f fd 3b 7a 09 db 3c 31 b3 32 3d
       0.033678625 0.0077400203 0.026737917 0.04362792
0003f0 41 0b 54 3f 9d dd 9a 3a 1a 2f 9e bc cb d2 5a 3d
       0.8282967 0.0011815313 -0.01930957 0.053423684

fc1.bias f4 [256]
000000 29 aa 4a bd 87 30 bb 3d 07 d8 38 be 59 e1 9e 3d
       -0.049478684 0.09140115 -0.18051158 0.077578254
000010 c8 f8 1b 3e 66 38 dc bd b8 c2 10 3e 27 1f 2d 3e
       0.15231621 -0.10752945 0.1413678 0.16906415
000020 42 e5 c5 3d 65 9d 6a 3d 2f 3d 26 3e 47 c6 e3 3d
       0.09662868 0.05727901 0.16234277 0.11121803
000030 fe 7c a5 bc ad b7 0f 3e 80 28 26 be 5e 94 d9 bd
       -0.020201202 0.1403491 -0.16226387 -0.10624002
000040 8a 78 3b be c7 04 c4 3d f2 f5 14 3e a7 17 45 3e
       -0.18307701 0.09571224 0.14546946 0.19247304
000050 4a 35 6b be cb 4f 45 3d 83 e1 07 be 21 b2 f8 bd
       -0.22969547 0.0481718 -0.1326962 -0.121433504
000060 6c 85 1a be 85 c2 59 be 8e 05 ba bd c1 94 9a 3d
       -0.15089959 -0.2126561 -0.09083091 0.07547904
000070 71 e6 6d bb 5c d4 05 be b5 7e 53 bd 07 56 23 be
       -0.0036300684 -0.1306929 -0.05163451 -0.15950786
000080 65 a4 17 be da 49 1d 3e 39 00 0b be c3 49 b0 3d
       -0.14808805 0.15360203 -0.13574304 0.08607819
000090 e1 5a 4c be b4 8b 33 bc 21 5b 3e 3d 35 8b ef bc
       -0.19956543 -0.010958601 0.046473626 -0.029241184
0000a0 ed f2 1a 3e 31 b5 1c 3d 4a cc 62 bd 92 81 35 be
       0.15131731 0.038258735 -0.055370606 -0.17725208
0000b0 3d b6 35 be c5 8d 9b 3d 77 4d eb 3d c5 a2 aa 3d
       -0.177453 0.075954 0.114893846 0.08331827
0000c0 67 80 9f bd 06 85 2d be 8f 09 e5 3d 5f 26 46 be
       -0.07788163 -0.16945276 0.11183464 -0.19350575
0000d0 13 19 a8 3d 9d 94 16 3e 23 6c b6 3d 77 ed 1b 3e
       0.082079075 0.14705129 0.08907344 0.15227304
0000e0 b6 27 80 3b 1f 3b 35 be fc d2 71 bd f4 58 70 3d
       0.003910984 -0.17698334 -0.0590391 0.058678582
0000f0 89 03 41 bd 98 b0 ab 3d 1f ab ba 3d 7f 3c ec bd
       -0.047122512 0.08383292 0.0911467 -0.11534976
000100 2a f0 ac bd d9 9a b6 bd 67 03 b7 bd 11 6f 48 be
       -0.08444245 -0.089162536 -0.08936196 -0.19573618
000110 b6 65 63 bd 7f 08 e0 3b 21 22 58 be 3f c7 2f be
       -0.05551692 0.0068369503 -0.21106769 -0.1716585
000120 54 65 11 3e 45 45 42 3e 4e 98 4b be eb 16 ee bd
       0.1419881 0.18971737 -0.19882318 -0.11625465
000130 a7 3f bf 3d a4 a5 a1 3c 18 40 2c be a8 92 35 bd
       0.093383126 0.019732304 -0.16821325 -0.044329315
000140 5b cb 68 be 1a 3c dd bb de ab 25 be 0a 2a 6b bd
       -0.22733824 -0.0067515494 -0.16178843 -0.05741314
000150 01 45 0d bd 9b c5 1d be 5a 2d 2f 3e 07 d6 9a bd
       -0.034489635 -0.15407412 0.17107144 -0.07560354
000160 b6 71 f4 3d 6e 57 a0 3d 13 fd 9f bd af 8e cd 3d
       0.11935751 0.07829176 -0.07811942 0.1003698
000170 4f c0 e5 3c 65 39 09 be 7b bd ad bd 20 3d 16 be
       0.028045801 -0.134008 -0.08483406 -0.14671755
000180 e7 df ce 3b 4d ea 57 3d ac eb 22 3e 9e bb d4 bd
       0.0063133123 0.05271368 0.15910214 -0.10387348
000190 2e 17 40 be 36 49 d3 bd f7 c2 00 be b3 b0 a4 bd
       -0.18758842 -0.10316698 -0.12574373 -0.08041515
0001a0 0d 7a dd bd 88 77 59 3e d2 40 ba bd 0a 17 c1 bc
       -0.10814295 0.21237004 -0.09094395 -0.023570556
0001b0 69 e8 40 be c3 de 2c 3e 64 a3 0d 3e f4 8d 7d be
       -0.18838657 0.16881852 0.1383186 -0.24761182
0001c0 69 ab 03 3d 79 18 e9 3d 7a 04 d3 3d 47 1d 98 bd
       0.03214589 0.11381621 0.10303588 -0.07427459
0001d0 e1 fa a5 bd 88 e4 c9 bb 92 60 33 be 3e de 7c be
       -0.08104492 -0.0061612763 -0.17517307 -0.24694154
0001e0 e1 7f 57 3d 2f 14 5a be 0c 91 40 3c e0 75 01 bd
       0.05261219 -0.21296762 0.011753332 -0.031606555
0001f0 c1 1a bb 3c 41 36 1f bd 7d cc 07 3b 29 42 72 bd
       0.022839906 -0.0388701 0.002072125 -0.059145126
000200 82 50 20 bd dd 4d 2f bd a6 1d 1e bc 1a 69 74 3e
       -0.03913928 -0.042798866 -0.009650623 0.23868218
000210 96 d2 02 3e 0c 40 80 bd 0c fa f3 3d 73 ad 02 3e
       0.12775645 -0.06262216 0.11912927 0.12761478
000220 ca 5f 20 3e 50 11 d4 bd 5a 4a 15 be 88 54 e7 3d
       0.1566154 -0.103548646 -0.14579144 0.1129542
000230 81 a4 50 3d f2 66 62 be 7e b1 c6 3d e4 ea db bd
       0.050938133 -0.22109583 0.09701823 -0.10738161
000240 85 81 ca bc b7 25 07 3d 88 d9 a6 3d 21 4a 4b 3d
       -0.024719963 0.032994952 0.081469595 0.04963124
000250 f5 d5 e8 bd 21 05 65 bd c1 73 3a bb 47 aa 09 3e
       -0.11368934 -0.055913094 -0.0028450342 0.13443862
000260 5b a2 3c 3d 5d 5e 2a 3e 91 12 ef 3d 83 f4 10 bd
       0.04605327 0.16637559 0.11673463 -0.035389435
000270 7d 0c a5 bd 3c a2 c9 bd 26 0e 09 3e 5c 8e ab 3c
       -0.080590226 -0.09845397 0.13384303 0.020941906
000280 28 f7 06 3e 35 9f 42 3d 51 71 e9 3d ce cb 8e 3d
       0.1318022 0.047515113 0.113985665 0.069724664
000290 7c a3 94 bd 6f 1b 2d 3d 50 75 92 bd 30 53 12 be
       -0.07257745 0.04226249 -0.07151282 -0.14289546
0002a0 da d7 f3 3d 56 1b 3b be 71 db bf 3d f1 46 e9 3d
       0.11906405 -0.18272147 0.09368027 0.11390484
0002b0 c2 c0 fe bc 2b 3e 92 bd 99 9c a2 3d 36 b6 35 bd
       -0.031097773 -0.07140764 0.07940025 -0.044363223
0002c0 a7 d5 7f be 1d 8f 0e 3e 72 75 10 3d 31 83 04 3e
       -0.24983846 0.13921781 0.035268255 0.1294067
0002d0 16 79 a6 3d 93 2d 0d 3e 2e 75 9a 3c 09 28 20 be
       0.08128564 0.13786916 0.018854704 -0.15640272
0002e0 b7 9d 6d 3e a1 fd 33 be d4 3c 12 3d f8 24 5e bc
       0.23204695 -0.1757722 0.03570254 -0.013558619
0002f0 8d db 3a 3e cd 6a d3 3d a3 78 08 be f6 f5 26 3e
       0.18247814 0.10323105 -0.1332727 0.16304764
000300 3d bb e6 3d e6 a7 78 be 2d f2 c4 3d 5d 81 b8 bc
       0.112661816 -0.24282798 0.09616504 -0.022522623
000310 b4 40 19 be 7e ff 36 3e bd 74 27 3e 13 7d 82 3d
       -0.14966089 0.178709 0.16353126 0.06371512
000320 05 7c 54 be ef d6 ba 3c 53 96 0a 3e 8f f2 2f 3d
       -0.20750435 0.022807566 0.13533907 0.04295593
000330 94 24 57 be 5c 56 4a 3e 9f 77 72 bc 17 7b 99 bd
       -0.21010047 0.19759506 -0.014799028 -0.07494181
000340 18 2d 43 be a0 d3 6a 3d d3 cc bc 3d 58 62 9a 3d
       -0.1906017 0.057330728 0.092187546 0.07538289
000350 91 f7 db 3d 02 93 05 3c 62 5c ff bd ce f3 29 be
       0.10740579 0.008152725 -0.124687925 -0.1659691
000360 63 93 48 3e 89 ad eb 3d ba 76 50 be ab c5 30 be
       0.19587474 0.115077086 -0.2035779 -0.17262904
000370 a2 67 07 3e 10 56 03 be e9 b5 92 3d c0 03 43 bc
       0.13223127 -0.12825799 0.07163603 -0.01190275
000380 ed 6b d4 3d 57 43 39 bd 9c cd 62 3d 77 4f 31 be
       0.10372148 -0.045230236 0.055371866 -0.1731547
000390 55 02 2e 3e 82 ad d7 bd 2a b7 27 be f0 a0 d5 bb
       0.16993077 -0.10531141 -0.16378465 -0.0065194294
0003a0 e8 ee b9 3c d4 51 00 be 25 5b 9c bd bf 89 10 3e
       0.022696927 -0.12531215 -0.07634572 0.14115046
0003b0 ba 4c d7 bc 1c 24 d3 3d 25 a2 15 3e 19 69 9c 3d
       -0.026281703 0.10309622 0.14612634 0.07637233
0003c0 ff 41 11 3e a0 3c 0a be 0c d3 01 be 8b 66 d3 bc
       0.14185332 -0.13499689 -0.12678164 -0.025805732
0003d0 4d d9 a4 bd 0e ce 8f bb cb a1 9c 3d 9f 64 3a be
       -0.08049259 -0.0043885773 0.07648047 -0.18202446
0003e0 9f 64 e2 3d fe 6e 25 3e 1c c8 f0 3d 1d ea 19 3e
       0.11054348 0.16155621 0.11756918 0.15030713
0003f0 fc 6a 2e 3e c8 db 34 bd cc 58 75 bd 7b 06 38 be
       0.17032999 -0.044154912 -0.059899136 -0.17971222

fc2.weight f4 [128, 256]
000000 a8 ee aa 3d 3c 32 b7 3c 25 d4 8d 3d 98 61 a9 3d
       0.08346301 0.02236282 0.06925229 0.08270568
000010 03 42 21 3e 42 a3 f6 bd 4d f5 94 bd e1 22 86 3d
       0.15747838 -0.12042858 -0.0727335 0.065496214
000020 9a b7 26 bc 35 17 ae 3d 56 ee 24 3e f7 0b a8 3c
       -0.01017561 0.0850052 0.16106543 0.020513518
000030 c8 d0 9b 3c 3b c1 a4 bd 86 b1 8c bd 77 39 10 3e
       0.019020453 -0.08044668 -0.068697974 0.14084421
000040 5f b8 a5 3d 4a c1 ca 3d b9 d6 5c bc 82 4f 14 3e
       0.080918066 0.09900148 -0.013478928 0.14483455
000050 13 b8 c5 3b 9e d3 af 3b ab 0a 0a 3d 0a 67 99 bd
       0.0060339062 0.005365803 0.03370158 -0.07490356
000060 2a 7c 54 bd 9b 4f fe 3c b0 ee 6e 3d f6 36 a3 3c
       -0.051876225 0.031043818 0.0583331 0.019923668
000070 fe 98 89 bd 54 4e 3d bd 0d b5 d4 3c 59 1a d4 bd
       -0.06718634 -0.046217278 0.025965238 -0.10356588
000080 45 00 fb 3d b2 30 a5 3d a3 4c e9 3c fa d2 22 3e
       0.12255911 0.080659285 0.028478926 0.15900794
000090 3b 60 0e 3d 33 1c 6a bc 84 cd 53 3c 07 48 b5 3d
       0.03475974 -0.01428895 0.012927417 0.08851629
0000a0 a2 76 d2 3d 63 3a fe 39 87 43 65 bd 8f 09 ab bb
       0.10276534 0.00048490157 -0.055972602 -0.0052196453
0000b0 ff 94 09 3d 6a 14 c1 bc 91 3f d2 3c e8 b4 a8 bd
       0.03358936 -0.023569304 0.025665076 -0.0823763
0000c0 98 70 e2 3d f9 e4 89 bd 35 30 81 bd d7 76 d2 3b
       0.11056632 -0.06733126 -0.06308023 0.006422858
0000d0 e2 8d 5c 3d 84 8a 94 3c 51 17 70 bd 1b 9a ed 3c
       0.053846247 0.018132456 -0.058615986 0.029004147
0000e0 3f ae 9a 3b 08 3d 50 bd 35 1b 81 3c 9c c1 70 3d
       0.004720479 -0.050839454 0.015760044 0.05877839
0000f0 71 bf 34 bd 75 c4 a4 3d 23 2b 55 3c 4e a5 c3 3d
       -0.044127885 0.08045284 0.013010773 0.09553014
000100 00 1f 5e 3d 56 d3 2a 3d 07 81 5e 3d ee 31 01 3d
       0.054228783 0.041705452 0.05432227 0.031541757
000110 f9 d5 ae bd 71 90 44 3d 9b 99 91 3c 51 8c 71 3d
       -0.08536906 0.047989313 0.01777344 0.058971707
000120 14 d4 cf bc 87 ca cd 3c 59 40 d7 bc 5a 27 8a 3d
       -0.025369681 0.025120987 -0.0262758 0.06745787
000130 77 3f 75 3d c3 64 1e bd 63 3e ad 3d 7b 01 ab bb
       0.059874978 -0.038670313 0.08459165 -0.0052186823
000140 66 5d a9 3d a1 73 99 bc 4d e7 04 bd fe 29 bd bd
       0.082697675 -0.018731894 -0.032447148 -0.09236525
000150 59 b4 35 bd 10 ed 30 bd 10 18 71 bd ae 54 d3 3d
       -0.044361446 -0.04319483 -0.05886084 0.10318886
000160 14 3b 15 3c 6a 66 a3 bd 59 62 01 3d da 60 8d bd
       0.009108324 -0.07978518 0.031587932 -0.069032386
000170 49 40 1b bc d4 78 80 3d 84 16 e5 3d 9d f9 81 3d
       -0.009475776 0.06273046 0.11185935 0.06346438
000180 63 0c e3 bd cd 21 b5 3d a9 dc 35 3d 4b 95 28 3e
       -0.11086347 0.088443376 0.04439989 0.16463201
000190 31 1d a0 3b 68 80 01 bc 4d 45 90 3c f4 2b c4 3c
       0.0048862924 -0.00790415 0.01761117 0.02394674
0001a0 6b aa cb bc 1b 80 27 bd 73 ff 90 bc c2 b6 9c 3d
       -0.024861535 -0.040893655 -0.017699933 0.07652046
0001b0 9a 55 0a 3c b5 fe c5 bd 6e 34 1c 3e 56 c6 10 3d
       0.008443261 -0.09667722 0.15254375 0.035345398
0001c0 46 db 6b bd 68 71 f0 3d 3d f2 21 bc 69 27 43 bd
       -0.057582162 0.117403805 -0.009884414 -0.047645006
0001d0 86 a8 26 3d e3 3f 6f 3d 81 ce 16 3e 6e 4a 31 3d
       0.04068806 0.058410536 0.14727212 0.043283872
0001e0 17 42 08 3c 54 21 db bd ef df a6 bd 18 1d 95 bd
       0.008316538 -0.10699716 -0.08148181 -0.0728094
0001f0 f8 c8 2f 3d 76 e4 81 bd c8 3a 2b bd 9b 06 fa bb
       0.042916268 -0.063424036 -0.041804105 -0.007630182
000200 34 b3 db 3d a1 37 a0 bc 95 d8 a1 3c e9 4f 36 bd
       0.1072754 -0.019557776 0.019756595 -0.044509802
000210 d1 6b e7 3d 42 ed 84 3d c8 d7 1a 3d 91 9e 6e 3d
       0.11299861 0.06490566 0.03780344 0.05825669
000220 3b 96 02 3d 28 b9 b9 bd ed 05 ce 3c 0e 27 84 bd
       0.031881552 -0.09068519 0.02514931 -0.064527616
000230 b2 9a 8e bd f0 41 3f 3c 9f 53 3d be c4 fa bc bc
       -0.069630995 0.011673436 -0.1848893 -0.023068793
000240 cb 27 10 bc ec 22 a7 bd f4 9f 6d bd 72 2f b4 3d
       -0.00879855 -0.08160958 -0.05801387 0.08798112
000250 7b 91 b6 bc ed 1b 23 3d 4f 16 48 3d 16 ca ae 3d
       -0.022286167 0.039821554 0.0488494 0.085346386
000260 25 35 22 3e 2f 4a 5b 3d f7 40 85 bd 1d db f1 bd
       0.15840586 0.053537544 -0.06506532 -0.11809371
000270 c1 a2 c5 bc 8b 2f a1 3d f3 77 d0 3c 00 04 02 be
       -0.024125459 0.07870396 0.025447821 -0.12696838
000280 cd d6 85 3d ed 63 dd 3d a4 67 6e 3d c1 1e b4 3d
       0.065351106 0.10810075 0.05820431 0.08794928
000290 1c 27 96 bd e5 24 a7 3d 52 a0 ae 3c f1 1e 5f bd
       -0.07331678 0.08161334 0.021316681 -0.054472867
0002a0 ce 1d ba 3c 4c 35 4b 3c 6f 93 8d bd 6d 77 05 3d
       0.02271929 0.012402844 -0.06912886 0.032584596
0002b0 9b ed 37 bc 06 58 ed bc b8 f3 87 3d cb 37 b8 3d
       -0.011226083 -0.028972637 0.066382825 0.08995017
0002c0 c5 82 d0 3d a6 dd 49 bd 82 f1 04 3c a9 f1 ec 3a
       0.10181192 -0.049283646 0.008114221 0.0018077391
0002d0 f8 36 af bd 3b 64 58 3d 58 66 4e bd e3 d6 80 3d
       -0.08555406 0.052829962 -0.05039057 0.062909864
0002e0 43 08 0e be 81 9f fc 3c 10 10 48 bd ab 69 9d bd
       -0.13870339 0.030837776 -0.048843443 -0.0768617
0002f0 0e b1 02 bd b8 9a 77 bd 60 0e 94 3c 9a dc 49 bd
       -0.031907134 -0.060450286 0.01807326 -0.049282648
000300 18 03 df ba 60 d9 a3 bd af 09 7b bd 24 de 3c 3c
       -0.0017014472 -0.08000445 -0.061288532 0.011527572
000310 90 f0 73 3d 79 97 d0 bd 12 80 a6 3d 32 cc 89 3b
       0.05955559 -0.10185141 0.08129896 0.00420525
000320 95 71 03 bb bd b3 b4 3d 30 45 95 3d bb 99 aa bd
       -0.0020056714 0.08823345 0.07288587 -0.08330103
000330 a7 ed 84 3d 0e 3f 11 3c 12 23 89 bd 09 05 1f bd
       0.06490641 0.008865131 -0.06696142 -0.03882316
000340 52 08 75 bd 26 b0 1e bd 0a 4e ce 3d db c4 de bc
       -0.059822388 -0.038742207 0.100734785 -0.027193477
000350 58 db 4e 3c be 92 75 3d 13 a2 ae ba fe 00 70 3d
       0.012625538 0.059954397 -0.0013323448 0.058594696
000360 17 b0 8c bd 24 48 b0 bd b6 d3 c9 bd 61 ee 35 bc
       -0.06869524 -0.0860751 -0.09854834 -0.011104197
000370 bd d8 64 bd a3 5d ed 3c 82 82 45 3d 79 cb 7c 3d
       -0.05587076 0.028975314 0.048220165 0.061717484
000380 ed b2 22 bd 0b 3f ba 3c a7 9d 95 bd 8c de 52 3d
       -0.03972142 0.02273514 -0.073054604 0.05148177
000390 a1 86 2f bd 71 ae a3 bb f7 79 a8 3d 46 f8 94 3d
       -0.042853 -0.0049951603 0.08226388 0.07273917
0003a0 ea db 40 3d ef 0c 17 3a 98 6e b6 bd 09 c0 72 ba
       0.047084726 0.000576212 -0.08907813 -0.0009260183
0003b0 09 28 8c bd a1 2a 35 bd 1a 8e 2a bd 11 96 a8 3a
       -0.068435736 -0.044230107 -0.041639425 0.0012862106
0003c0 96 61 13 bd 37 ed 0c 3d 9d 8c 57 3d 80 ba f6 bc
       -0.035981737 0.034405913 0.052624334 -0.030118227
0003d0 52 4b e4 bc db 51 e6 3b f7 02 2d bd 3a 94 bc bd
       -0.027867947 0.007028801 -0.042239156 -0.092079595
0003e0 26 25 84 3c 66 21 b5 3c d3 00 34 bd 44 21 bf bc
       0.016130995 0.022110652 -0.0439461 -0.023331292
0003f0 d5 b0 91 bd 87 c5 25 bb 10 92 13 3d 91 71 fb bc
       -0.07113806 -0.0025294737 0.036027968 -0.030693801

fc2.bias f4 [128]
000000 70 0a 96 3c d1 d8 46 3d 4c 79 0e 3d 69 fa 1e bd
       0.018315524 0.048546616 0.034783646 -0.03881303
000010 db 15 46 bc d1 dd e4 bb 88 ea df 3c 28 ed bf 3a
       -0.012090172 -0.0069844504 0.027333513 0.0014642822
000020 15 17 1b 3d 1d 10 da bd a1 2c 78 bc 08 49 03 3c
       0.03786381 -0.106476046 -0.015147359 0.0080130175
000030 c2 93 0d bc 44 2f 46 3d ed 2b 85 3d 68 83 4a bd
       -0.008641185 0.04838492 0.06502519 -0.049441725
000040 1b af 39 bd d3 5b cd bc 33 97 36 bd 9e ca 09 3d
       -0.04533301 -0.0250682 -0.04457779 0.033640496
000050 de 85 99 3d 39 f9 d4 bc 0a 11 17 bd 4f a4 6c 3d
       0.07496236 -0.025997745 -0.036881484 0.057773884
000060 97 6a 66 bc 86 e4 80 bd 0e de 55 3b a1 9f 78 bb
       -0.014063499 -0.062935874 0.0032633576 -0.0037936943
000070 d5 63 27 3c 55 cc fd 3d 38 d7 35 bd 9d 34 0f bc
       0.010216673 0.12392489 -0.0443947 -0.008740571
000080 6f 36 b0 3d b8 f1 63 bd 0b 57 d0 bd 5a 01 b3 3d
       0.086041324 -0.055650443 -0.10172852 0.08740492
000090 ff 49 57 bd 27 22 1d 3d f5 ec 76 bd 09 e3 f9 bc
       -0.052560803 0.03836265 -0.060284574 -0.030503767
0000a0 18 7c 23 bd 70 12 b0 3c 28 19 9b bd e4 45 25 bd
       -0.039913267 0.021493167 -0.075731575 -0.040349856
0000b0 90 f3 ce 3d fd a0 ae 3d 07 be 90 3b 8a 29 5b bd
       0.101050496 0.085268 0.0044171843 -0.05350641
0000c0 f8 08 e2 3c 56 0e 15 bd d7 3f 3c 3c 59 a9 4f 3d
       0.027592167 -0.036390625 0.01148983 0.050698612
0000d0 fc 7c 9d bb 1d de d7 bc c6 93 6f 3d e9 fa 10 3c
       -0.004806159 -0.026351029 0.058490537 0.008848884
0000e0 4b 6a ac bd f9 6e cb 3d 0a ab 33 3d 58 fd 33 3c
       -0.08418711 0.09933276 0.043864287 0.010985695
0000f0 50 80 a0 bb 68 9a a9 3c a8 d5 de 3d fb 9d 33 bc
       -0.0048981085 0.02070351 0.108805954 -0.010962958
000100 91 ee 0d 3d fc c8 2c 3c 5f e5 b8 3c 55 1b 5b 3c
       0.034651343 0.010545965 0.02257031 0.013373216
000110 91 e4 00 bd 3d 1d fb 3d 74 e4 a9 bc 05 4a 09 3c
       -0.031467978 0.12261436 -0.020738818 0.008379464
000120 20 b9 32 bd 82 0a e0 3c e9 db 42 3c f3 f3 b4 3d
       -0.04363358 0.02734876 0.011893251 0.08835592
000130 14 0b b8 3b f6 4d 08 3d c1 c2 22 3c f1 67 a7 3d
       0.005616555 0.033277474 0.009934128 0.08174122
000140 ba 0b 2b bc 54 bd 9b 3c a5 e9 4d bd bf 01 cf bc
       -0.010439808 0.019011177 -0.05027165 -0.025269387
000150 2e 63 9a 3d 51 fe 8e bd 39 77 9a bd 4e 3e a2 3d
       0.07538448 -0.06982101 -0.07542271 0.0792204
000160 cf 19 59 bc 36 b0 ba 3c 42 eb 50 bd 23 de 24 3d
       -0.013250782 0.022789102 -0.05100561 0.04025091
000170 bf f3 1c bd 84 d8 e9 3d 26 bc 89 3c 87 7e 99 bd
       -0.038318392 0.1141825 0.016813349 -0.07494836
000180 a5 96 99 bd c3 2f c2 3d 09 4d a5 3c 88 65 04 3d
       -0.07499436 0.09481766 0.020178335 0.03232339
000190 f2 7b cb bc 73 98 26 3d 33 bd 00 bd 72 09 a5 3d
       -0.024839375 0.04067273 -0.031430434 0.08058442
0001a0 c9 99 3e bc e8 1d 6b bd f3 0c 27 bc bd bc 77 3c
       -0.011633345 -0.057401568 -0.010195958 0.015120682
0001b0 b4 b7 8d 3c 69 92 03 3d f2 d5 9f bc b8 97 bd 3b
       0.01729951 0.03212205 -0.019511197 0.0057859086
0001c0 5f 2c 83 3d 32 bf 7a bd a4 11 8a 3c b6 fc 88 bd
       0.064049475 -0.061217494 0.016854115 -0.06688826
0001d0 b4 ff 75 bd d7 85 6d bc 4a de ab 3c cc 76 79 3c
       -0.06005831 -0.014497242 0.02098002 0.015226077
0001e0 06 c2 bb 3b 17 1e aa bd 49 10 14 bc 98 a6 26 3d
       0.0057299165 -0.083065204 -0.009037086 0.04068622
0001f0 da 89 52 3c 0b 0b 88 3d 86 ae c5 3c 11 24 88 bc
       0.012850249 0.06642731 0.02413107 -0.01661876
