checkpoint_actor0.pth (torch_old, 163740 bytes, 10 tensors)

bn.weight f4 [256]
00000000: 25f4 413f d601 8f3e 185f ce3e 4814 3c3f
00000010: e0df ef3c 89c3 4c3f 9655 cb3e 851e 413f
00000020: 4fcb 113f 80a7 e03e 9080 233f 8150 063f
00000030: ccbf 2e3f 8e3c 9c3e da55 ed3e f8f3 e83e
00000040: 868d 123f 32fa fe3e b2e4 6f3f 14d5 273f
00000050: fca9 a03e 94c5 4a3e 2417 d53e a893 913e
00000060: 16f7 ad3e fc20 063f ea4d 4c3f 9c92 453f
00000070: 40e7 373c 8e59 4f3f 32c2 233f 446a 793f
00000080: d77c 543f 70fd 353d 207d c93c e285 843e
00000090: f765 703f bc5b d53e 60c7 363f ac08 893e
000000a0: 8d98 7d3f d2af 933e 89fd 5f3f 0784 013f
000000b0: fc44 723e 3dcb 413f 5838 703e 39a5 253f
000000c0: 0214 b63e 00ef e33e 8027 9e3c a2f1 853e
000000d0: 0875 453f b0c5 c13e 8d7e 7f3f 739a 663f
000000e0: 5e03 f43e a83f 2a3e 79f2 4d3f c8b9 273f
000000f0: 7808 353e 4724 533f 83b5 4d3f c685 713f
00000100: 54fe 603e 62dc d53e 720a fb3e 03b2 123f
00000110: 20de f63d 60ac 143e f1a1 453f 56f8 c33e
00000120: 4c86 3e3f 1a4c 073f 3407 2a3f 5025 1c3f
00000130: 6d8a 2e3f 7373 3f3f 9052 173d d26d 403f
00000140: 3c00 183e 0062 fb3d c4c8 073f 3260 d43e
00000150: 6f2d 4b3f 887b 573e 705d 633d 8727 5d3f
00000160: 340a da3e 99fe 473f 6826 293f 5810 003e
00000170: 09b7 193f c3be 1e3f 9c2f 293e fc88 863e
00000180: 17a5 2b3f 7ded 163f c81a 933e 3681 b23e
00000190: a53b 753f 72a2 d03e 532a 483f a66c 373f
000001a0: 200a 353e 0029 993d a2dd 7a3f 0aaf 063f
000001b0: 17bd 573f 8f86 1a3f ef2a 293f 579c 5f3f
000001c0: 195f 793f 1c3f 2c3e f300 103f 5c85 5f3f
000001d0: 4aba 5c3f be84 4f3f b874 0d3e 804e 0f3e
000001e0: 605b 4a3e 9714 103f b792 7f3f 0495 3c3e
000001f0: 7135 443f 349d 643e 60e0 f43c 0097 c93e
00000200: f8bf 493f fdd4 763f 3407 423e 06c7 1b3f
00000210: 3472 6e3f d5d1 543f c6c5 4f3f 02f6 5a3f
00000220: 4cf6 503f db0f 213f 54e2 213e 5816 a43d
00000230: 0eb2 8a3e 9a30 e23e 202b 463e 4bd4 2e3f
00000240: 4c9d 273f 5608 c63e 1432 313f 1e5e 293f
00000250: 2426 4e3f 6733 563f 0e4e a93e 2d0f 7d3f
00000260: 8867 e23e 7234 f73e 00de e53c f077 363e
00000270: 48e3 543e c080 923e 0d01 5b3f 1458 ac3e
00000280: 5c64 013e 7c3f 313f 51fb 283f 87e7 523f
00000290: e40d 773e 98c0 1b3f 94cd a23e b87b c63e
000002a0: a0f4 cf3d 4053 8b3e 1899 b13e c1bc 363f
000002b0: 5e62 173f 3c9e 1f3f e9c1 7f3f 98c0 7c3f
000002c0: 524d 573f 7313 043f 84cd 1d3e 8208 643f
000002d0: d8fb bf3e b84d eb3e 38d3 8d3d c46e cd3e
000002e0: 28c4 353e b69e 753f 00bb 8a3d 48cf e13d
000002f0: a44e f73e 5827 6b3e c6cc 2d3f 8475 9d3e
00000300: 8ec2 873e e73f 073f b0a8 5c3f d8d8 173e
00000310: 0f1c 3c3f 853b 523f 9135 7d3f a8a2 193e
00000320: 1400 1f3f d869 053e b047 6d3f 2cb2 9c3e
00000330: e519 4d3f 8dcf 033f e20f ec3e e4d4 f73e
00000340: 61c2 153f b556 3c3f 5487 143f 0a0c 273f
00000350: 00c6 4d3d b740 5d3f 3d99 6f3f 38ce 693f
00000360: d99e 5e3f 5486 0e3e ce19 a13e 60dc 703f
00000370: c80f f43d d31f 743f c8a0 da3d c457 173e
00000380: 8e93 3e3f 3422 103e a859 c53e 741e 5d3f
00000390: 2b63 653f 860e 793f 9a0d cc3e c015 e43d
000003a0: bb07 7e3f 1e77 c93e 30ac 963e fb33 1f3f
000003b0: 24f2 193e c221 543f c738 503f a879 d33d
000003c0: 28ea b63d 4893 e93e 65c3 353f f095 f83e
000003d0: 5460 7c3e 28ed 023f a009 f63c 6c23 163e
000003e0: c42a 2b3e 7169 693f 2fd5 703f 9a0b a93e
000003f0: a8bd 053f ce15 393f 2d56 0f3f 5c9d 7f3e
0.7576316 0.27931088 0.40306926 0.73468447 0.029281557 0.7998586 0.39713734 0.75437194
0.5695085 0.43877792 0.63868046 0.5246659 0.6826141 0.3051495 0.46354562 0.45498633
0.572472 0.4980026 0.93708336 0.65559506 0.31379688 0.19801933 0.41619217 0.28432965
0.33977574 0.5239408 0.7980639 0.77176833 0.011224568 0.80996025 0.63968194 0.97427773
0.8300299 0.04443115 0.024595797 0.25883394 0.93905586 0.4167155 0.7139797 0.2676443
0.990609 0.28845078 0.8749624 0.5059208 0.23659128 0.7570074 0.23458993 0.64705235
0.3556214 0.4451828 0.019305944 0.26160914 0.771317 0.37846136 0.99802476 0.9007942
0.4765882 0.16625845 0.8044811 0.65517855 0.17679012 0.8247723 0.8035509 0.9434475
0.21972018 0.417697 0.49031407 0.57302874 0.12054086 0.14518881 0.7720023 0.38275403
0.7442367 0.52850497 0.6641724 0.60994434 0.6817997 0.74785537 0.036943972 0.7516757
0.1484384 0.122745514 0.5304072 0.4147964 0.793662 0.21043217 0.05550903 0.8638844
0.4258591 0.7812286 0.6607423 0.12506235 0.60044914 0.6200983 0.16522068 0.26276386
0.6704878 0.5895613 0.2873137 0.34864205 0.95794135 0.40748936 0.7818958 0.7165016
0.17679644 0.07478523 0.97994435 0.5261084 0.84272903 0.6036157 0.66081136 0.8734793
0.9741073 0.1682095 0.5625145 0.87312865 0.86221755 0.81061924 0.13814056 0.13994789
0.1976142 0.5628142 0.99833244 0.1841622 0.76644045 0.22325593 0.029892147 0.39373016
0.78808546 0.96418744 0.1894806 0.6085056 0.9314301 0.8313268 0.81161153 0.8553163
0.8162582 0.6291482 0.15808994 0.08012074 0.2708897 0.44177705 0.19352388 0.68292683
0.6547439 0.38678235 0.6921704 0.66159236 0.8052695 0.83672184 0.33067364 0.9885128
0.44219613 0.482822 0.02805996 0.1781919 0.20789826 0.28613853 0.8554848 0.33660948
0.1263594 0.69237494 0.6600848 0.8238453 0.24126393 0.6084075 0.3179747 0.38766265
0.101540804 0.27211952 0.34687114 0.71381766 0.5913447 0.6235082 0.9990526 0.98731375
0.84102356 0.5159218 0.15410429 0.8907548 0.3749683 0.45957732 0.069250524 0.4012357
0.17750609 0.959453 0.06773949 0.11025864 0.48302186 0.22964227 0.67890584 0.3075372
0.2651562 0.5283188 0.86194897 0.14828813 0.73480314 0.8212207 0.9890986 0.15003455
0.62109494 0.13028657 0.9268751 0.30604684 0.80117637 0.5148857 0.46105868 0.4840461
0.58499724 0.73569804 0.58018994 0.65252745 0.050237656 0.8642687 0.935932 0.9133029
0.8696113 0.1391843 0.31465 0.94086266 0.119170725 0.9536106 0.10675198 0.14779574
0.744439 0.14075547 0.38544965 0.8637459 0.89604443 0.97287786 0.39854127 0.11136961
0.99230546 0.39348692 0.29428244 0.6218869 0.15033776 0.8286401 0.81336635 0.103259385
0.089313805 0.4562018 0.71001273 0.48551893 0.24646121 0.5114312 0.030033886 0.1466195
0.16715533 0.91176516 0.9407529 0.33016664 0.5224252 0.72298896 0.5599087 0.24962372

bn.bias f4 [256]
00000000: 0000 0000 0000 0000 0000 0000 0000 0000
00000010: 0000 0000 0000 0000 0000 0000 0000 0000
00000020: 0000 0000 0000 0000 0000 0000 0000 0000
00000030: 0000 0000 0000 0000 0000 0000 0000 0000
00000040: 0000 0000 0000 0000 0000 0000 0000 0000
00000050: 0000 0000 0000 0000 0000 0000 0000 0000
00000060: 0000 0000 0000 0000 0000 0000 0000 0000
00000070: 0000 0000 0000 0000 0000 0000 0000 0000
00000080: 0000 0000 0000 0000 0000 0000 0000 0000
00000090: 0000 0000 0000 0000 0000 0000 0000 0000
000000a0: 0000 0000 0000 0000 0000 0000 0000 0000
000000b0: 0000 0000 0000 0000 0000 0000 0000 0000
000000c0: 0000 0000 0000 0000 0000 0000 0000 0000
000000d0: 0000 0000 0000 0000 0000 0000 0000 0000
000000e0: 0000 0000 0000 0000 0000 0000 0000 0000
000000f0: 0000 0000 0000 0000 0000 0000 0000 0000
00000100: 0000 0000 0000 0000 0000 0000 0000 0000
00000110: 0000 0000 0000 0000 0000 0000 0000 0000
00000120: 0000 0000 0000 0000 0000 0000 0000 0000
00000130: 0000 0000 0000 0000 0000 0000 0000 0000
00000140: 0000 0000 0000 0000 0000 0000 0000 0000
00000150: 0000 0000 0000 0000 0000 0000 0000 0000
00000160: 0000 0000 0000 0000 0000 0000 0000 0000
00000170: 0000 0000 0000 0000 0000 0000 0000 0000
00000180: 0000 0000 0000 0000 0000 0000 0000 0000
00000190: 0000 0000 0000 0000 0000 0000 0000 0000
000001a0: 0000 0000 0000 0000 0000 0000 0000 0000
000001b0: 0000 0000 0000 0000 0000 0000 0000 0000
000001c0: 0000 0000 0000 0000 0000 0000 0000 0000
000001d0: 0000 0000 0000 0000 0000 0000 0000 0000
000001e0: 0000 0000 0000 0000 0000 0000 0000 0000
000001f0: 0000 0000 0000 0000 0000 0000 0000 0000
00000200: 0000 0000 0000 0000 0000 0000 0000 0000
00000210: 0000 0000 0000 0000 0000 0000 0000 0000
00000220: 0000 0000 0000 0000 0000 0000 0000 0000
00000230: 0000 0000 0000 0000 0000 0000 0000 0000
00000240: 0000 0000 0000 0000 0000 0000 0000 0000
00000250: 0000 0000 0000 0000 0000 0000 0000 0000
00000260: 0000 0000 0000 0000 0000 0000 0000 0000
00000270: 0000 0000 0000 0000 0000 0000 0000 0000
00000280: 0000 0000 0000 0000 0000 0000 0000 0000
00000290: 0000 0000 0000 0000 0000 0000 0000 0000
000002a0: 0000 0000 0000 0000 0000 0000 0000 0000
000002b0: 0000 0000 0000 0000 0000 0000 0000 0000
000002c0: 0000 0000 0000 0000 0000 0000 0000 0000
000002d0: 0000 0000 0000 0000 0000 0000 0000 0000
000002e0: 0000 0000 0000 0000 0000 0000 0000 0000
000002f0: 0000 0000 0000 0000 0000 0000 0000 0000
00000300: 0000 0000 0000 0000 0000 0000 0000 0000
00000310: 0000 0000 0000 0000 0000 0000 0000 0000
00000320: 0000 0000 0000 0000 0000 0000 0000 0000
00000330: 0000 0000 0000 0000 0000 0000 0000 0000
00000340: 0000 0000 0000 0000 0000 0000 0000 0000
00000350: 0000 0000 0000 0000 0000 0000 0000 0000
00000360: 0000 0000 0000 0000 0000 0000 0000 0000
00000370: 0000 0000 0000 0000 0000 0000 0000 0000
00000380: 0000 0000 0000 0000 0000 0000 0000 0000
00000390: 0000 0000 0000 0000 0000 0000 0000 0000
000003a0: 0000 0000 0000 0000 0000 0000 0000 0000
000003b0: 0000 0000 0000 0000 0000 0000 0000 0000
000003c0: 0000 0000 0000 0000 0000 0000 0000 0000
000003d0: 0000 0000 0000 0000 0000 0000 0000 0000
000003e0: 0000 0000 0000 0000 0000 0000 0000 0000
000003f0: 0000 0000 0000 0000 0000 0000 0000 0000
0.0 0.0 0.0 0.0 0.0 0.0 0.0 0.0
0.0 0.0 0.0 0.0 0.0 0.0 0.0 0.0
0.0 0.0 0.0 0.0 0.0 0.0 0.0 0.0
0.0 0.0 0.0 0.0 0.0 0.0 0.0 0.0
0.0 0.0 0.0 0.0 0.0 0.0 0.0 0.0
0.0 0.0 0.0 0.0 0.0 0.0 0.0 0.0
0.0 0.0 0.0 0.0 0.0 0.0 0.0 0.0
0.0 0.0 0.0 0.0 0.0 0.0 0.0 0.0
0.0 0.0 0.0 0.0 0.0 0.0 0.0 0.0
0.0 0.0 0.0 0.0 0.0 0.0 0.0 0.0
0.0 0.0 0.0 0.0 0.0 0.0 0.0 0.0
0.0 0.0 0.0 0.0 0.0 0.0 0.0 0.0
0.0 0.0 0.0 0.0 0.0 0.0 0.0 0.0
0.0 0.0 0.0 0.0 0.0 0.0 0.0 0.0
0.0 0.0 0.0 0.0 0.0 0.0 0.0 0.0
0.0 0.0 0.0 0.0 0.0 0.0 0.0 0.0
0.0 0.0 0.0 0.0 0.0 0.0 0.0 0.0
0.0 0.0 0.0 0.0 0.0 0.0 0.0 0.0
0.0 0.0 0.0 0.0 0.0 0.0 0.0 0.0
0.0 0.0 0.0 0.0 0.0 0.0 0.0 0.0
0.0 0.0 0.0 0.0 0.0 0.0 0.0 0.0
0.0 0.0 0.0 0.0 0.0 0.0 0.0 0.0
0.0 0.0 0.0 0.0 0.0 0.0 0.0 0.0
0.0 0.0 0.0 0.0 0.0 0.0 0.0 0.0
0.0 0.0 0.0 0.0 0.0 0.0 0.0 0.0
0.0 0.0 0.0 0.0 0.0 0.0 0.0 0.0
0.0 0.0 0.0 0.0 0.0 0.0 0.0 0.0
0.0 0.0 0.0 0.0 0.0 0.0 0.0 0.0
0.0 0.0 0.0 0.0 0.0 0.0 0.0 0.0
0.0 0.0 0.0 0.0 0.0 0.0 0.0 0.0
0.0 0.0 0.0 0.0 0.0 0.0 0.0 0.0
0.0 0.0 0.0 0.0 0.0 0.0 0.0 0.0

bn.running_mean f4 [256]
00000000: 0000 0000 0000 0000 0000 0000 0000 0000
00000010: 0000 0000 0000 0000 0000 0000 0000 0000
00000020: 0000 0000 0000 0000 0000 0000 0000 0000
00000030: 0000 0000 0000 0000 0000 0000 0000 0000
00000040: 0000 0000 0000 0000 0000 0000 0000 0000
00000050: 0000 0000 0000 0000 0000 0000 0000 0000
00000060: 0000 0000 0000 0000 0000 0000 0000 0000
00000070: 0000 0000 0000 0000 0000 0000 0000 0000
00000080: 0000 0000 0000 0000 0000 0000 0000 0000
00000090: 0000 0000 0000 0000 0000 0000 0000 0000
000000a0: 0000 0000 0000 0000 0000 0000 0000 0000
000000b0: 0000 0000 0000 0000 0000 0000 0000 0000
000000c0: 0000 0000 0000 0000 0000 0000 0000 0000
000000d0: 0000 0000 0000 0000 0000 0000 0000 0000
000000e0: 0000 0000 0000 0000 0000 0000 0000 0000
000000f0: 0000 0000 0000 0000 0000 0000 0000 0000
00000100: 0000 0000 0000 0000 0000 0000 0000 0000
00000110: 0000 0000 0000 0000 0000 0000 0000 0000
00000120: 0000 0000 0000 0000 0000 0000 0000 0000
00000130: 0000 0000 0000 0000 0000 0000 0000 0000
00000140: 0000 0000 0000 0000 0000 0000 0000 0000
00000150: 0000 0000 0000 0000 0000 0000 0000 0000
00000160: 0000 0000 0000 0000 0000 0000 0000 0000
00000170: 0000 0000 0000 0000 0000 0000 0000 0000
00000180: 0000 0000 0000 0000 0000 0000 0000 0000
00000190: 0000 0000 0000 0000 0000 0000 0000 0000
000001a0: 0000 0000 0000 0000 0000 0000 0000 0000
000001b0: 0000 0000 0000 0000 0000 0000 0000 0000
000001c0: 0000 0000 0000 0000 0000 0000 0000 0000
000001d0: 0000 0000 0000 0000 0000 0000 0000 0000
000001e0: 0000 0000 0000 0000 0000 0000 0000 0000
000001f0: 0000 0000 0000 0000 0000 0000 0000 0000
00000200: 0000 0000 0000 0000 0000 0000 0000 0000
00000210: 0000 0000 0000 0000 0000 0000 0000 0000
00000220: 0000 0000 0000 0000 0000 0000 0000 0000
00000230: 0000 0000 0000 0000 0000 0000 0000 0000
00000240: 0000 0000 0000 0000 0000 0000 0000 0000
00000250: 0000 0000 0000 0000 0000 0000 0000 0000
00000260: 0000 0000 0000 0000 0000 0000 0000 0000
00000270: 0000 0000 0000 0000 0000 0000 0000 0000
00000280: 0000 0000 0000 0000 0000 0000 0000 0000
00000290: 0000 0000 0000 0000 0000 0000 0000 0000
000002a0: 0000 0000 0000 0000 0000 0000 0000 0000
000002b0: 0000 0000 0000 0000 0000 0000 0000 0000
000002c0: 0000 0000 0000 0000 0000 0000 0000 0000
000002d0: 0000 0000 0000 0000 0000 0000 0000 0000
000002e0: 0000 0000 0000 0000 0000 0000 0000 0000
000002f0: 0000 0000 0000 0000 0000 0000 0000 0000
00000300: 0000 0000 0000 0000 0000 0000 0000 0000
00000310: 0000 0000 0000 0000 0000 0000 0000 0000
00000320: 0000 0000 0000 0000 0000 0000 0000 0000
00000330: 0000 0000 0000 0000 0000 0000 0000 0000
00000340: 0000 0000 0000 0000 0000 0000 0000 0000
00000350: 0000 0000 0000 0000 0000 0000 0000 0000
00000360: 0000 0000 0000 0000 0000 0000 0000 0000
00000370: 0000 0000 0000 0000 0000 0000 0000 0000
00000380: 0000 0000 0000 0000 0000 0000 0000 0000
00000390: 0000 0000 0000 0000 0000 0000 0000 0000
000003a0: 0000 0000 0000 0000 0000 0000 0000 0000
000003b0: 0000 0000 0000 0000 0000 0000 0000 0000
000003c0: 0000 0000 0000 0000 0000 0000 0000 0000
000003d0: 0000 0000 0000 0000 0000 0000 0000 0000
000003e0: 0000 0000 0000 0000 0000 0000 0000 0000
000003f0: 0000 0000 0000 0000 0000 0000 0000 0000
0.0 0.0 0.0 0.0 0.0 0.0 0.0 0.0
0.0 0.0 0.0 0.0 0.0 0.0 0.0 0.0
0.0 0.0 0.0 0.0 0.0 0.0 0.0 0.0
0.0 0.0 0.0 0.0 0.0 0.0 0.0 0.0
0.0 0.0 0.0 0.0 0.0 0.0 0.0 0.0
0.0 0.0 0.0 0.0 0.0 0.0 0.0 0.0
0.0 0.0 0.0 0.0 0.0 0.0 0.0 0.0
0.0 0.0 0.0 0.0 0.0 0.0 0.0 0.0
0.0 0.0 0.0 0.0 0.0 0.0 0.0 0.0
0.0 0.0 0.0 0.0 0.0 0.0 0.0 0.0
0.0 0.0 0.0 0.0 0.0 0.0 0.0 0.0
0.0 0.0 0.0 0.0 0.0 0.0 0.0 0.0
0.0 0.0 0.0 0.0 0.0 0.0 0.0 0.0
0.0 0.0 0.0 0.0 0.0 0.0 0.0 0.0
0.0 0.0 0.0 0.0 0.0 0.0 0.0 0.0
0.0 0.0 0.0 0.0 0.0 0.0 0.0 0.0
0.0 0.0 0.0 0.0 0.0 0.0 0.0 0.0
0.0 0.0 0.0 0.0 0.0 0.0 0.0 0.0
0.0 0.0 0.0 0.0 0.0 0.0 0.0 0.0
0.0 0.0 0.0 0.0 0.0 0.0 0.0 0.0
0.0 0.0 0.0 0.0 0.0 0.0 0.0 0.0
0.0 0.0 0.0 0.0 0.0 0.0 0.0 0.0
0.0 0.0 0.0 0.0 0.0 0.0 0.0 0.0
0.0 0.0 0.0 0.0 0.0 0.0 0.0 0.0
0.0 0.0 0.0 0.0 0.0 0.0 0.0 0.0
0.0 0.0 0.0 0.0 0.0 0.0 0.0 0.0
0.0 0.0 0.0 0.0 0.0 0.0 0.0 0.0
0.0 0.0 0.0 0.0 0.0 0.0 0.0 0.0
0.0 0.0 0.0 0.0 0.0 0.0 0.0 0.0
0.0 0.0 0.0 0.0 0.0 0.0 0.0 0.0
0.0 0.0 0.0 0.0 0.0 0.0 0.0 0.0
0.0 0.0 0.0 0.0 0.0 0.0 0.0 0.0

bn.running_var f4 [256]
00000000: 0000 803f 0000 803f 0000 803f 0000 803f
00000010: 0000 803f 0000 803f 0000 803f 0000 803f
00000020: 0000 803f 0000 803f 0000 803f 0000 803f
00000030: 0000 803f 0000 803f 0000 803f 0000 803f
00000040: 0000 803f 0000 803f 0000 803f 0000 803f
00000050: 0000 803f 0000 803f 0000 803f 0000 803f
00000060: 0000 803f 0000 803f 0000 803f 0000 803f
00000070: 0000 803f 0000 803f 0000 803f 0000 803f
00000080: 0000 803f 0000 803f 0000 803f 0000 803f
00000090: 0000 803f 0000 803f 0000 803f 0000 803f
000000a0: 0000 803f 0000 803f 0000 803f 0000 803f
000000b0: 0000 803f 0000 803f 0000 803f 0000 803f
000000c0: 0000 803f 0000 803f 0000 803f 0000 803f
000000d0: 0000 803f 0000 803f 0000 803f 0000 803f
000000e0: 0000 803f 0000 803f 0000 803f 0000 803f
000000f0: 0000 803f 0000 803f 0000 803f 0000 803f
00000100: 0000 803f 0000 803f 0000 803f 0000 803f
00000110: 0000 803f 0000 803f 0000 803f 0000 803f
00000120: 0000 803f 0000 803f 0000 803f 0000 803f
00000130: 0000 803f 0000 803f 0000 803f 0000 803f
00000140: 0000 803f 0000 803f 0000 803f 0000 803f
00000150: 0000 803f 0000 803f 0000 803f 0000 803f
00000160: 0000 803f 0000 803f 0000 803f 0000 803f
00000170: 0000 803f 0000 803f 0000 803f 0000 803f
00000180: 0000 803f 0000 803f 0000 803f 0000 803f
00000190: 0000 803f 0000 803f 0000 803f 0000 803f
000001a0: 0000 803f 0000 803f 0000 803f 0000 803f
000001b0: 0000 803f 0000 803f 0000 803f 0000 803f
000001c0: 0000 803f 0000 803f 0000 803f 0000 803f
000001d0: 0000 803f 0000 803f 0000 803f 0000 803f
000001e0: 0000 803f 0000 803f 0000 803f 0000 803f
000001f0: 0000 803f 0000 803f 0000 803f 0000 803f
00000200: 0000 803f 0000 803f 0000 803f 0000 803f
00000210: 0000 803f 0000 803f 0000 803f 0000 803f
00000220: 0000 803f 0000 803f 0000 803f 0000 803f
00000230: 0000 803f 0000 803f 0000 803f 0000 803f
00000240: 0000 803f 0000 803f 0000 803f 0000 803f
00000250: 0000 803f 0000 803f 0000 803f 0000 803f
00000260: 0000 803f 0000 803f 0000 803f 0000 803f
00000270: 0000 803f 0000 803f 0000 803f 0000 803f
00000280: 0000 803f 0000 803f 0000 803f 0000 803f
00000290: 0000 803f 0000 803f 0000 803f 0000 803f
000002a0: 0000 803f 0000 803f 0000 803f 0000 803f
000002b0: 0000 803f 0000 803f 0000 803f 0000 803f
000002c0: 0000 803f 0000 803f 0000 803f 0000 803f
000002d0: 0000 803f 0000 803f 0000 803f 0000 803f
000002e0: 0000 803f 0000 803f 0000 803f 0000 803f
000002f0: 0000 803f 0000 803f 0000 803f 0000 803f
00000300: 0000 803f 0000 803f 0000 803f 0000 803f
00000310: 0000 803f 0000 803f 0000 803f 0000 803f
00000320: 0000 803f 0000 803f 0000 803f 0000 803f
00000330: 0000 803f 0000 803f 0000 803f 0000 803f
00000340: 0000 803f 0000 803f 0000 803f 0000 803f
00000350: 0000 803f 0000 803f 0000 803f 0000 803f
00000360: 0000 803f 0000 803f 0000 803f 0000 803f
00000370: 0000 803f 0000 803f 0000 803f 0000 803f
00000380: 0000 803f 0000 803f 0000 803f 0000 803f
00000390: 0000 803f 0000 803f 0000 803f 0000 803f
000003a0: 0000 803f 0000 803f 0000 803f 0000 803f
000003b0: 0000 803f 0000 803f 0000 803f 0000 803f
000003c0: 0000 803f 0000 803f 0000 803f 0000 803f
000003d0: 0000 803f 0000 803f 0000 803f 0000 803f
000003e0: 0000 803f 0000 803f 0000 803f 0000 803f
000003f0: 0000 803f 0000 803f 0000 803f 0000 803f
1.0 1.0 1.0 1.0 1.0 1.0 1.0 1.0
1.0 1.0 1.0 1.0 1.0 1.0 1.0 1.0
1.0 1.0 1.0 1.0 1.0 1.0 1.0 1.0
1.0 1.0 1.0 1.0 1.0 1.0 1.0 1.0
1.0 1.0 1.0 1.0 1.0 1.0 1.0 1.0
1.0 1.0 1.0 1.0 1.0 1.0 1.0 1.0
1.0 1.0 1.0 1.0 1.0 1.0 1.0 1.0
1.0 1.0 1.0 1.0 1.0 1.0 1.0 1.0
1.0 1.0 1.0 1.0 1.0 1.0 1.0 1.0
1.0 1.0 1.0 1.0 1.0 1.0 1.0 1.0
1.0 1.0 1.0 1.0 1.0 1.0 1.0 1.0
1.0 1.0 1.0 1.0 1.0 1.0 1.0 1.0
1.0 1.0 1.0 1.0 1.0 1.0 1.0 1.0
1.0 1.0 1.0 1.0 1.0 1.0 1.0 1.0
1.0 1.0 1.0 1.0 1.0 1.0 1.0 1.0
1.0 1.0 1.0 1.0 1.0 1.0 1.0 1.0
1.0 1.0 1.0 1.0 1.0 1.0 1.0 1.0
1.0 1.0 1.0 1.0 1.0 1.0 1.0 1.0
1.0 1.0 1.0 1.0 1.0 1.0 1.0 1.0
1.0 1.0 1.0 1.0 1.0 1.0 1.0 1.0
1.0 1.0 1.0 1.0 1.0 1.0 1.0 1.0
1.0 1.0 1.0 1.0 1.0 1.0 1.0 1.0
1.0 1.0 1.0 1.0 1.0 1.0 1.0 1.0
1.0 1.0 1.0 1.0 1.0 1.0 1.0 1.0
1.0 1.0 1.0 1.0 1.0 1.0 1.0 1.0
1.0 1.0 1.0 1.0 1.0 1.0 1.0 1.0
1.0 1.0 1.0 1.0 1.0 1.0 1.0 1.0
1.0 1.0 1.0 1.0 1.0 1.0 1.0 1.0
1.0 1.0 1.0 1.0 1.0 1.0 1.0 1.0
1.0 1.0 1.0 1.0 1.0 1.0 1.0 1.0
1.0 1.0 1.0 1.0 1.0 1.0 1.0 1.0
1.0 1.0 1.0 1.0 1.0 1.0 1.0 1.0

fc1.weight f4 [256, 24]
00000000: c341 88bd 32c1 343d 3762 6abd 76bf 1c3d
00000010: 979a e6bc b329 b33d 8aa1 debd 628e e73d
00000020: 8de0 87bd be5b 1e3c 63fc 79bd acfc cf3d
00000030: f4cf 8b3d 3e35 763e 7434 e0bd 3c2b af3d
00000040: 3795 813b 7b27 b4bc ca17 593c 3637 a83c
00000050: d863 c63b 6ef7 043e 73a3 023b 9365 363c
00000060: 4a9d dabd ff3a 81bd 9baf d63d 05c3 823d
00000070: d291 a33d 197f 7c3c ff78 853b 5b9e 843b
00000080: f50d 1fbd e9ef 213d 94cf 8d3d d55c 9e3c
00000090: 2156 883d 82fb 86bd 3842 593c 27ae 00bc
000000a0: a459 9fbd ea0b 07bd 2290 82bd e9c4 d2bc
000000b0: e5f1 193e 8de5 47be 71d8 cbba 78f3 77bd
000000c0: e4c9 52bd 4e49 37bd 23b9 893b 15fe bdbc
000000d0: abad 75bd cd3c 3ebe cf25 06bd 1919 d53a
000000e0: c62d 6ebd e692 1c3c d691 f8bc d52f d9bc
000000f0: 64bb 283b 3a45 07bf bcfd 703d ab26 17bb
00000100: e0c9 bdbb 75c9 473d 9503 5ebc 523b acbd
00000110: 053b 82bd ca48 eebe cde1 8dbc 929c 51bd
00000120: 4085 813d a162 3b3c 45dd 503c 55aa 8c3d
00000130: c18b 523d 5947 a43d 7075 59bd 0528 603d
00000140: fda7 b83c 99ec 4f3d d26f a13c 0b13 413d
00000150: f1b2 b1bc 2e92 073e 3445 ae3c ec22 883d
00000160: dd47 3e3d 402e ca3d b132 c5bd 5150 a63c
00000170: 1cb4 703d 4769 c23d 01b1 533c 3fe1 0fbd
00000180: 672d f93d fedf 233d fe6e a5bc acd1 403d
00000190: 940d 5d3c 8dd7 2c3c 44e4 243d 100b d5bc
000001a0: ae17 303d 5c80 0c3d bcc1 833d b853 583d
000001b0: 2f1b 2e3d ce8c 493e aed1 2f3c 2218 b33d
000001c0: 6681 3d3d cd2c 1a3d 775d 653d c4ce 333e
000001d0: 2370 693d 8ea1 633e ca56 2abc d973 153e
000001e0: a495 143d 630f 67bd 5702 ef3d 2e50 b3bb
000001f0: 72cb 193e 124b e0bd 6d19 973d a1a9 07bd
00000200: d52a 053d 4f83 2d3c 5625 9a3d 2e1f a5bc
00000210: 99f3 8a3e b2b1 8cbc 06f6 923d 455b 20bd
00000220: 2860 b23c 2b65 7a3c 4edd 833d c4f7 84bd
00000230: eb51 863e 0538 133e be94 393d 4a0b c5ba
00000240: 1c52 14bd 9a9f 97bc 3fdf 453c a6ac 78bd
00000250: 9b0e 913d a19b e03d 806b 0e3d 8f9d 61bd
00000260: 6f64 9abd f460 2e3c b204 2cbd dce9 97bd
00000270: 9d4e fc3d c5d7 0abe b6d0 483d 9314 f7bb
00000280: ab3d c7bd 5cf9 4c3d 4fd9 9abc 51eb 88bd
00000290: 1ce8 c23d 7999 cebd fbc4 343d 3057 73bc
000002a0: 329c b3bd 093d 53bc c32c 973d 9f94 c33b
000002b0: 5b50 cbbd 3820 1bbe a0b5 f3bc 6008 3e3d
000002c0: f78c 04bd c38c 863d 75ce b33c ecc6 0c3d
000002d0: 3e37 0b3d c5b8 fabe 71da aabc 1271 5abd
000002e0: 9e01 0cbc 2754 46bd 2096 b6bb 513f a3bc
000002f0: 11ce d73d 66a3 00bf 3f4a 10bc 7dfe ed3c
00000300: 5072 493d 799f efbc 5d35 1c3d 469b 3bbd
00000310: 10b6 a23c 5e36 ca3d bcb7 7dbd dac4 1fbd
00000320: 85d3 353d 134e c33c 795d 13bc 405d 91bd
00000330: 4a14 4bbd 92c6 da3e 6c7f 153d 2403 1ebd
00000340: c24e b6bc a3b9 1abd 4126 febc 943e 1dbc
00000350: fee4 f5bd 2ef0 f83e dd2d cf3c 8161 b1bd
00000360: a797 403d cad4 033d dac7 843d 7039 963d
00000370: bb6c 18be 3b7d 0fbd 4d5b f13d 2419 8f3d
00000380: f719 d83d 88e6 c8bc 127a 803d e33f 563d
00000390: ea57 aebb 7fa1 8a3c 03cc 583d de46 bebc
000003a0: 6a06 f83d eff4 90bc 0e05 a03d 482a ca3d
000003b0: 924b 703d 2d1e 863e 7254 883d 0a73 b53d
000003c0: 6890 023d 9370 7abd e830 103d cc5b 9a3d
000003d0: 5c43 043c e924 04be 9a75 1c3d c226 2dbd
000003e0: 7303 943b dd5a 30bd b8bf e83a dcac b33c
000003f0: 6739 793d efb9 9ebe 545d 35bd 99f5 013d
-0.06653168 0.044129558 -0.05722257 0.03826853 -0.028149886 0.08748188 -0.10870655 0.11306454
-0.066346265 0.009665428 -0.06103171 0.10155615 0.06826773 0.24043748 -0.10947505 0.08553168
0.0039545554 -0.021991482 0.013250301 0.02053414 0.006054383 0.12985012 0.001993385 0.011132616
-0.10674532 -0.06310081 0.10482713 0.06384853 0.079867974 0.015411162 0.0040732617 0.0040471978
-0.03883167 0.039535437 0.06924358 0.019331375 0.06657053 -0.0659094 0.013260417 -0.007854021
-0.077807695 -0.032970347 -0.063751474 -0.02572866 0.15033682 -0.1952116 -0.0015552175 -0.060534924
-0.05146207 -0.044747643 0.004202978 -0.023192445 -0.059980076 -0.18577881 -0.0327509 0.001625809
-0.05814912 0.009556508 -0.030342977 -0.026512066 0.002574646 -0.52840006 0.05883573 -0.002306382
-0.0057918876 0.04877611 -0.013550659 -0.08409752 -0.06358913 -0.4653991 -0.017319584 -0.051174708
0.063242435 0.011437089 0.012748067 0.06868426 0.05140281 0.08021421 -0.053090513 0.054725666
0.02254104 0.050762746 0.01970664 0.0471373 -0.021691771 0.13239357 0.021273233 0.06647286
0.046455253 0.09872103 -0.09628809 0.02030197 0.058765516 0.09492736 0.012920619 -0.03512692
0.12166863 0.040008537 -0.020194527 0.04707496 0.013492007 0.010549438 0.040256754 -0.026006252
0.042991333 0.0343021 0.06433436 0.052814215 0.042506393 0.19682619 0.010731144 0.08744837
0.046265982 0.03764038 0.05599734 0.17559344 0.056991708 0.22229597 -0.010396669 0.14594974
0.03627552 -0.05641116 0.11670368 -0.0054722046 0.15019014 -0.109518185 0.073778965 -0.033120755
0.03251155 0.010590388 0.075266525 -0.02015647 0.27138975 -0.017174575 0.071758315 -0.03914954
0.021774366 0.015282909 0.06438695 -0.0649257 0.26234373 0.14376839 0.045307867 -0.0015033272
-0.036211118 -0.018508721 0.012077152 -0.060711525 0.07082864 0.10967184 0.03477049 -0.0550819
-0.075386874 0.010643233 -0.041996665 -0.07417652 0.12319682 -0.13558872 0.049027167 -0.0075402944
-0.09728559 0.050042495 -0.018902449 -0.06685508 0.095169276 -0.10087866 0.044133168 -0.01485233
-0.08770026 -0.01289297 0.073815845 0.0059686447 -0.09927436 -0.15149009 -0.029749691 0.046394706
-0.032360997 0.06569817 0.021949032 0.034369394 0.03398823 -0.48969093 -0.020856114 -0.05333049
-0.008545307 -0.048420098 -0.0055720955 -0.019927653 0.10537351 -0.50249326 -0.008806764 0.029052014
0.049181283 -0.029250847 0.03813683 -0.045802377 0.019862205 0.09873651 -0.0619428 -0.03900609
0.044391174 0.02384094 -0.008994454 -0.07097864 -0.049579896 0.42729622 0.036498472 -0.038577214
-0.022254352 -0.037774693 -0.0310241 -0.009597439 -0.120065674 0.48620743 0.025290424 -0.086611755
0.047019627 0.032185353 0.06483431 0.07335174 -0.14885227 -0.03503154 0.11784992 0.06987217
0.105518274 -0.024523988 0.06273283 0.05230702 -0.0053205388 0.01692271 0.052928936 -0.023227151
0.121105984 -0.017694918 0.07813464 0.09871346 0.05866582 0.26194897 0.06656732 0.088598326
0.031875998 -0.061142515 0.03520289 0.0753704 0.0080727 -0.12904705 0.03819809 -0.04227329
0.0045170127 -0.043055404 0.0017757332 0.021933012 0.06084576 -0.3100123 -0.044278458 0.03172836

fc1.bias f4 [256]
00000000: 7fc6 8bbc 9cbf 023e 361d 4fbe 0196 483d
00000010: bd23 c03d ecc1 a0bd 7800 103e b249 1f3e
00000020: 203e d73d 85e5 b7bb 2038 263e 40e4 013d
00000030: e35b afbd 9632 b93d 5b2d 4cbe 5aff b43c
00000040: f2a2 5abe 8cac dd3d cd91 073e cab4 763e
00000050: 0c71 37be 0d0b 693c 6d03 ddbd 589d 01be
00000060: 0024 0cbe a76b 80be 259f 11be b817 3d3d
00000070: b515 a93c 47f7 f7bd f7b1 66bd 4567 efbd
00000080: 8d81 10be 34cf f23d 8e03 31be 6d9e d63d
00000090: 5b73 4dbe 7ec9 a03c 9ff4 913d 29e9 b3bc
000000a0: 97b4 0a3e ee5b 1dbc c398 08bc a0c3 24be
000000b0: 05d3 3bbe b1a0 c53d 930c c23d fc83 1a3e
000000c0: 0caa 61bd e2cd 16be 5cb9 4c3e 7425 6abe
000000d0: e0b1 cc3d 47c3 ee3d 2827 b03d 7854 473e
000000e0: fc36 56bd bc2e 16be 883c 43bd 5fec 06bc
000000f0: fa4e 01be f82d 033e c057 173d 071e 3bbd
00000100: 53d1 99bd ea53 99bd 0026 1ebe fac2 25be
00000110: 2dc5 5dbc 7a54 d8bd e736 1fbe a5d4 31be
00000120: eec3 143e 3465 013e e44e 52be 3471 1dbe
00000130: f582 9e3d fc1a a2bc 0367 06be fb03 70bc
00000140: 6045 20be eabf cd3c 43ae 1ebe f12a 0ebd
00000150: 4ebc 5f3c e2d3 2fbe 00f9 483e bb03 72bd
00000160: e831 903d 0e8b 08bd aef6 02be 0865 663d
00000170: 6938 1dbc 4b55 a7bd 60be 393b 6def 4ebe
00000180: a407 24bc ea6f 88bc bb26 9c3d d3c2 bdbd
00000190: d01e 2fbe 176d cebd 029d bbbd 2744 7bbd
000001a0: 10e1 bdbd e7b4 063e 038f dabd a687 54bc
000001b0: d860 2bbe 3bee b53d 4017 023e 48c2 1bbe
000001c0: 73ca 9dbc 9f0d af3c f5bf 9c3d 451a 01be
000001d0: da23 493d 7265 7b3d 2d7b 34be df9a 88be
000001e0: 7e7b d03c 1dc6 40be 8c1d c83c ebcf f8bc
000001f0: 61a6 703b 91d4 183d e44c 18bd 6a44 1fbd
00000200: 2b09 deba a99b 8fbd 7809 233d 5136 563e
00000210: 15be b83d cd3c babc 2e27 f63d 94e4 303d
00000220: 4ab9 173e 5af3 54bd 8ca0 72bd 9c8a 0a3e
00000230: be33 3e3d 7d17 56be 4eac f63d 57da 8cbd
00000240: 5e17 88bc c251 2e3d f33d c33d 5afc 873d
00000250: 266c f1bd b515 d2bc 2aac ff3c f5f0 2f3e
00000260: e2a6 7f3d b1de 5d3e c3d8 7d3d f3e4 7dbd
00000270: 76da debd 5499 12bc 841f 0a3e f209 36bd
00000280: cda3 343e 76ac 9b3d 59c7 f23d 25b5 9f3d
00000290: ec65 49bd 72f9 f53d 8ffa 1abe 1c10 ccbd
000002a0: b8da 343e f58e 49be c5ab 123e 8054 9d3d
000002b0: 8bed e3bd 2a0d 80bb 0e15 a53d ba61 02be
000002c0: 34a8 39be 9e3e e23d ba99 923c d3d7 d53d
000002d0: a69a 9e3d 93c7 263e 79ea a23d 0158 31be
000002e0: c8e3 693e 77fe 53be 550d 6b3c f415 5a3d
000002f0: 274f 373e 48a0 153e 8ac0 dcbd c151 753e
00000300: 9486 1e3e bc6c 91be 14ca 8c3d 021f c1bd
00000310: 7c83 3bbe 45f9 363e b0e1 373e 6ccf 81bc
00000320: ae0a 3abe 4de8 733b d718 973d bfe5 183c
00000330: 48bf 8abe 6492 823e 036d 903d cec6 21bd
00000340: 505b 71be 71ab 123e 9c5e d03d 93fd 0f3e
00000350: 2429 733d 3054 6f3d 2daa 39be d225 33be
00000360: 627e 2b3e e9ea df3c 3ad9 6abe 2442 56be
00000370: 6141 1b3e 4864 f5bd d190 6e3d b29d 8cbd
00000380: 59c5 14ba d6af 5bbd 48d8 673d 43a4 b3bd
00000390: f884 1d3e 44d2 9abd 9c73 3bbe 5d22 8a3d
000003a0: b88a d73d 3af3 02be 534d 07be b20c 4d3e
000003b0: 4657 83ba 2eb3 353e 3595 433e 8187 fc3d
000003c0: 77c5 113e 2b36 35be d42b aabd 40a4 ddbd
000003d0: cda6 8bbd 7ce8 1e3d f4ab 063e 994b 6dbe
000003e0: 2ad2 8d3d b131 6e3e c644 0e3e 4a04 123e
000003f0: b496 353e 3fce cdbd 5e33 1fbd f3f5 11be
-0.017062424 0.12768406 -0.20225987 0.04897118 0.093818165 -0.07849488 0.14062679 0.15555456
0.10509896 -0.0056120777 0.16232347 0.031711817 -0.08562448 0.090428516 -0.19939177 0.022094417
-0.21351221 0.10823926 0.13239212 0.24092403 -0.17914218 0.014223826 -0.10791669 -0.12657678
-0.13685608 -0.25082132 -0.14220865 0.046165198 0.020640234 -0.12107711 -0.056322064 -0.11689619
-0.1411192 0.11855927 -0.17286512 0.10479436 -0.20063536 0.019627329 0.07126736 -0.021961765
0.13545452 -0.009604437 -0.0083372025 -0.1609025 -0.18342216 0.0964979 0.094750546 0.1508941
-0.05509381 -0.14726976 0.19992584 -0.2286585 0.099948645 0.1165834 0.086012185 0.19465816
-0.05229853 -0.14666265 -0.04766515 -0.008235066 -0.12627783 0.12810504 0.03694892 -0.045682933
-0.075106286 -0.074867085 -0.15444183 -0.16187659 -0.01353578 -0.105629876 -0.15548287 -0.17366274
0.14527866 0.12636262 -0.20537907 -0.15375215 0.07739822 -0.019788258 -0.13125233 -0.0146493865
-0.15651464 0.025115926 -0.15496163 -0.03470892 0.013655735 -0.1717067 0.19626236 -0.05908559
0.07040769 -0.033335738 -0.12789413 0.056248695 -0.009595969 -0.08170565 0.0028342232 -0.20208521
-0.010011587 -0.016654927 0.07624575 -0.092656754 -0.17101598 -0.10079401 -0.09160806 -0.061344292
-0.09271443 0.13154946 -0.106718086 -0.012971794 -0.16736162 0.088833295 0.12704182 -0.15210831
-0.019261574 0.0213688 0.076538004 -0.12607677 0.049106456 0.061376043 -0.17625113 -0.26680657
0.02544951 -0.18825574 0.024428152 -0.03037258 0.0036720263 0.037312094 -0.037182704 -0.038883604
-0.0016939988 -0.07012112 0.039803952 0.20919158 0.0902063 -0.02273407 0.12019192 0.04318674
0.14816776 -0.05198989 -0.05923514 0.13529438 0.046436064 -0.20907398 0.12044583 -0.068775825
-0.016612705 0.04255844 0.095333 0.06639929 -0.11788206 -0.025645116 0.031210024 0.17181762
0.06241501 0.21666981 0.0619743 -0.06198592 -0.10881512 -0.008947689 0.13488585 -0.04444308
0.1764061 0.07601254 0.11854429 0.077982225 -0.049169466 0.120104685 -0.15134643 -0.0996401
0.1766156 -0.1968344 0.14323337 0.07682133 -0.11129292 -0.0039078193 0.080606565 -0.12732592
-0.1813057 0.110470995 0.017895568 0.10441556 0.077443406 0.16287069 0.07954878 -0.17318727
0.22840798 -0.2070254 0.01434644 0.053243592 0.17901288 0.14611924 -0.107789114 0.23956968
0.15481025 -0.2840327 0.06874481 -0.094297424 -0.18311876 0.17868526 0.17957187 -0.015845977
-0.18168136 0.003721732 0.07377785 0.0093321195 -0.2709906 0.25502312 0.07052042 -0.039496236
-0.23569989 0.14323212 0.10174295 0.14061575 0.059365407 0.058429897 -0.18131323 -0.17494896
0.1674743 0.027333694 -0.22934428 -0.20923668 0.15161659 -0.11982018 0.058243576 -0.068660155
-0.0005675159 -0.053634487 0.056602746 -0.08771565 0.15382755 -0.07559636 -0.1830582 0.067448355
0.105245054 -0.12788096 -0.1321309 0.20024374 -0.0010020516 0.17744133 0.19099887 0.12330533
0.14235483 -0.17696445 -0.08309141 -0.10822344 -0.06818924 0.038795933 0.13151532 -0.2317337
0.06924851 0.23261143 0.13893422 0.14259449 0.1773327 -0.10049104 -0.038867347 -0.14253978

fc2.weight f4 [128, 256]
00000000: a5d6 ebbc ed8e bf3d 2f3d 6b3d 357d a33d
00000010: cfcf ff3d bcea 43bd 8587 883c c879 e73d
00000020: fbac 2dbd 5456 813d 220c 863d 0161 883d
00000030: 5491 3d3d 00b5 ccbd 91cb 8ebd 9262 c33d
00000040: ca00 2e3d 808f a23d d7fa 733c 7e46 f73d
00000050: 79e9 183c 72a3 633d a5b7 ee3b dd3e f7bc
00000060: 3f3e 88bd 1043 64bd 90b7 8a3d a4c3 8d3c
00000070: 133e 46bd 2899 b3bc f075 a33c 79ec d9bd
00000080: 06d1 cb3d df42 813d ffc8 b33c 742d 103e
00000090: ea27 633c ead9 a639 da87 e13d 15ac 923d
000000a0: 4847 143d 14ba 8f3c 31a5 9ebd db9d 963c
000000b0: 65bf b53c c33e e8bd 739e f83b 041f a8bd
000000c0: b924 70bd be97 cbbd 542b 23be e1ac 72bc
000000d0: f182 e73d 1fd6 803d 25e1 d6bc b0a8 62bd
000000e0: 53cc 2a3d 1900 36bb c1f0 513c 10da d6bd
000000f0: 3144 e4bc 0abd 843d 646f db3d f957 733d
00000100: 0f87 5f3d 9e50 74bc 1472 a23d 2566 f13d
00000110: 5144 113d a6fc 85bc d4c1 93bc 6471 003e
00000120: dfdf 993c 7d36 9d3c 4fbd 00bc f1cf ab3d
00000130: 42b6 d53d 01f2 c0bb 913e 963d 75f1 a7bc
00000140: 2e8c bfbc 3cbd 42bd 9e73 90bd 0ccd 3dbd
00000150: d469 cc3b 3320 34bd f74d 1bbe 0ef7 a83d
00000160: 26ee 3dbc 816d 80bd bc99 cb36 6368 babd
00000170: 94e7 cbbc ac3e 1f3d 54ef 743d 5d68 bd3c
00000180: 1c02 c3bd 3a5c 243d a869 483d 2c5c f63c
00000190: f61b ba3d ef8e 91bd 2485 e23c 9358 883c
000001a0: ccc0 a83d 6bcc 6ebc 2ca4 893b 1438 083e
000001b0: 21b8 213d 04a0 93bb 0213 93bc 952b f33c
000001c0: 76e7 d9bc 4876 ce3d 4364 0bbb bca5 8bbc
000001d0: 5f75 83bd 66ff dfbc abac d13d 833d 4e3d
000001e0: 9eab 93bd 0587 c4bd d1e8 9cbd e8f7 14be
000001f0: 2319 66bd 8272 703c b025 60bc c8ae 1b3c
00000200: 9ab0 873d edd1 9e3c 68ea 3bbd 9f7e 0bbb
00000210: 7305 873d ada8 0b3c e9cc 83bd cf0b 853d
00000220: 65ae 613d b681 89bd 3223 dd3b b074 f1bd
00000230: 9897 c3bd 82d9 08bc 2ae1 38be 6715 98bd
00000240: 4a95 da3c a426 b8bd 8580 afbc 451e fd3d
00000250: a439 b5bd 9ba0 bd3c 516d a13a acd2 b43d
00000260: da63 bc3d 8e9e 123d a6dc 05bd 4595 17be
00000270: 1c32 d7bc c5fd 083e f2a9 6a3c fae1 4ebd
00000280: ac7c ae3d 6af7 963d eaf7 0e3e bbdc 633d
00000290: ef53 063c e76c f13d 7cb9 f83c fbb5 043d
000002a0: 1663 5fbd 3b44 5bbc 841c c9bd 31db bdbd
000002b0: e110 743d 766f 763b 079f e53d a9c8 9d3d
000002c0: 41f4 ef3d b1b5 2cbd edde ef3c cd82 943c
000002d0: 9946 b8bd cf4c 4f3d c229 ebbd 2cc7 103c
000002e0: bab5 aabd 35b0 4bbd 3cc1 eabc 8bc9 7fbd
000002f0: 1d9e d8bd 3885 20be 6d3e 5d3d 38e2 353d
00000300: d0a1 a0ba 8c2a e8bc e2ce c5bc 8390 543d
00000310: a1da 813d d54b b4bd 15f4 fd3d 7f4e 853c
00000320: 30e7 0ebd 0cf0 c73c 05db eb3c d418 cbbd
00000330: 23ce be3d 28c5 64bd 00cc 413b 9d0a d4bd
00000340: bf35 433d cbf1 07be c395 033e 3f5a d53c
00000350: 4bd9 4b3d 355a ac3c 76f3 f4bc 2438 d1bc
00000360: 19c8 5dbd bfb4 b6bc 8f73 afbd 7d87 ef3c
00000370: 4af1 79bc 6e38 3b3b b56f 5d3d 0115 b33b
00000380: 3fab 863a 29cc 013b 1e7b a6bd 896c 06bd
00000390: ff09 88bd a02f 9bbd b4f3 1d3d 65f4 8e3b
000003a0: f80c ca3d 0b85 47bd 4e2c 36bd f2db 85bc
000003b0: 0c10 5ebd ce8a 7abd 32db 60bb b8ea 9d3b
000003c0: ac45 5dbc 78a1 bd3d 3f2e 7abb 4e91 81bd
000003d0: 78ef 90bd f315 ab3d 7be9 06be 7f70 50bd
000003e0: 898a 3c3d 6ef7 23bc fc9d 8fbd f2f1 b9bc
000003f0: d251 ecbc 4cfb b6bd 7e40 0e3e 6603 143d
-0.028788874 0.09353433 0.057431396 0.07982866 0.12490808 -0.047831282 0.016666183 0.11302525
-0.042401295 0.06315294 0.06545283 0.06659127 0.046281174 -0.099954605 -0.06972421 0.09540285
0.04248122 0.07937527 0.014891348 0.12073992 0.009333008 0.055575795 0.0072850757 -0.030181343
-0.066524975 -0.05572802 0.06773293 0.017305203 -0.048399042 -0.021923617 0.019953698 -0.10640807
0.099519774 0.06311583 0.021946428 0.14079839 0.013864497 0.00031824346 0.1101224 0.07161728
0.03620079 0.017544784 -0.077463515 0.018385818 0.02218599 -0.11340096 0.007587248 -0.08209041
-0.05862877 -0.09941052 -0.15934497 -0.014811725 0.11304272 0.0629084 -0.026230404 -0.055336654
0.041698765 -0.0027771054 0.012813748 -0.10490811 -0.027864547 0.06481369 0.107146055 0.05941007
0.05457216 -0.014911799 0.07931915 0.11787061 0.035465542 -0.016355824 -0.01803676 0.12543255
0.018783508 0.019191021 -0.007857635 0.08389271 0.104351535 -0.005888224 0.07336152 -0.020500878
-0.023382273 -0.04754375 -0.07053302 -0.046338126 0.0062382016 -0.04397602 -0.1516646 0.08250247
-0.011592424 -0.06270886 6.0677685e-06 -0.091019414 -0.024890698 0.038878128 0.059798554 0.023121053
-0.09521887 0.040127017 0.048928887 0.030073248 0.090873644 -0.071073405 0.027651377 0.016643798
0.08239898 -0.014575104 0.004200479 0.13302642 0.03948224 -0.0045051593 -0.0179534 0.029683867
-0.026599627 0.10081154 -0.0021269477 -0.017046802 -0.06418871 -0.027343463 0.10238012 0.05035163
-0.07210468 -0.095960654 -0.07661594 -0.14547694 -0.056176316 0.014675738 -0.01368086 0.00950212
0.06625481 0.01938721 -0.045877844 -0.002128519 0.06592836 0.008524102 -0.06435568 0.06496393
0.055097956 -0.067141935 0.0067485804 -0.117898345 -0.095503986 -0.008352639 -0.18054643 -0.07425957
0.026682515 -0.08991745 -0.021423588 0.12359289 -0.08848885 0.023147872 0.0012315904 0.08829245
0.09198733 0.03579574 -0.03268113 -0.14803036 -0.026269011 0.13378055 0.014322745 -0.050508477
0.08519873 0.07371409 0.13961759 0.055630427 0.008198722 0.117883496 0.030361883 0.032400113
-0.054537855 -0.013382967 -0.09819892 -0.09270323 0.05958641 0.0037603057 0.11211973 0.077042885
0.117165096 -0.042165462 0.029281104 0.018128777 -0.089978404 0.05061036 -0.11482574 0.008836549
-0.08335443 -0.04972859 -0.028656594 -0.062448066 -0.10577033 -0.15675819 0.054014612 0.044405192
-0.0012255255 -0.0283406 -0.024146501 0.05189563 0.06340528 -0.08803526 0.124000706 0.016272781
-0.034888446 0.024406455 0.02879096 -0.09916845 0.09316661 -0.055852085 0.0029571056 -0.10353587
0.04765868 -0.1327583 0.12850098 0.02604401 0.049767774 0.021039108 -0.029901247 -0.025539465
-0.054145906 -0.022302983 -0.08566963 0.02923941 -0.015255282 0.002856757 0.05406161 0.0054651503
0.0010274424 0.0019805527 -0.081289515 -0.03281835 -0.066425316 -0.07577443 0.03856249 0.00436263
0.09865755 -0.048710864 -0.044475846 -0.01634023 -0.054214522 -0.06116753 -0.0034310338 0.0048192404
-0.013505381 0.09259313 -0.0038174537 -0.06326543 -0.07076925 0.08353796 -0.13175003 -0.050888535
0.046030555 -0.010007722 -0.07012555 -0.022698376 -0.028847609 -0.0893465 0.1389179 0.036136054

fc2.bias f4 [128]
00000000: 3b68 5c3d 0c3b bc3c 9c8c 823d f556 cabb
00000010: f055 c03c ff18 a93c f62a 973d 49fa 2abc
00000020: 1895 5dbc 8ca2 04bd f749 c8bc 186b cd3c
00000030: d196 b3bd c20b 853d cfdc 4cbd 17ec 8fbd
00000040: a8cd f7bc 7379 15bd 3649 a0bd 13de 0d3d
00000050: 44fe 6cbc db6d f4bc 4b6c ecbc 6f46 9bbc
00000060: 3c8a 243d 7c35 78bd b054 d23c c542 39bc
00000070: 0897 9e3c 5ed9 6a3d fadd 6d3c 829b 61bd
00000080: 11ad 8abc 85a2 f8bc a575 80bd 1efd 8e3d
00000090: 0efb e0ba 6ff9 8a3d e2c0 d9b9 e3cb f8bc
000000a0: 7c90 cdbc aeb6 5cbc 8881 b6bd 79fc 0b3b
000000b0: 4c3b 153d b702 903d 6786 603d 9d14 c6bd
000000c0: f367 393d c9f8 67bd 25f6 5fbd 06bb 3f3b
000000d0: 3015 e33c 9cd0 30bd 983e 643d 9562 dabc
000000e0: 654c b6bd 0f57 613c 849a 90bd 0ed3 d5ba
000000f0: 936a 41bd 0671 0b3d 2570 593d 2ae9 c53c
00000100: 28dc c5bc 112e 0bbb f5fa a93c e739 7c3c
00000110: a31b 40bd 8458 913d cea5 4bbc 82e8 a53d
00000120: e4c4 91bd 8755 153d 4959 87bb b642 8c3d
00000130: ef5a 253b bc2c 8f3d 4a33 58bd e0ff cb3c
00000140: 7ae0 c63c 07fe 0abd 259d d7bc f735 1a3d
00000150: b66a 2b3d 3216 95bc 207a 59bd 0fcf a83c
00000160: 2acc 08bd d73a 483d a310 b0bd c3a4 5f3d
00000170: c25c 3bbd 56ce 5e3d 3bcc 203d 7e25 1a3c
00000180: b846 39bd c7eb aa3d 3237 39ba 9a6f e83c
00000190: 16d9 eabc 7348 843d 9629 313d f679 493d
000001a0: 0f87 3e3d 9f73 09bd 58c4 0e3d 0f64 323c
000001b0: f19e 8a3d bcd1 eebc 7066 933d 2c70 413d
000001c0: 5289 413d d1b4 a8bd beca c23b 1984 49bd
000001d0: 4cc2 b7ba b82a 993c 355d 32bd 912b eeba
000001e0: 43bd 01bd 54b5 a9bc 3278 023d 518d 413d
000001f0: 0c04 963c 7483 9d3d 274e 433c 2bc9 743d
0.05381034 0.022977374 0.06374475 -0.006174917 0.023478478 0.020641802 0.07381241 -0.010435649
-0.013524316 -0.03238158 -0.024449332 0.02507548 -0.08769 0.06496383 -0.050015267 -0.070274524
-0.030249432 -0.036492776 -0.07826464 0.034635615 -0.0144649185 -0.02983754 -0.028860232 -0.018954484
0.040170893 -0.06059788 0.025675148 -0.011307423 0.019359127 0.057336204 0.014518255 -0.055079944
-0.016928228 -0.030350933 -0.06272439 0.06981872 -0.0017164664 0.06785857 -0.00041533174 -0.030370658
-0.02509331 -0.013471289 -0.08911425 0.0021360202 0.036433503 0.07031768 0.054815676 -0.096719004
0.04526515 -0.056633744 -0.0546781 0.0029255762 0.027720064 -0.043167695 0.055723757 -0.026658336
-0.0890129 0.013753667 -0.070607215 -0.001631351 -0.047220778 0.034043334 0.053085465 0.024159033
-0.02415283 -0.0021237175 0.020749548 0.015394664 -0.046901356 0.07096961 -0.012429668 0.08100988
-0.07117632 0.03645852 -0.0041305167 0.068486616 0.0025231203 0.06990954 -0.052783288 0.024902284
0.02427696 -0.033933666 -0.02632005 0.03764912 0.041849814 -0.01819906 -0.053094983 0.020606546
-0.03339783 0.04888424 -0.08596923 0.05460049 -0.045742758 0.054395996 0.03925727 0.009408353
-0.04523346 0.08345752 -0.00070654147 0.028373528 -0.028667968 0.06459131 0.04325255 0.049188577
0.04651552 -0.03355753 0.034855217 0.010888114 0.06768597 -0.029152744 0.07197273 0.047226116
0.0472501 -0.08237613 0.005944579 -0.049198244 -0.0014019697 0.018697128 -0.04354592 -0.0018170943
-0.031674635 -0.020716347 0.03185291 0.04725391 0.018312477 0.07691088 0.011920488 0.05976216

fc3.weight f4 [2, 128]
00000000: 0609 733c fffe 9c3d d998 b0bd f693 923c
00000010: 79fa 71bc 3408 4d3d 431f 7c3d 8851 b93d
00000020: 4791 9fbc 42b4 853c 721c 1f3d 911b 333d
00000030: 1d14 513d 3bb7 293d e1fe 143c 734a 20be
00000040: e577 e9bd 375c febd 19bd 8a3c 936e 81bd
00000050: 72d3 5f3c 76f9 4c3d 8f0f 1a3d 112b de3c
00000060: 8ee2 9b3d 7f71 7a3c 5d91 f4bd 71aa 103d
00000070: 604a 153d 3250 b83c bcf8 18bd 8e23 9a3b
00000080: e224 793d ad9f 3ebe da87 aa3d cf92 703c
00000090: 9644 15bd 2fa5 f1bb d2da 103b 659b e83c
000000a0: 76c9 953d 6cf2 4f3d ad50 01be 9244 22be
000000b0: a723 fc3b b367 5bbb ab8f beba 9e9c db3c
000000c0: 10b2 ab3c 1723 b43c 0565 ecbd e46c 0dbe
000000d0: 73a2 8c3d a12f 273d 08e0 d63d c068 0fbc
000000e0: 319e 013d c8a9 703d a2b0 153d 130c 813c
000000f0: eaa5 5f3d f375 b23b 3869 8a3c 374b a0bd
00000100: 361b 813d 7c07 90be ab34 a8bb acd2 6dbd
00000110: 1be7 f3bd 68ff 9d3c b5e5 233c c9b4 933c
00000120: 14b0 693d 6b40 9d3d 5cae f63c 6be4 523c
00000130: 2f0f 813c 0a29 203d cb38 293d bf24 4d3d
00000140: f023 833d 0dba 743d 0638 893d 690e 923d
00000150: 869d d7bc 484e 0abe d4fd 18be 1138 aebc
00000160: 091e e03c 8710 fe3c 9799 943d 8a65 813d
00000170: 2306 803d a269 943d 4ab8 143d 82c3 43bc
00000180: e4fc a23c 912d ab3c e9e3 983d b947 773d
00000190: 97e8 bb3b 0bef 10be 6f4c 70bd 5d81 403d
000001a0: 6ead f83c 256e 7f3d 5acc ae3d c839 e53c
000001b0: 24e0 e0bd 09a5 6a3c b82f 8a3c aa62 c73d
000001c0: 707f a33d 4527 743c a162 d53b bd70 2d3d
000001d0: aea6 063d aa38 cd3d 482a 593c d8cc 0fbe
000001e0: e399 c6bd 2811 55bc d0f5 c23c 67f5 cbbc
000001f0: 6854 433d 881c 80bd e02b 1f3d 3a54 05be
00000200: 9090 45bd 5bf0 18bd 6d47 21bd d62b 37bd
00000210: 9473 e8bd f473 51bd 1238 44bd ad15 83bd
00000220: 8229 08bd 122f 82bd 3183 08bd ad03 bdbd
00000230: 277b 90bd 4b7a dfbd 122f a5bd 4330 1fbd
00000240: 8b60 6abc e58c 42bd 9a78 7abd 98ef edbd
00000250: 1659 a5bd 582e 8ebd 5461 4ebb baed 1dbd
00000260: 24a2 c5bd 9349 78bd b569 2fbd e787 c3bd
00000270: 51be 85bd ef99 b6bc b625 edbd 9783 88bd
00000280: 56e1 8fbd 981d e1bc 7b18 9ebd ddcc 0abd
00000290: 9cf3 c0bd 9335 0ebe 75c8 05bd aba9 38bd
000002a0: d36c 83bd 1167 3bbd 805a 04bd 0a6a 3bbd
000002b0: 4f9a bebd e53d a8bd 5690 fbbd 404c 5cbd
000002c0: 8640 d7ba fc70 61bd b84e 07bd f601 10bd
000002d0: f4fd a5bc a1db 63bd fb7e cdbd f982 abbd
000002e0: a239 81bc 1244 45bd a4b6 22bd 6c0a aebc
000002f0: b317 dabd 7cad 85bd fa9d 5abd 72d1 e4bc
00000300: 0312 9bbd 3469 ddbc f57a 0ebe 78a4 c0bc
00000310: ab55 08bd 29bd 92bd 35cc f5bd 5297 e8bd
00000320: 5b51 99bd 6d12 94bd a156 f2bd 4f23 abbd
00000330: a975 2fbd 798c 5bbd ffc1 b2bd 0455 59bd
00000340: 1f2c fdbd 6b3d b9bd c784 5dbd 0480 30bd
00000350: bf9a b7bd 8247 7fbc 8a10 30bb 8461 113b
00000360: f3f2 10bd 7b69 3dbd 842e adbd 7550 48bd
00000370: bbfa 7cbd 70c5 7fbd e475 2cbd 124f ebbd
00000380: 8f6e a5bd edf3 07bd e9c2 d8bd b76a 80bd
00000390: 3bfc 86bd c415 03bc 4fcb 08be 41d8 97bd
000003a0: 862d 8abd 6e86 12bd 7287 babc db04 74bd
000003b0: 4035 c9bc 2142 7bbd 4388 53bd a586 35bd
000003c0: df3d d1bd d981 28bd bc94 6dbd 09ea 92bd
000003d0: cb8f e6bc 1dbf 3cbd 34d1 2ebd 0aea 05bd
000003e0: dbdb e1bc eb94 2cbd 1b2a d8bc 94b9 ecbd
000003f0: 5786 9abc 0a61 82bd a299 a4bd c676 eebc
0.014833694 0.07665824 -0.086229034 0.017892819 -0.01476919 0.05005665 0.06155325 0.09048754
-0.019478453 0.016321305 0.038845487 0.04372746 0.051044572 0.041434508 0.009093971 -0.156534
-0.11399821 -0.12419932 0.016935872 -0.063199185 0.013661252 0.050042592 0.037612494 0.027120145
0.07611571 0.015285849 -0.11941788 0.035318796 0.036447883 0.022499178 -0.037346587 0.0047039455
0.06082619 -0.18615599 0.08326693 0.014683439 -0.03644236 -0.0073744277 0.0022103083 0.02839441
0.07313816 0.0507683 -0.12628432 -0.1584647 0.00769468 -0.0033478558 -0.0014538666 0.02680808
0.02095893 0.021989388 -0.115427054 -0.1381107 0.06866922 0.040816907 0.10491949 -0.008753002
0.031645004 0.058755666 0.036545403 0.015752828 0.054601587 0.0054461895 0.016895875 -0.07826846
0.06304018 -0.2813071 -0.0051332316 -0.05806224 -0.11909314 0.019286826 0.010003497 0.018030541
0.057052687 0.076783024 0.030112438 0.012871842 0.01575431 0.039101638 0.041313928 0.050083872
0.06403339 0.059747744 0.06700139 0.07131655 -0.02632023 -0.13506424 -0.14940578 -0.021266969
0.027358072 0.03101374 0.072558574 0.06318195 0.062511705 0.0724671 0.036308564 -0.011948468
0.019895978 0.020895751 0.074653454 0.060371134 0.005734514 -0.14153688 -0.058666643 0.04699837
0.030356135 0.0623609 0.08535071 0.027981654 -0.109802514 0.014321574 0.016868457 0.097356156
0.07983291 0.014901941 0.0065120016 0.042343844 0.032873802 0.100205734 0.01325471 -0.14042985
-0.0969732 -0.013004579 0.023798853 -0.02489729 0.047687918 -0.06255442 0.0388602 -0.13020411
-0.04823357 -0.037338596 -0.039374758 -0.04471954 -0.1135017 -0.051135972 -0.047905035 -0.06400619
-0.03324271 -0.06356634 -0.03332824 -0.09229217 -0.070547394 -0.109119974 -0.080656186 -0.038864385
-0.014305244 -0.04749765 -0.06115017 -0.116179645 -0.080736324 -0.06942433 -0.0031491118 -0.03855679
-0.096500665 -0.06061704 -0.04282542 -0.09547406 -0.065304406 -0.022290198 -0.115794584 -0.06665724
-0.07025401 -0.027479932 -0.07719513 -0.03388678 -0.09421465 -0.13887624 -0.032661874 -0.045083683
-0.06417241 -0.04575259 -0.03231287 -0.045755424 -0.09306776 -0.082149304 -0.12283389 -0.053783655
-0.0016422428 -0.05503939 -0.033034056 -0.03515812 -0.020262696 -0.055629376 -0.10033985 -0.083745904
-0.015774552 -0.04816062 -0.03972496 -0.021245204 -0.106490515 -0.0652723 -0.053373314 -0.027931903
-0.07571795 -0.027027704 -0.13914092 -0.023515925 -0.033284824 -0.07164986 -0.1200184 -0.11356987
-0.074862204 -0.07230077 -0.118329294 -0.08356344 -0.04283682 -0.053600762 -0.08728408 -0.053059593
-0.12361931 -0.09044918 -0.054081704 -0.043090835 -0.08965062 -0.015581014 -0.0026865327 0.0022183368
-0.035387944 -0.046243172 -0.08456138 -0.048904855 -0.061762553 -0.06244415 -0.042104617 -0.11489691
-0.08077728 -0.03319161 -0.10584051 -0.06270354 -0.06591078 -0.008000795 -0.13358806 -0.07414294
-0.06746964 -0.035772733 -0.022769663 -0.059574943 -0.024561524 -0.061342362 -0.05164362 -0.04431786
-0.10216879 -0.041139457 -0.058003172 -0.07173545 -0.028144738 -0.046080697 -0.04267998 -0.0326939
-0.027570656 -0.042134207 -0.026387265 -0.11558834 -0.018862886 -0.06366165 -0.08037116 -0.02910937

fc3.bias f4 [2]
00000000: c3a4 c0bd 4c44 2bbe
-0.09406426 -0.16725272
