checkpoint_critic1.pth (torch_old, 189850 bytes, 9 tensors)

bn.weight f4 [256]
0.7576316 0.27931088 0.40306926 0.73468447 0.029281557 0.7998586 0.39713734 0.75437194
0.5695085 0.43877792 0.63868046 0.5246659 0.6826141 0.3051495 0.46354562 0.45498633
0.572472 0.4980026 0.93708336 0.65559506 0.31379688 0.19801933 0.41619217 0.28432965
0.33977574 0.5239408 0.7980639 0.77176833 0.011224568 0.80996025 0.63968194 0.97427773
0.8300299 0.04443115 0.024595797 0.25883394 0.93905586 0.4167155 0.7139797 0.2676443
0.990609 0.28845078 0.8749624 0.5059208 0.23659128 0.7570074 0.23458993 0.64705235
0.3556214 0.4451828 0.019305944 0.26160914 0.771317 0.37846136 0.99802476 0.9007942
0.4765882 0.16625845 0.8044811 0.65517855 0.17679012 0.8247723 0.8035509 0.9434475
0.21972018 0.417697 0.49031407 0.57302874 0.12054086 0.14518881 0.7720023 0.38275403
0.7442367 0.52850497 0.6641724 0.60994434 0.6817997 0.74785537 0.036943972 0.7516757
0.1484384 0.122745514 0.5304072 0.4147964 0.793662 0.21043217 0.05550903 0.8638844
0.4258591 0.7812286 0.6607423 0.12506235 0.60044914 0.6200983 0.16522068 0.26276386
0.6704878 0.5895613 0.2873137 0.34864205 0.95794135 0.40748936 0.7818958 0.7165016
0.17679644 0.07478523 0.97994435 0.5261084 0.84272903 0.6036157 0.66081136 0.8734793
0.9741073 0.1682095 0.5625145 0.87312865 0.86221755 0.81061924 0.13814056 0.13994789
0.1976142 0.5628142 0.99833244 0.1841622 0.76644045 0.22325593 0.029892147 0.39373016
0.78808546 0.96418744 0.1894806 0.6085056 0.9314301 0.8313268 0.81161153 0.8553163
0.8162582 0.6291482 0.15808994 0.08012074 0.2708897 0.44177705 0.19352388 0.68292683
0.6547439 0.38678235 0.6921704 0.66159236 0.8052695 0.83672184 0.33067364 0.9885128
0.44219613 0.482822 0.02805996 0.1781919 0.20789826 0.28613853 0.8554848 0.33660948
0.1263594 0.69237494 0.6600848 0.8238453 0.24126393 0.6084075 0.3179747 0.38766265
0.101540804 0.27211952 0.34687114 0.71381766 0.5913447 0.6235082 0.9990526 0.98731375
0.84102356 0.5159218 0.15410429 0.8907548 0.3749683 0.45957732 0.069250524 0.4012357
0.17750609 0.959453 0.06773949 0.11025864 0.48302186 0.22964227 0.67890584 0.3075372
0.2651562 0.5283188 0.86194897 0.14828813 0.73480314 0.8212207 0.9890986 0.15003455
0.62109494 0.13028657 0.9268751 0.30604684 0.80117637 0.5148857 0.46105868 0.4840461
0.58499724 0.73569804 0.58018994 0.65252745 0.050237656 0.8642687 0.935932 0.9133029
0.8696113 0.1391843 0.31465 0.94086266 0.119170725 0.9536106 0.10675198 0.14779574
0.744439 0.14075547 0.38544965 0.8637459 0.89604443 0.97287786 0.39854127 0.11136961
0.99230546 0.39348692 0.29428244 0.6218869 0.15033776 0.8286401 0.81336635 0.103259385
0.089313805 0.4562018 0.71001273 0.48551893 0.24646121 0.5114312 0.030033886 0.1466195
0.16715533 0.91176516 0.9407529 0.33016664 0.5224252 0.72298896 0.5599087 0.24962372
00000000: 25f4 413f d601 8f3e 185f ce3e 4814 3c3f
00000010: e0df ef3c 89c3 4c3f 9655 cb3e 851e 413f
00000020: 4fcb 113f 80a7 e03e 9080 233f 8150 063f
00000030: ccbf 2e3f 8e3c 9c3e da55 ed3e f8f3 e83e
00000040: 868d 123f 32fa fe3e b2e4 6f3f 14d5 273f
00000050: fca9 a03e 94c5 4a3e 2417 d53e a893 913e
00000060: 16f7 ad3e fc20 063f ea4d 4c3f 9c92 453f
00000070: 40e7 373c 8e59 4f3f 32c2 233f 446a 793f
00000080: d77c 543f 70fd 353d 207d c93c e285 843e
00000090: f765 703f bc5b d53e 60c7 363f ac08 893e
000000a0: 8d98 7d3f d2af 933e 89fd 5f3f 0784 013f
000000b0: fc44 723e 3dcb 413f 5838 703e 39a5 253f
000000c0: 0214 b63e 00ef e33e 8027 9e3c a2f1 853e
000000d0: 0875 453f b0c5 c13e 8d7e 7f3f 739a 663f
000000e0: 5e03 f43e a83f 2a3e 79f2 4d3f c8b9 273f
000000f0: 7808 353e 4724 533f 83b5 4d3f c685 713f
00000100: 54fe 603e 62dc d53e 720a fb3e 03b2 123f
00000110: 20de f63d 60ac 143e f1a1 453f 56f8 c33e
00000120: 4c86 3e3f 1a4c 073f 3407 2a3f 5025 1c3f
00000130: 6d8a 2e3f 7373 3f3f 9052 173d d26d 403f
00000140: 3c00 183e 0062 fb3d c4c8 073f 3260 d43e
00000150: 6f2d 4b3f 887b 573e 705d 633d 8727 5d3f
00000160: 340a da3e 99fe 473f 6826 293f 5810 003e
00000170: 09b7 193f c3be 1e3f 9c2f 293e fc88 863e
00000180: 17a5 2b3f 7ded 163f c81a 933e 3681 b23e
00000190: a53b 753f 72a2 d03e 532a 483f a66c 373f
000001a0: 200a 353e 0029 993d a2dd 7a3f 0aaf 063f
000001b0: 17bd 573f 8f86 1a3f ef2a 293f 579c 5f3f
000001c0: 195f 793f 1c3f 2c3e f300 103f 5c85 5f3f
000001d0: 4aba 5c3f be84 4f3f b874 0d3e 804e 0f3e
000001e0: 605b 4a3e 9714 103f b792 7f3f 0495 3c3e
000001f0: 7135 443f 349d 643e 60e0 f43c 0097 c93e
00000200: f8bf 493f fdd4 763f 3407 423e 06c7 1b3f
00000210: 3472 6e3f d5d1 543f c6c5 4f3f 02f6 5a3f
00000220: 4cf6 503f db0f 213f 54e2 213e 5816 a43d
00000230: 0eb2 8a3e 9a30 e23e 202b 463e 4bd4 2e3f
00000240: 4c9d 273f 5608 c63e 1432 313f 1e5e 293f
00000250: 2426 4e3f 6733 563f 0e4e a93e 2d0f 7d3f
00000260: 8867 e23e 7234 f73e 00de e53c f077 363e
00000270: 48e3 543e c080 923e 0d01 5b3f 1458 ac3e
00000280: 5c64 013e 7c3f 313f 51fb 283f 87e7 523f
00000290: e40d 773e 98c0 1b3f 94cd a23e b87b c63e
000002a0: a0f4 cf3d 4053 8b3e 1899 b13e c1bc 363f
000002b0: 5e62 173f 3c9e 1f3f e9c1 7f3f 98c0 7c3f
000002c0: 524d 573f 7313 043f 84cd 1d3e 8208 643f
000002d0: d8fb bf3e b84d eb3e 38d3 8d3d c46e cd3e
000002e0: 28c4 353e b69e 753f 00bb 8a3d 48cf e13d
000002f0: a44e f73e 5827 6b3e c6cc 2d3f 8475 9d3e
00000300: 8ec2 873e e73f 073f b0a8 5c3f d8d8 173e
00000310: 0f1c 3c3f 853b 523f 9135 7d3f a8a2 193e
00000320: 1400 1f3f d869 053e b047 6d3f 2cb2 9c3e
00000330: e519 4d3f 8dcf 033f e20f ec3e e4d4 f73e
00000340: 61c2 153f b556 3c3f 5487 143f 0a0c 273f
00000350: 00c6 4d3d b740 5d3f 3d99 6f3f 38ce 693f
00000360: d99e 5e3f 5486 0e3e ce19 a13e 60dc 703f
00000370: c80f f43d d31f 743f c8a0 da3d c457 173e
00000380: 8e93 3e3f 3422 103e a859 c53e 741e 5d3f
00000390: 2b63 653f 860e 793f 9a0d cc3e c015 e43d
000003a0: bb07 7e3f 1e77 c93e 30ac 963e fb33 1f3f
000003b0: 24f2 193e c221 543f c738 503f a879 d33d
000003c0: 28ea b63d 4893 e93e 65c3 353f f095 f83e
000003d0: 5460 7c3e 28ed 023f a009 f63c 6c23 163e
000003e0: c42a 2b3e 7169 693f 2fd5 703f 9a0b a93e
000003f0: a8bd 053f ce15 393f 2d56 0f3f 5c9d 7f3e

bn.bias f4 [256]
0.0 0.0 0.0 0.0 0.0 0.0 0.0 0.0
0.0 0.0 0.0 0.0 0.0 0.0 0.0 0.0
0.0 0.0 0.0 0.0 0.0 0.0 0.0 0.0
0.0 0.0 0.0 0.0 0.0 0.0 0.0 0.0
0.0 0.0 0.0 0.0 0.0 0.0 0.0 0.0
0.0 0.0 0.0 0.0 0.0 0.0 0.0 0.0
0.0 0.0 0.0 0.0 0.0 0.0 0.0 0.0
0.0 0.0 0.0 0.0 0.0 0.0 0.0 0.0
0.0 0.0 0.0 0.0 0.0 0.0 0.0 0.0
0.0 0.0 0.0 0.0 0.0 0.0 0.0 0.0
0.0 0.0 0.0 0.0 0.0 0.0 0.0 0.0
0.0 0.0 0.0 0.0 0.0 0.0 0.0 0.0
0.0 0.0 0.0 0.0 0.0 0.0 0.0 0.0
0.0 0.0 0.0 0.0 0.0 0.0 0.0 0.0
0.0 0.0 0.0 0.0 0.0 0.0 0.0 0.0
0.0 0.0 0.0 0.0 0.0 0.0 0.0 0.0
0.0 0.0 0.0 0.0 0.0 0.0 0.0 0.0
0.0 0.0 0.0 0.0 0.0 0.0 0.0 0.0
0.0 0.0 0.0 0.0 0.0 0.0 0.0 0.0
0.0 0.0 0.0 0.0 0.0 0.0 0.0 0.0
0.0 0.0 0.0 0.0 0.0 0.0 0.0 0.0
0.0 0.0 0.0 0.0 0.0 0.0 0.0 0.0
0.0 0.0 0.0 0.0 0.0 0.0 0.0 0.0
0.0 0.0 0.0 0.0 0.0 0.0 0.0 0.0
0.0 0.0 0.0 0.0 0.0 0.0 0.0 0.0
0.0 0.0 0.0 0.0 0.0 0.0 0.0 0.0
0.0 0.0 0.0 0.0 0.0 0.0 0.0 0.0
0.0 0.0 0.0 0.0 0.0 0.0 0.0 0.0
0.0 0.0 0.0 0.0 0.0 0.0 0.0 0.0
0.0 0.0 0.0 0.0 0.0 0.0 0.0 0.0
0.0 0.0 0.0 0.0 0.0 0.0 0.0 0.0
0.0 0.0 0.0 0.0 0.0 0.0 0.0 0.0
00000000: 0000 0000 0000 0000 0000 0000 0000 0000
00000010: 0000 0000 0000 0000 0000 0000 0000 0000
00000020: 0000 0000 0000 0000 0000 0000 0000 0000
00000030: 0000 0000 0000 0000 0000 0000 0000 0000
00000040: 0000 0000 0000 0000 0000 0000 0000 0000
00000050: 0000 0000 0000 0000 0000 0000 0000 0000
00000060: 0000 0000 0000 0000 0000 0000 0000 0000
00000070: 0000 0000 0000 0000 0000 0000 0000 0000
00000080: 0000 0000 0000 0000 0000 0000 0000 0000
00000090: 0000 0000 0000 0000 0000 0000 0000 0000
000000a0: 0000 0000 0000 0000 0000 0000 0000 0000
000000b0: 0000 0000 0000 0000 0000 0000 0000 0000
000000c0: 0000 0000 0000 0000 0000 0000 0000 0000
000000d0: 0000 0000 0000 0000 0000 0000 0000 0000
000000e0: 0000 0000 0000 0000 0000 0000 0000 0000
000000f0: 0000 0000 0000 0000 0000 0000 0000 0000
00000100: 0000 0000 0000 0000 0000 0000 0000 0000
00000110: 0000 0000 0000 0000 0000 0000 0000 0000
00000120: 0000 0000 0000 0000 0000 0000 0000 0000
00000130: 0000 0000 0000 0000 0000 0000 0000 0000
00000140: 0000 0000 0000 0000 0000 0000 0000 0000
00000150: 0000 0000 0000 0000 0000 0000 0000 0000
00000160: 0000 0000 0000 0000 0000 0000 0000 0000
00000170: 0000 0000 0000 0000 0000 0000 0000 0000
00000180: 0000 0000 0000 0000 0000 0000 0000 0000
00000190: 0000 0000 0000 0000 0000 0000 0000 0000
000001a0: 0000 0000 0000 0000 0000 0000 0000 0000
000001b0: 0000 0000 0000 0000 0000 0000 0000 0000
000001c0: 0000 0000 0000 0000 0000 0000 0000 0000
000001d0: 0000 0000 0000 0000 0000 0000 0000 0000
000001e0: 0000 0000 0000 0000 0000 0000 0000 0000
000001f0: 0000 0000 0000 0000 0000 0000 0000 0000
00000200: 0000 0000 0000 0000 0000 0000 0000 0000
00000210: 0000 0000 0000 0000 0000 0000 0000 0000
00000220: 0000 0000 0000 0000 0000 0000 0000 0000
00000230: 0000 0000 0000 0000 0000 0000 0000 0000
00000240: 0000 0000 0000 0000 0000 0000 0000 0000
00000250: 0000 0000 0000 0000 0000 0000 0000 0000
00000260: 0000 0000 0000 0000 0000 0000 0000 0000
00000270: 0000 0000 0000 0000 0000 0000 0000 0000
00000280: 0000 0000 0000 0000 0000 0000 0000 0000
00000290: 0000 0000 0000 0000 0000 0000 0000 0000
000002a0: 0000 0000 0000 0000 0000 0000 0000 0000
000002b0: 0000 0000 0000 0000 0000 0000 0000 0000
000002c0: 0000 0000 0000 0000 0000 0000 0000 0000
000002d0: 0000 0000 0000 0000 0000 0000 0000 0000
000002e0: 0000 0000 0000 0000 0000 0000 0000 0000
000002f0: 0000 0000 0000 0000 0000 0000 0000 0000
00000300: 0000 0000 0000 0000 0000 0000 0000 0000
00000310: 0000 0000 0000 0000 0000 0000 0000 0000
00000320: 0000 0000 0000 0000 0000 0000 0000 0000
00000330: 0000 0000 0000 0000 0000 0000 0000 0000
00000340: 0000 0000 0000 0000 0000 0000 0000 0000
00000350: 0000 0000 0000 0000 0000 0000 0000 0000
00000360: 0000 0000 0000 0000 0000 0000 0000 0000
00000370: 0000 0000 0000 0000 0000 0000 0000 0000
00000380: 0000 0000 0000 0000 0000 0000 0000 0000
00000390: 0000 0000 0000 0000 0000 0000 0000 0000
000003a0: 0000 0000 0000 0000 0000 0000 0000 0000
000003b0: 0000 0000 0000 0000 0000 0000 0000 0000
000003c0: 0000 0000 0000 0000 0000 0000 0000 0000
000003d0: 0000 0000 0000 0000 0000 0000 0000 0000
000003e0: 0000 0000 0000 0000 0000 0000 0000 0000
000003f0: 0000 0000 0000 0000 0000 0000 0000 0000

bn.running_mean f4 [256]
0.0 0.0 0.0 0.0 0.0 0.0 0.0 0.0
0.0 0.0 0.0 0.0 0.0 0.0 0.0 0.0
0.0 0.0 0.0 0.0 0.0 0.0 0.0 0.0
0.0 0.0 0.0 0.0 0.0 0.0 0.0 0.0
0.0 0.0 0.0 0.0 0.0 0.0 0.0 0.0
0.0 0.0 0.0 0.0 0.0 0.0 0.0 0.0
0.0 0.0 0.0 0.0 0.0 0.0 0.0 0.0
0.0 0.0 0.0 0.0 0.0 0.0 0.0 0.0
0.0 0.0 0.0 0.0 0.0 0.0 0.0 0.0
0.0 0.0 0.0 0.0 0.0 0.0 0.0 0.0
0.0 0.0 0.0 0.0 0.0 0.0 0.0 0.0
0.0 0.0 0.0 0.0 0.0 0.0 0.0 0.0
0.0 0.0 0.0 0.0 0.0 0.0 0.0 0.0
0.0 0.0 0.0 0.0 0.0 0.0 0.0 0.0
0.0 0.0 0.0 0.0 0.0 0.0 0.0 0.0
0.0 0.0 0.0 0.0 0.0 0.0 0.0 0.0
0.0 0.0 0.0 0.0 0.0 0.0 0.0 0.0
0.0 0.0 0.0 0.0 0.0 0.0 0.0 0.0
0.0 0.0 0.0 0.0 0.0 0.0 0.0 0.0
0.0 0.0 0.0 0.0 0.0 0.0 0.0 0.0
0.0 0.0 0.0 0.0 0.0 0.0 0.0 0.0
0.0 0.0 0.0 0.0 0.0 0.0 0.0 0.0
0.0 0.0 0.0 0.0 0.0 0.0 0.0 0.0
0.0 0.0 0.0 0.0 0.0 0.0 0.0 0.0
0.0 0.0 0.0 0.0 0.0 0.0 0.0 0.0
0.0 0.0 0.0 0.0 0.0 0.0 0.0 0.0
0.0 0.0 0.0 0.0 0.0 0.0 0.0 0.0
0.0 0.0 0.0 0.0 0.0 0.0 0.0 0.0
0.0 0.0 0.0 0.0 0.0 0.0 0.0 0.0
0.0 0.0 0.0 0.0 0.0 0.0 0.0 0.0
0.0 0.0 0.0 0.0 0.0 0.0 0.0 0.0
0.0 0.0 0.0 0.0 0.0 0.0 0.0 0.0
00000000: 0000 0000 0000 0000 0000 0000 0000 0000
00000010: 0000 0000 0000 0000 0000 0000 0000 0000
00000020: 0000 0000 0000 0000 0000 0000 0000 0000
00000030: 0000 0000 0000 0000 0000 0000 0000 0000
00000040: 0000 0000 0000 0000 0000 0000 0000 0000
00000050: 0000 0000 0000 0000 0000 0000 0000 0000
00000060: 0000 0000 0000 0000 0000 0000 0000 0000
00000070: 0000 0000 0000 0000 0000 0000 0000 0000
00000080: 0000 0000 0000 0000 0000 0000 0000 0000
00000090: 0000 0000 0000 0000 0000 0000 0000 0000
000000a0: 0000 0000 0000 0000 0000 0000 0000 0000
000000b0: 0000 0000 0000 0000 0000 0000 0000 0000
000000c0: 0000 0000 0000 0000 0000 0000 0000 0000
000000d0: 0000 0000 0000 0000 0000 0000 0000 0000
000000e0: 0000 0000 0000 0000 0000 0000 0000 0000
000000f0: 0000 0000 0000 0000 0000 0000 0000 0000
00000100: 0000 0000 0000 0000 0000 0000 0000 0000
00000110: 0000 0000 0000 0000 0000 0000 0000 0000
00000120: 0000 0000 0000 0000 0000 0000 0000 0000
00000130: 0000 0000 0000 0000 0000 0000 0000 0000
00000140: 0000 0000 0000 0000 0000 0000 0000 0000
00000150: 0000 0000 0000 0000 0000 0000 0000 0000
00000160: 0000 0000 0000 0000 0000 0000 0000 0000
00000170: 0000 0000 0000 0000 0000 0000 0000 0000
00000180: 0000 0000 0000 0000 0000 0000 0000 0000
00000190: 0000 0000 0000 0000 0000 0000 0000 0000
000001a0: 0000 0000 0000 0000 0000 0000 0000 0000
000001b0: 0000 0000 0000 0000 0000 0000 0000 0000
000001c0: 0000 0000 0000 0000 0000 0000 0000 0000
000001d0: 0000 0000 0000 0000 0000 0000 0000 0000
000001e0: 0000 0000 0000 0000 0000 0000 0000 0000
000001f0: 0000 0000 0000 0000 0000 0000 0000 0000
00000200: 0000 0000 0000 0000 0000 0000 0000 0000
00000210: 0000 0000 0000 0000 0000 0000 0000 0000
00000220: 0000 0000 0000 0000 0000 0000 0000 0000
00000230: 0000 0000 0000 0000 0000 0000 0000 0000
00000240: 0000 0000 0000 0000 0000 0000 0000 0000
00000250: 0000 0000 0000 0000 0000 0000 0000 0000
00000260: 0000 0000 0000 0000 0000 0000 0000 0000
00000270: 0000 0000 0000 0000 0000 0000 0000 0000
00000280: 0000 0000 0000 0000 0000 0000 0000 0000
00000290: 0000 0000 0000 0000 0000 0000 0000 0000
000002a0: 0000 0000 0000 0000 0000 0000 0000 0000
000002b0: 0000 0000 0000 0000 0000 0000 0000 0000
000002c0: 0000 0000 0000 0000 0000 0000 0000 0000
000002d0: 0000 0000 0000 0000 0000 0000 0000 0000
000002e0: 0000 0000 0000 0000 0000 0000 0000 0000
000002f0: 0000 0000 0000 0000 0000 0000 0000 0000
00000300: 0000 0000 0000 0000 0000 0000 0000 0000
00000310: 0000 0000 0000 0000 0000 0000 0000 0000
00000320: 0000 0000 0000 0000 0000 0000 0000 0000
00000330: 0000 0000 0000 0000 0000 0000 0000 0000
00000340: 0000 0000 0000 0000 0000 0000 0000 0000
00000350: 0000 0000 0000 0000 0000 0000 0000 0000
00000360: 0000 0000 0000 0000 0000 0000 0000 0000
00000370: 0000 0000 0000 0000 0000 0000 0000 0000
00000380: 0000 0000 0000 0000 0000 0000 0000 0000
00000390: 0000 0000 0000 0000 0000 0000 0000 0000
000003a0: 0000 0000 0000 0000 0000 0000 0000 0000
000003b0: 0000 0000 0000 0000 0000 0000 0000 0000
000003c0: 0000 0000 0000 0000 0000 0000 0000 0000
000003d0: 0000 0000 0000 0000 0000 0000 0000 0000
000003e0: 0000 0000 0000 0000 0000 0000 0000 0000
000003f0: 0000 0000 0000 0000 0000 0000 0000 0000

bn.running_var f4 [256]
1.0 1.0 1.0 1.0 1.0 1.0 1.0 1.0
1.0 1.0 1.0 1.0 1.0 1.0 1.0 1.0
1.0 1.0 1.0 1.0 1.0 1.0 1.0 1.0
1.0 1.0 1.0 1.0 1.0 1.0 1.0 1.0
1.0 1.0 1.0 1.0 1.0 1.0 1.0 1.0
1.0 1.0 1.0 1.0 1.0 1.0 1.0 1.0
1.0 1.0 1.0 1.0 1.0 1.0 1.0 1.0
1.0 1.0 1.0 1.0 1.0 1.0 1.0 1.0
1.0 1.0 1.0 1.0 1.0 1.0 1.0 1.0
1.0 1.0 1.0 1.0 1.0 1.0 1.0 1.0
1.0 1.0 1.0 1.0 1.0 1.0 1.0 1.0
1.0 1.0 1.0 1.0 1.0 1.0 1.0 1.0
1.0 1.0 1.0 1.0 1.0 1.0 1.0 1.0
1.0 1.0 1.0 1.0 1.0 1.0 1.0 1.0
1.0 1.0 1.0 1.0 1.0 1.0 1.0 1.0
1.0 1.0 1.0 1.0 1.0 1.0 1.0 1.0
1.0 1.0 1.0 1.0 1.0 1.0 1.0 1.0
1.0 1.0 1.0 1.0 1.0 1.0 1.0 1.0
1.0 1.0 1.0 1.0 1.0 1.0 1.0 1.0
1.0 1.0 1.0 1.0 1.0 1.0 1.0 1.0
1.0 1.0 1.0 1.0 1.0 1.0 1.0 1.0
1.0 1.0 1.0 1.0 1.0 1.0 1.0 1.0
1.0 1.0 1.0 1.0 1.0 1.0 1.0 1.0
1.0 1.0 1.0 1.0 1.0 1.0 1.0 1.0
1.0 1.0 1.0 1.0 1.0 1.0 1.0 1.0
1.0 1.0 1.0 1.0 1.0 1.0 1.0 1.0
1.0 1.0 1.0 1.0 1.0 1.0 1.0 1.0
1.0 1.0 1.0 1.0 1.0 1.0 1.0 1.0
1.0 1.0 1.0 1.0 1.0 1.0 1.0 1.0
1.0 1.0 1.0 1.0 1.0 1.0 1.0 1.0
1.0 1.0 1.0 1.0 1.0 1.0 1.0 1.0
1.0 1.0 1.0 1.0 1.0 1.0 1.0 1.0
00000000: 0000 803f 0000 803f 0000 803f 0000 803f
00000010: 0000 803f 0000 803f 0000 803f 0000 803f
00000020: 0000 803f 0000 803f 0000 803f 0000 803f
00000030: 0000 803f 0000 803f 0000 803f 0000 803f
00000040: 0000 803f 0000 803f 0000 803f 0000 803f
00000050: 0000 803f 0000 803f 0000 803f 0000 803f
00000060: 0000 803f 0000 803f 0000 803f 0000 803f
00000070: 0000 803f 0000 803f 0000 803f 0000 803f
00000080: 0000 803f 0000 803f 0000 803f 0000 803f
00000090: 0000 803f 0000 803f 0000 803f 0000 803f
000000a0: 0000 803f 0000 803f 0000 803f 0000 803f
000000b0: 0000 803f 0000 803f 0000 803f 0000 803f
000000c0: 0000 803f 0000 803f 0000 803f 0000 803f
000000d0: 0000 803f 0000 803f 0000 803f 0000 803f
000000e0: 0000 803f 0000 803f 0000 803f 0000 803f
000000f0: 0000 803f 0000 803f 0000 803f 0000 803f
00000100: 0000 803f 0000 803f 0000 803f 0000 803f
00000110: 0000 803f 0000 803f 0000 803f 0000 803f
00000120: 0000 803f 0000 803f 0000 803f 0000 803f
00000130: 0000 803f 0000 803f 0000 803f 0000 803f
00000140: 0000 803f 0000 803f 0000 803f 0000 803f
00000150: 0000 803f 0000 803f 0000 803f 0000 803f
00000160: 0000 803f 0000 803f 0000 803f 0000 803f
00000170: 0000 803f 0000 803f 0000 803f 0000 803f
00000180: 0000 803f 0000 803f 0000 803f 0000 803f
00000190: 0000 803f 0000 803f 0000 803f 0000 803f
000001a0: 0000 803f 0000 803f 0000 803f 0000 803f
000001b0: 0000 803f 0000 803f 0000 803f 0000 803f
000001c0: 0000 803f 0000 803f 0000 803f 0000 803f
000001d0: 0000 803f 0000 803f 0000 803f 0000 803f
000001e0: 0000 803f 0000 803f 0000 803f 0000 803f
000001f0: 0000 803f 0000 803f 0000 803f 0000 803f
00000200: 0000 803f 0000 803f 0000 803f 0000 803f
00000210: 0000 803f 0000 803f 0000 803f 0000 803f
00000220: 0000 803f 0000 803f 0000 803f 0000 803f
00000230: 0000 803f 0000 803f 0000 803f 0000 803f
00000240: 0000 803f 0000 803f 0000 803f 0000 803f
00000250: 0000 803f 0000 803f 0000 803f 0000 803f
00000260: 0000 803f 0000 803f 0000 803f 0000 803f
00000270: 0000 803f 0000 803f 0000 803f 0000 803f
00000280: 0000 803f 0000 803f 0000 803f 0000 803f
00000290: 0000 803f 0000 803f 0000 803f 0000 803f
000002a0: 0000 803f 0000 803f 0000 803f 0000 803f
000002b0: 0000 803f 0000 803f 0000 803f 0000 803f
000002c0: 0000 803f 0000 803f 0000 803f 0000 803f
000002d0: 0000 803f 0000 803f 0000 803f 0000 803f
000002e0: 0000 803f 0000 803f 0000 803f 0000 803f
000002f0: 0000 803f 0000 803f 0000 803f 0000 803f
00000300: 0000 803f 0000 803f 0000 803f 0000 803f
00000310: 0000 803f 0000 803f 0000 803f 0000 803f
00000320: 0000 803f 0000 803f 0000 803f 0000 803f
00000330: 0000 803f 0000 803f 0000 803f 0000 803f
00000340: 0000 803f 0000 803f 0000 803f 0000 803f
00000350: 0000 803f 0000 803f 0000 803f 0000 803f
00000360: 0000 803f 0000 803f 0000 803f 0000 803f
00000370: 0000 803f 0000 803f 0000 803f 0000 803f
00000380: 0000 803f 0000 803f 0000 803f 0000 803f
00000390: 0000 803f 0000 803f 0000 803f 0000 803f
000003a0: 0000 803f 0000 803f 0000 803f 0000 803f
000003b0: 0000 803f 0000 803f 0000 803f 0000 803f
000003c0: 0000 803f 0000 803f 0000 803f 0000 803f
000003d0: 0000 803f 0000 803f 0000 803f 0000 803f
000003e0: 0000 803f 0000 803f 0000 803f 0000 803f
000003f0: 0000 803f 0000 803f 0000 803f 0000 803f

fcs1.weight f4 [256, 48]
0.27031362 2.9788482 0.089499 0.39018497 -1.4374552 1.1273116 0.006306871 0.3504872
0.80062973 2.8800206 0.026023636 -1.1059908 -1.8549156 0.6442484 -0.07418898 -1.1122183
1.7520101 2.9845147 0.24792984 1.3429949 -0.5064147 1.8435731 0.13888118 1.3763251
0.13104174 0.48129693 0.12872452 0.54212356 1.3998995 1.171455 0.13376868 0.58235466
0.9007514 0.55987644 -0.3831057 -0.26404458 1.8488748 0.7311689 -0.26374203 -0.17825668
1.3634791 0.51253587 0.27396503 0.5519053 0.5671631 1.7950654 0.3458207 0.46542025
0.8584245 0.8757142 -0.25860474 -0.04530627 0.16221163 -0.022729663 -0.23721677 -0.039535787
0.6109236 0.6868565 -0.08253571 0.15811563 -0.13838801 -0.57571036 -0.11839865 0.16156828
0.7300072 0.67788994 0.012280682 0.045984134 -0.4506441 -0.9702171 0.022541385 0.11078793
0.74088717 0.824852 -0.13984224 0.016349217 -0.21935019 -0.032366943 -0.20339936 0.050488632
0.5355124 0.61660504 0.028309228 0.1734712 0.17944439 -0.6304725 -0.00028329334 0.15741749
0.90129673 0.579792 0.036667444 0.16835488 0.48309386 -0.9843744 0.10661304 0.14360677
0.3486493 0.26449794 -0.050332256 0.099794246 -0.42997977 -0.1739128 -0.02519469 0.14182907
0.34338018 0.31114364 -0.09336834 -0.08203741 -0.1960269 -0.17531379 -0.04187716 -0.119619794
0.42920244 0.5113726 -0.015298816 0.019863592 0.49131906 -0.8478057 0.004472655 0.01841322
0.21004754 0.38957837 -0.0645213 -0.016689954 0.5249579 -0.09138565 -0.06368868 -0.040193077
0.45020473 0.4014113 -0.048537098 0.11853303 0.08057093 -0.1587942 -0.070057586 0.14071882
0.5151772 0.56570864 0.0057659484 -0.24109249 -0.38422072 -0.852331 0.045684446 -0.19585656
0.45630857 0.22423032 -0.028209947 0.08419296 -0.2136372 0.0060213776 -0.010878804 0.055131096
0.5714228 0.25254488 -0.01382759 0.06324002 -0.08999159 0.00661454 -0.11561397 0.13151953
0.66553867 0.32174236 -0.03773315 0.04543156 -0.0672814 -0.01190953 -0.008627319 0.098710716
0.61413515 0.23432013 0.008570423 -0.03545805 0.16931781 -0.07154199 -0.019934358 -0.04934851
0.42336804 0.22516483 -0.091636516 -0.19843644 0.12174817 -0.0105609065 -0.13620439 -0.1386975
0.4178865 0.30446404 -0.058994845 -0.2758133 0.03595229 -0.014883421 0.059334226 -0.18924919
0.41726822 0.44019762 -0.012863619 0.07741521 -0.082157515 -0.24004677 -0.0048550237 0.13293238
0.42812365 0.53712076 -0.007508625 0.11614645 -0.12201962 -0.23486994 -0.06218093 0.10495854
0.5320142 0.59557396 -0.0004063464 -0.07134005 -0.055142514 -0.27800742 -0.01517684 -0.08871146
0.45153806 0.46360576 0.000695535 -0.09748627 0.14730467 -0.15533453 -0.05727714 -0.111803785
0.47140536 0.51378536 0.012428541 0.02305999 0.031641096 -0.3180859 0.02249653 0.09590279
0.35463628 0.4951316 -0.073332734 -0.1515793 -0.02474196 -0.33991042 -0.04729971 -0.14848651
0.37859565 -0.10729487 -0.04449252 0.0750124 -0.22634886 -0.40908653 -0.03763743 0.15078779
0.36098105 -0.10549299 -0.04936173 -0.033457436 -0.07738059 -0.39234692 -0.020790886 -0.100708716
00000000: 8c66 8a3e 73a5 3e40 404b b73d 53c6 c73e
00000010: 88fe b7bf bf4b 903f dea9 ce3b 0f73 b33e
00000020: 12f6 4c3f 4252 3840 852f d53c 1b91 8dbf
00000030: e06d edbf 77ed 243f 64f0 97bd 2b5d 8ebf
00000040: de41 e03f 4a02 3f40 52e1 7d3e 42e7 ab3f
00000050: 65a4 01bf 34fa eb3f de36 0e3e 6c2b b03f
00000060: ce2f 063e 8d6c f63e 5cd0 033e 9cc8 0a3f
00000070: e82f b33f 3df2 953f a8fa 083e 3215 153f
00000080: a597 663f 1054 0f3f 6e26 c4be da30 87be
00000090: eea7 ec3f e32d 3b3f 3209 87be eb88 36be
000000a0: 7c86 ae3f 8d35 033f 2545 8c3e aa49 0d3f
000000b0: 9a31 113f b4c4 e53f 690f b13e 904b ee3e
000000c0: b5c1 5b3f ce2e 603f d767 84be 1193 39bd
000000d0: ce1a 263e 8f33 babc f4e8 72be 47f0 21bd
000000e0: 7d65 1c3f d4d5 2f3f 7b08 a9bd 10e9 213e
000000f0: 96b5 0dbe c161 13bf fe7a f2bd 2872 253e
00000100: c0e1 3a3f 328a 2d3f ea34 493c dc59 3c3d
00000110: d3ba e6be 2660 78bf b6a8 b83c c8e4 e23d
00000120: c8aa 3d3f 8029 533f ce32 0fbe cbee 853c
00000130: 569d 60be 3393 04bd ec47 50be 2bcd 4e3d
00000140: 5717 093f d4d9 1d3f c1e8 e73c 6fa2 313e
00000150: 45c0 373e a566 21bf fd86 94b9 0d32 213e
00000160: 62bb 663f 406d 143f 9a30 163d 3965 2c3e
00000170: 1458 f73e f6ff 7bbf f057 da3d a70d 133e
00000180: 2982 b23e 466c 873e 3229 4ebd ed60 cc3d
00000190: 4f26 dcbe 3216 32be 1865 cebc a43b 113e
000001a0: 87cf af3e 384e 9f3e e637 bfbd 3b03 a8bd
000001b0: 47bb 48be 7585 33be 6387 2bbd 39fb f4bd
000001c0: 6cc0 db3e 51e9 023f e3a7 7abc f9b8 a23c
000001d0: 2c8e fb3e cb09 59bf 598f 923b 52d7 963c
000001e0: b416 573e d176 c73e be23 84bd 5fb9 88bc
000001f0: a463 063f 6628 bbbd 366f 82bd 7fa1 24bd
00000200: 3c81 e63e c885 cd3e d6ce 46bd 72c1 f23d
00000210: 5f02 a53d f29a 22be 5a7a 8fbd 9818 103e
00000220: a7e2 033f 48d2 103f 48f0 bc3b f3e0 76be
00000230: 94b8 c4be 5d32 5abf 9d1f 3b3d 9f8e 48be
00000240: 47a1 e93e a29c 653e 8c18 e7bc 5c6d ac3d
00000250: b6c3 5abe fa4e c53b 033d 32bc 25d1 613d
00000260: c448 123f 904d 813e 1e8d 62bc fc83 813d
00000270: 834d b8bd c8be d83b 04c7 ecbd 0ead 063e
00000280: be60 2a3f 6abb a43e 138e 1abd 7216 3a3d
00000290: d5ca 89bd 3020 43bc 9959 0dbc d828 ca3d
000002a0: f637 1d3f 9ef1 6f3e f66a 0c3c 763c 11bd
000002b0: a661 2d3e 9b84 92bd 614d a3bc aa21 4abd
000002c0: b2c3 d83e 9c91 663e edab bbbd ec32 4bbe
000002d0: 1b57 f93d a707 2dbc 2a79 0bbe b806 0ebe
000002e0: 38f5 d53e b6e2 9b3e 94a4 71bd 6737 8dbe
000002f0: b542 133d 98d9 73bc 7208 733d 8aca 41be
00000300: 2ea4 d53e 9561 e13e eec1 52bc de8b 9e3d
00000310: 3342 a8bd d2ce 75be e416 9fbb 6d1f 083e
00000320: 0633 db3e bf80 093f e90a f6bb 31de ed3d
00000330: 6ce5 f9bd bf81 70be 6eb1 7ebd 81f4 d63d
00000340: 1532 083f 8977 183f e40a d5b9 bb1a 92bd
00000350: 1edd 61bd fd56 8ebe 48a8 78bc 5bae b5bd
00000360: ff2f e73e bc5d ed3e 9054 363a e2a6 c7bd
00000370: 09d7 163e 0410 1fbe 6f9b 6abd 62f9 e4bd
00000380: 0b5c f13e 7087 033f 14a1 4b3c 4ee8 bc3c
00000390: 189a 013d 28dc a2be a54a b83c af68 c43d
000003a0: e392 b53e e481 fd3e 792f 96bd 9b37 1bbe
000003b0: a7af cabc bd08 aebe 57bd 41bd d90c 18be
000003c0: 4ad7 c13e 6abd dbbd ca3d 36bd 1aa0 993d
000003d0: ffc7 67be ca73 d1be b529 1abd 1d68 1a3e
000003e0: 82d2 b83e b50c d8bd 872f 4abd aa0a 09bd
000003f0: b779 9ebd b2e1 c8be a651 aabc 5f40 cebd

fcs1.bias f4 [256]
-3.2915165 -1.0037788 -0.40597472 -0.20750092 -0.308489 -0.34484214 -0.62904125 -0.45196584
-0.9309944 -0.92720115 -0.40313387 -0.4329972 -1.5508593 -0.33961236 -0.471207 -0.25612587
-0.93668884 -0.5365331 -0.669587 -0.27513152 -0.5600127 -0.73278254 -0.44978902 -0.37494197
-1.7330122 0.039086837 -0.46950996 -0.22460532 -0.1615823 -0.90157527 -0.87617064 -0.36290514
-0.21451935 0.12419963 -0.5912698 -0.44293872 -1.5051887 -0.38064075 -0.8123549 -0.3587798
-3.5841978 -1.5581199 -0.5034067 -0.37754697 -0.35846382 -0.17704163 -0.6301817 -0.24743025
-1.2163514 -0.8751927 -0.5727671 -0.2808107 -0.1270038 -3.0903666 -0.7226947 -1.8163755
-0.7197641 -1.0340005 -0.71718764 -0.09071019 -0.13179691 -0.6984176 0.05577989 -0.26097238
-0.26863122 -0.3715084 -0.5159459 -0.31819263 -0.15237144 -1.3717963 -1.7239698 -0.6499522
-1.2836893 -0.47672108 -0.087567925 -0.8990051 -1.7558651 -1.9503946 -0.82314676 0.04137716
-1.0916103 -3.252994 -0.3701894 -0.9552601 -0.9369838 -0.3868595 0.47113574 -3.3365052
-0.46030384 -2.532817 -0.8301287 -1.4539691 -0.32700238 -0.69406176 -1.23689 -0.6402737
-0.550709 -0.29037705 -0.48356798 -0.48404104 -1.7388287 -1.590652 -0.58393097 -0.8783647
-0.53976387 -0.39500755 -1.6460549 -2.995978 -0.79264057 -2.1978946 -1.72404 0.824603
0.2852412 -0.92684156 -0.51257133 -0.55362976 -0.58455396 -0.7040955 -0.49538496 -0.8183861
-1.1388663 -2.1578324 -0.47111303 -0.4166156 -0.76313704 -2.033887 -0.551533 -1.0637059
-0.84536284 -0.79538655 -0.51400054 -4.9329176 -0.413108 -0.74609184 -0.37112144 -2.3263698
-0.55765176 1.141531 -0.4999207 -0.2523442 -0.29296288 -0.41300622 -0.35638636 -0.8050736
-0.74479365 -0.83733034 -0.25257608 -1.2472655 -1.931401 -0.13617961 -0.36677283 -1.4958001
-1.8957086 -1.5764312 -0.42541862 -1.8017492 -0.8006649 -1.2934709 -1.1650578 -1.2924404
-0.87351376 -0.023031576 -0.80671895 -0.5904186 -0.39124086 -0.42226 -0.59584904 -0.40047598
-0.6949877 -0.10692382 -0.39697316 -3.4313955 -0.20336738 -0.6993609 -0.756197 -0.702224
-0.63371456 -1.0272254 -0.45178998 -0.8494619 -0.6859976 -0.5947088 -0.18775596 -1.05201
-0.38981795 -1.5222492 -0.6890256 -2.152462 -0.5605906 -0.36467165 -0.6431698 -0.3571472
-0.56309354 -3.623629 -0.2637786 -0.33015293 -0.48254746 -0.903093 -0.2659004 -2.1625128
-0.67080265 -0.15692279 -0.5795367 -0.5607506 -0.5789888 -1.4850805 -0.19799288 -1.7498797
-0.8642843 -0.40377346 -0.2724106 -1.2493651 -0.44804713 -0.38656273 -1.4273053 0.13203745
-0.61473846 -0.43631643 -2.250858 -0.8621337 -0.6644173 -0.494109 -0.31340912 -0.5872492
-0.39486912 -0.6825176 -0.5200086 -1.6306851 -0.26254952 -1.6000946 -0.9330777 -0.733838
-0.33247054 -0.601837 -0.734174 -0.6264408 -0.7680762 -1.7356133 -0.41979718 -0.33806083
-1.4950241 -0.6098471 -0.14731929 -1.6965867 -0.94269204 -0.5214528 -1.0103701 -1.5823913
-0.54775494 -0.3080689 -0.29273024 -2.2063587 -0.7128462 -1.7195717 -0.60242045 -0.30572188
00000000: 35a8 52c0 d37b 80bf ebdb cfbe 1f7b 54be
00000010: 45f2 9dbe 268f b0be d908 21bf 1168 e7be
00000020: a655 6ebf 0e5d 6dbf 9067 cebe cfb1 ddbe
00000030: 8f82 c6bf ace1 adbe 0b42 f1be ee22 83be
00000040: d7ca 6fbf 3c5a 09bf 0e6a 2bbf 0ade 8cbe
00000050: fe5c 0fbf a397 3bbf bf4a e6be 65f8 bfbe
00000060: 58d3 ddbf 8519 203d 9c63 f0be f0fe 65be
00000070: d575 25be a3cd 66bf b84c 60bf b4ce b9be
00000080: f6aa 5bbe 605c fe3d 755d 17bf ddc8 e2be
00000090: 06aa c0bf 58e3 c2be 7ef6 4fbf fcb1 b7be
000000a0: 7f63 65c0 7970 c7bf 43df 00bf d64d c1be
000000b0: 9288 b7be 674a 35be 9753 21bf 5b5e 7dbe
000000c0: 67b1 9bbf a10c 60bf dda0 12bf 6cc6 8fbe
000000d0: 490d 02be 91c8 45c0 8502 39bf fe7e e8bf
000000e0: 7642 38bf 215a 84bf 9c99 37bf 44c6 b9bd
000000f0: c5f5 06be 7fcb 32bf 7479 643d 2c9e 85be
00000100: 088a 89be 5936 bebe 0815 04bf 25ea a2be
00000110: 4207 1cbe 0597 afbf 0bab dcbf 4463 26bf
00000120: ee4f a4bf c914 f4be d056 b3bd 3325 66bf
00000130: 30c0 e0bf 88a6 f9bf bfb9 52bf 197b 293d
00000140: e3b9 8bbf 0e31 50c0 7789 bdbe ed8b 74bf
00000150: 2cde 6fbf 7312 c6be b438 f13e 4d89 55c0
00000160: f2ac ebbe ac19 22c0 5183 54bf a91b babf
00000170: db6c a7be 08ae 31bf 6952 9ebf fae8 23bf
00000180: 44fb 0cbf 4dac 94be 3996 f7be 3ad4 f7be
00000190: f091 debf 7c9a cbbf 807c 15bf 82dc 60bf
000001a0: f72d 0abf 6e3e cabe edb1 d2bf 1bbe 3fc0
000001b0: 7eea 4abf 4eaa 0cc0 58ad dcbf 2f19 533f
000001c0: 220b 923e 7d45 6dbf e037 03bf aeba 0dbf
000001d0: 54a5 15bf 9a3f 34bf 19a3 fdbe c081 51bf
000001e0: 5fc6 91bf ed19 0ac0 ba35 f1be a44e d5be
000001f0: f35c 43bf 342b 02c0 4431 0dbf 8427 88bf
00000200: b369 58bf 749e 4bbf 8a95 03bf 76da 9dc0
00000210: e482 d3be e0ff 3ebf a103 bebe 3ee3 14c0
00000220: 44c2 0ebf b01d 923f 9bf5 ffbe 4233 81be
00000230: 3bff 95be 8d75 d3be 4678 b6be 4e19 4ebf
00000240: ccaa 3ebf 485b 56bf a751 81be 65a6 9fbf
00000250: 2638 f7bf ab72 0bbe a6c9 bbbe 6176 bfbf
00000260: 94a6 f2bf 7fc8 c9bf 78d0 d9be b89f e6bf
00000270: 60f8 4cbf 7490 a5bf 9d20 95bf b06e a5bf
00000280: 999e 5fbf b7ac bcbc 2285 4ebf ac25 17bf
00000290: b950 c8be 7632 d8be 9089 18bf 300b cdbe
000002a0: b7ea 31bf e0fa dabd 1140 cbbe fc9b 5bc0
000002b0: 8a3f 50be 5109 33bf 2096 41bf f4c4 33bf
000002c0: 1e3b 22bf 1f7c 83bf 0451 e7be 5676 59bf
000002d0: 8a9d 2fbf d63e 18bf 1943 40be 44a8 86bf
000002e0: 3896 c7be 10d9 c2bf fb63 30bf f0c1 09c0
000002f0: de82 0fbf 3eb6 babe c7a6 24bf ffdb b6be
00000300: e626 10bf 8ae9 67c0 fd0d 87be ce09 a9be
00000310: 7610 f7be 1a31 67bf 1924 88be 9c66 0ac0
00000320: b9b9 2bbf 5eb0 20be 845c 14bf 5a8d 0fbf
00000330: 9c38 14bf 1e17 bebf a5be 4abe 0ffc dfbf
00000340: bc41 5dbf 65bb cebe 6779 8bbe 32eb 9fbf
00000350: 6f66 e5be 8deb c5be f1b1 b6bf d334 073e
00000360: 805f 1dbf de64 dfbe 0f0e 10c0 cbb4 5cbf
00000370: 4117 2abf dbfb fcbe 2977 a0be f755 16bf
00000380: 492c cabe 79b9 2ebf 491f 05bf 4aba d0bf
00000390: e46c 86be e6cf ccbf 2ede 6ebf cfdc 3bbf
000003a0: 9439 aabe fd11 1abf d4f2 3bbf 6d5e 20bf
000003b0: a4a0 44bf 9428 debf a8ef d6be 4f16 adbe
000003c0: f35c bfbf f11e 1cbf deda 16be c129 d9bf
000003d0: 4454 71bf ee7d 05bf cf53 81bf cc8b cabf
000003e0: ab39 0cbf 35bb 9dbe bde0 95be fb34 0dc0
000003f0: 177d 36bf ed1a dcbf 3a38 1abf 9487 9cbe

fc2.weight f4 [128, 260]
-0.037174657 -0.1550694 0.021399328 -0.068332806 -0.048949897 -0.12182525 0.02237556 -0.051911067
0.049587894 0.06486951 -0.08371483 -0.08392371 0.0006852388 -0.07948062 -0.12179136 0.0023024555
0.0013050616 -0.014364949 0.012092821 -0.06730093 -0.037359025 -0.06405747 0.018448684 0.04575591
-0.09087013 -0.09074794 -0.11062495 -0.15756664 -0.04545624 -0.0739102 0.003740706 0.034275476
0.015181111 -0.045797125 0.07342516 -0.031707797 -0.15420353 -0.066755965 -0.0699774 -0.07253186
-0.20112666 0.020126877 -0.081899405 0.031545963 0.0083818585 -0.02306276 -0.10145617 0.0533658
0.06691155 -0.0974367 -0.08547572 0.06831664 -0.10874347 0.028815763 -0.054651737 0.028253162
-0.06366395 -0.0035738412 -0.15075952 -0.02791203 -0.13231856 0.0044338848 -0.11169718 0.06260689
0.0307493 -0.023583915 -0.0092319455 -0.07843874 0.06366212 -0.00016775918 -0.12004578 -0.057396267
-0.09400877 -0.069558635 -0.023471072 -0.063058816 -0.06810444 0.0005450096 -0.10200481 0.05231994
-0.039647415 -0.13698885 -0.03483191 0.006998647 -0.06364897 -0.1528735 -0.018206978 -0.117317416
0.073024176 0.054110747 -0.055274777 -0.08893686 -0.07235367 -0.109079644 -0.025520695 -0.09600148
-0.07498477 -0.062318962 0.052362498 -0.08849957 -0.020901643 -0.09798094 0.022648465 -0.14499293
-0.08154054 -0.039901927 -0.060953498 -0.1166307 0.04449315 -0.07640753 -0.08014105 -0.12688208
-0.14037551 -0.13348971 0.035029363 -0.027200133 -0.09070683 0.013899733 -0.17197731 -0.015248688
-0.036545124 -0.09856795 -0.017399874 -0.09537378 -0.17707503 0.07994663 0.05826639 -0.04240556
-0.04418899 -0.035376936 -0.03721382 0.011044038 -0.037613034 -0.06872757 -0.037766118 -0.0512215
-0.017476955 -0.14155927 -0.004743144 -0.08149142 -0.11902128 -0.13313963 -0.064163625 -0.040925473
0.08126836 -0.08068841 -0.08628829 0.008110737 -0.038115468 -0.027781978 0.052397214 -0.021365725
-0.05781851 0.022337819 0.021066304 -0.09287218 -0.00055155356 -0.03998771 0.0012934889 -0.021793403
-0.017460698 0.0418698 -0.072306424 -0.07578105 -0.069366544 -0.14254619 -0.052859608 -0.09542325
-0.17246917 -0.06980405 0.0062432783 -0.090722494 -0.04639095 -0.08694433 -0.13160573 -0.033772167
0.050829474 -0.014611531 -0.037875447 -0.11593399 -0.091202915 -0.045836784 0.033528905 -0.15228698
-0.019993182 -0.091471896 -0.09873392 -0.07243387 -0.09905781 -0.017496644 0.04943266 -0.093865365
-0.009035906 -0.031869337 -0.08495991 -0.08055284 -0.104674675 -0.04625482 0.016091986 0.022265388
-0.00044629606 -0.13955003 0.00032018527 -0.14913277 -0.08132174 -0.04986054 -0.023757536 -0.11079647
0.07513369 -0.039607316 0.034049172 -0.018913427 -0.02300791 -0.04459581 -0.009140197 -0.22867113
-0.08704392 -0.014336238 0.00465625 -0.020381005 -0.019821499 0.04372031 -0.042955536 -0.04240844
0.036244433 -0.023571577 -0.055258933 -0.042254154 0.006125442 -0.12503192 -0.031589426 0.06891384
0.021305038 -0.078780614 0.028950753 -0.062978186 0.069125004 0.019591276 0.052740637 -0.04191413
-0.043787062 -0.011205481 0.0047115977 0.04625567 0.010943408 -0.038045518 -0.020711573 -0.0760522
-0.054979257 -0.026716284 -0.11370978 -0.23700806 -0.05172714 -0.037404794 0.04059219 -0.008832008
00000000: 7444 18bd 83ca 1ebe a54d af3c 12f2 8bbd
00000010: b07f 48bd 847f f9bd f34c b73c b3a0 54bd
00000020: ad1c 4b3d 4eda 843d ae72 abbd 32e0 abbd
00000030: 99a1 333a bcc6 a2bd c06d f9bd cbe4 163b
00000040: 9a0e ab3a f75a 6bbc f820 463c 12d5 89bd
00000050: c705 19bd 9030 83bd b221 973c 8d6a 3b3d
00000060: 1e1a babd 0eda b9bd 558f e2bd 2659 21be
00000070: 5330 3abd 3b5e 97bd a226 753b 7164 0c3d
00000080: 32ba 783c c495 3bbd ee5f 963d 09e0 01bd
00000090: 88e7 1dbe 5ab7 88bd 5050 8fbd 958b 94bd
000000a0: 26f4 4dbe 1fe1 a43c e0ba a7bd 5736 013d
000000b0: 1054 093c 1dee bcbc 41c8 cfbd 1996 5a3d
000000c0: ec08 893d e48c c7bd e50d afbd 98e9 8b3d
000000d0: e5b4 debd 090f ec3c 80da 5fbd 2d73 e73c
000000e0: 3f62 82bd 1b37 6abb b460 1abe c5a7 e4bc
000000f0: 847e 07be 1f4a 913b 7ec1 e4bd 0b38 803d
00000100: f5e5 fb3c 0e33 c1bc 9641 17bc 7da4 a0bd
00000110: 4961 823d 83e8 2fb9 90da f5bd 5918 6bbd
00000120: ac87 c0bd c274 8ebd 6846 c0bc fb24 81bd
00000130: 577a 8bbd fade 0e3a e6e7 d0bd 6f4d 563d
00000140: 5465 22bd ce46 0cbe e8ab 0ebd e854 e53b
00000150: 645a 82bd df8a 1cbe cd26 95bc 1d44 f0bd
00000160: b38d 953d 3ba3 5d3d ce67 62bd 8724 b6bd
00000170: 292e 94bd 2665 dfbd c710 d1bc 6d9c c4bd
00000180: 9d91 99bd 2b42 7fbd 0f7a 563d 433f b5bd
00000190: ec39 abbc 3baa c8bd 4689 b93c 0779 14be
000001a0: bafe a6bd 3470 23bd 60aa 79bd 14dc eebd
000001b0: 733e 363d 8d7b 9cbd fe20 a4bd 60ed 01be
000001c0: 99be 0fbe 87b1 08be f37a 0f3d d0d2 debc
000001d0: 81c4 b9bd b5bb 633c d21a 30be a2d5 79bc
000001e0: 57b0 15bd fedd c9bd 2e8a 8ebc 5453 c3bd
000001f0: 2853 35be 0fbb a33d bda8 6e3d 74b1 2dbd
00000200: 84ff 34bd 68e7 10bd 856d 18bd 0ef2 343c
00000210: 2010 1abd 0ac1 8cbd a5b0 1abd a3cd 51bd
00000220: d52b 8fbc eaf4 10be 606c 9bbb f9e4 a6bd
00000230: 6ec1 f3bd c155 08be 3868 83bd 78a1 27bd
00000240: 0770 a63d f73f a5bd eab7 b0bd e6e2 043c
00000250: f71e 1cbd 0897 e3bc 769e 563d 2c07 afbc
00000260: 1ad3 6cbd cdfd b63c 3e93 ac3c c533 bebd
00000270: 2296 10ba 27ca 23bd 498a a93a 1488 b2bc
00000280: bd09 8fbc ab7f 2b3d 6415 94bd 1833 9bbd
00000290: 0c10 8ebd a1f7 11be 5183 58bd 446d c3bd
000002a0: c29b 30be 6df5 8ebd 6a94 cc3b b7cc b9bd
000002b0: 7004 3ebd de0f b2bd a7c3 06be af54 0abd
000002c0: 9132 503d 3465 6fbc 4923 1bbd cd6e edbd
000002d0: 98c8 babd 5abf 3bbd 9b55 093d 1ef1 1bbe
000002e0: bec8 a3bc 9e55 bbbd 0235 cabd 3558 94bd
000002f0: d2de cabd 1f55 8fbc e779 4a3d 7c3c c0bd
00000300: 560b 14bc 6c89 02bd 76ff adbd e3f8 a4bd
00000310: ad5f d6bd b275 3dbd 57d3 833c e765 b63c
00000320: d8fc e9b9 34e6 0ebe 8ade a739 43b6 18be
00000330: 038c a6bd 913a 4cbd 2a9f c2bc 42e9 e2bd
00000340: b1df 993d 483b 22bd 2577 0b3d 55f0 9abc
00000350: 167b bcbc 19aa 36bd c4c0 15bc c428 6abe
00000360: 1544 b2bd 8ae2 6abc 7593 983b 11f6 a6bc
00000370: b260 a2bc 1114 333d 25f2 2fbd 79b4 2dbd
00000380: 0b75 143d 2e19 c1bc 3157 62bd b112 2dbd
00000390: efb7 c83b 5e08 00be ea63 01bd b322 8d3d
000003a0: e787 ae3c bb57 a1bd 212a ed3c b5fa 80bd
000003b0: 6991 8d3d e27d a03c 9106 583d 27ae 2bbd
000003c0: 105a 33bd 3297 37bc bf63 9a3b 9676 3d3d
000003d0: fb4b 333c 9ed5 1bbd 51ab a9bc 41c1 9bbd
000003e0: ee31 61bd 1cdc dabc ace0 e8bd 3eb2 72be
000003f0: d6df 53bd c535 19bd ff43 263d 20b4 10bc

fc2.bias f4 [128]
-0.23846723 -0.6595415 -0.28909823 -0.42602828 -0.3948315 -0.5100398 -0.08509526 1.4216714
-0.22222242 -0.30971208 -0.26140735 -1.1009922 -0.36700502 -0.41963866 -0.34341764 -0.43053293
-0.3145628 -0.81999797 -0.30607742 -0.32268482 -0.26137578 -0.2820673 -0.36893684 -0.2628235
-0.16598186 -1.5120658 -0.21002081 -0.20518094 -0.656537 -0.3684057 -0.6593823 -0.23333293
0.18887964 -0.30883622 -0.22202158 -0.23273739 -0.22870284 -0.21688086 -0.278244 -0.29820174
-0.2720181 -0.774766 -2.0380654 -0.6292733 -0.35488567 -0.28657922 -0.25986075 0.17665541
-0.3647231 -0.19702347 -0.22498342 -0.29103458 -0.29856333 -0.39085603 -0.37686068 -0.3212659
-2.6077876 -0.31249353 -0.24408185 -0.36962038 -0.533473 0.7804605 0.79484284 2.370777
-0.30088678 -0.34745798 -0.27642894 -0.36786762 -0.4506013 -0.6070507 -0.30604488 -0.10757083
-0.26311198 -0.34529015 -0.8359025 -0.22451092 -0.38238397 -0.21431223 -1.6912367 -0.50203586
-0.28118563 -0.29389703 -0.31769168 -0.40407297 -0.27391982 -0.3133371 -0.28603527 -0.4150968
-0.4036549 -0.38885447 -0.35565317 -0.2794698 -0.31338847 -0.3360608 -0.2128388 -0.27802607
-0.31709093 -0.2244738 -0.3283885 -0.24931572 3.455427 -2.4884553 -0.30009922 0.35290226
-0.2813055 -0.2631138 -0.24408141 -0.39850408 -0.36023134 -0.25827384 -0.3619493 -0.44147307
-0.23046899 -0.61742514 -0.3096202 -0.24949288 -0.14655805 -0.733751 -0.26264203 -0.35804036
-0.40169597 -0.26685634 -0.75508326 -0.28352886 -0.29799736 0.039236557 -0.28576982 -0.42722312
00000000: c130 74be b6d7 28bf af04 94be 6120 dabe
00000010: 5b27 cabe f891 02bf 6c46 aebd 54f9 b53f
00000020: 468e 63be 9592 9ebe 2fd7 85be 50ed 8cbf
00000030: 15e8 bbbe e1da d6be 70d4 afbe d06e dcbe
00000040: 600e a1be 63eb 51bf 2eb6 9cbe f236 a5be
00000050: 0cd3 85be 206b 90be 4ae5 bcbe cd90 86be
00000060: 26f7 29be 5f8b c1bf b20f 57be f41a 52be
00000070: cf12 28bf ac9f bcbe 47cd 28bf d4ee 6ebe
00000080: aa69 413e c81f 9ebe a059 63be b652 6ebe
00000090: 1431 6abe 0416 5ebe ff75 8ebe e6ad 98be
000000a0: f545 8bbe 1157 46bf aa6f 02c0 0e18 21bf
000000b0: 93b3 b5be 83ba 92be 780c 85be 28e5 343e
000000c0: fcbc babe 85c0 49be 0e62 66be 7c02 95be
000000d0: 4bdd 98be 481e c8be e2f3 c0be f77c a4be
000000e0: fee5 26c0 27ff 9fbe 98f0 79be e23e bdbe
000000f0: b091 08bf 42cc 473f d27a 4b3f cfba 1740
00000100: d50d 9abe 03e6 b1be 1888 8dbe 2559 bcbe
00000110: 37b5 e6be ad67 1bbf eab1 9cbe 184e dcbd
00000120: 9db6 86be dfc9 b0be b5fd 55bf 31e6 65be
00000130: d5c7 c3be aa74 5bbe 727a d8bf 6c85 00bf
00000140: 90f7 8fbe ac79 96be 7ca8 a2be a7e2 cebe
00000150: 383f 8cbe b86d a0be 3773 92be 9187 d4be
00000160: dbab cebe ef17 c7be 2c18 b6be aa16 8fbe
00000170: 7474 a0be 2910 acbe 6af2 59be 6f59 8ebe
00000180: be59 a2be 76dc 65be 8a22 a8be 9f4c 7fbe
00000190: b725 5d40 da42 1fc0 9ba6 99be 9baf b43e
000001a0: 4607 90be dab6 86be 7af0 79be ba08 ccbe
000001b0: 3e70 b8be 783c 84be 6b51 b9be c208 e2be
000001c0: 1000 6cbe 930f 1ebf 8a86 9ebe 107b 7fbe
000001d0: 5013 16be 1bd7 3bbf 0479 86be 1151 b7be
000001e0: 18ab cdbe 65a1 88be 234d 41bf b22a 91be
000001f0: 1c93 98be 83b6 203d 6c50 92be fdbc dabe

fc3.weight f4 [1, 128]
-0.014296229 0.15248884 0.039324477 0.029563837 0.009088426 0.026140826 -0.0137727335 0.007506519
0.011075506 0.0006756408 0.013817248 -0.059414692 0.006173497 0.022191787 -0.0069866157 0.013247343
0.015320067 -0.029972598 0.029593943 -0.017618846 -0.020066025 -0.011229118 0.031334028 -0.0002737389
0.03225735 -0.055326704 0.0007954346 0.0047280192 -0.015331951 0.020397607 -0.034247722 -0.0047438336
-0.034947008 -0.028100247 0.030661646 -0.020653848 -0.008565567 0.010800958 0.021450642 -0.028958129
-0.030685645 0.034693062 -0.14066389 -0.017888045 -0.030601002 -0.008947842 -0.023800258 -0.052622065
0.08603624 0.03977647 -0.017891338 -0.030374328 -0.010324553 0.007322022 -0.0011002307 -0.023595054
-0.07666469 0.020637648 0.025346626 0.016399119 -0.1277444 0.040779848 -0.051631533 -0.013971963
-5.02369e-06 0.016278533 -0.0067658117 0.006452009 -0.02173294 -0.009369477 -0.013757947 0.04932847
0.01290786 0.016902186 0.012669616 -0.0109849535 0.06496147 0.019672168 -0.050315578 0.053445883
0.0013026635 0.0035047862 0.03038691 0.029423077 -0.0066437563 -0.0064676786 0.0227887 0.0046603745
-0.009031248 0.028889159 0.014123584 -0.017382232 0.014745247 -0.004694926 0.024551505 -0.028612781
0.004926544 -0.10164808 -0.07015107 -0.02364827 0.024540136 0.0659846 0.03309725 -0.031267308
0.005944799 -0.010745553 -0.05606413 -0.0061331415 0.0059691863 0.012180648 -0.024382105 -0.052122097
-0.005114415 0.011205348 -0.017480914 -0.0146243675 0.004923549 0.02358669 0.030471893 0.027621962
0.011947712 0.004361352 -0.013820067 -0.018119203 0.0006335413 -0.05253722 -0.016323091 0.016985388
00000000: bb3a 6abc 0926 1c3e b412 213d dc2f f23c
00000010: 9fe7 143c 4925 d63c 08a7 61bc 3ff9 f53b
00000020: 0a76 353c 7d1d 313a bd61 623c d25c 73bd
00000030: 0c4b ca3b 8dcb b53c fbef e4bb 620b 593c
00000040: 0501 7b3c 1889 f5bc ff6e f23c 6655 90bc
00000050: 8161 a4bc 56fa 37bc 1c58 003d 9d84 8fb9
00000060: 4820 043d 419e 62bd b684 503a 80ed 9a3b
00000070: dd32 7bbc e218 a73c 5747 0cbd 2972 9bbb
00000080: 9824 0fbd 7d32 e6bc 222e fb3c 4232 a9bc
00000090: 9856 0cbc 80f6 303c 42b9 af3c 9939 edbc
000000a0: 7660 fbbc 501a 0e3d 320a 10be f389 92bc
000000b0: f4ae fabc f899 12bc c2f8 c2bc 3c8a 57bd
000000c0: c533 b03d a7ec 223d db90 92bc 95d3 f8bc
000000d0: 5028 29bc 93ed ef3b 9e35 90ba 6a4a c1bc
000000e0: 6102 9dbd 4910 a93c baa3 cf3c 7257 863c
000000f0: 6ecf 02be c508 273d 967b 53bd a9ea 64bc
00000100: 2b91 a8b6 8f5a 853c beb3 ddbb 606b d33b
00000110: 4709 b2bc 6f82 19bc 0369 61bc a60c 4a3d
00000120: 7d7b 533c 7476 8a3c 3994 4f3c 3cfa 33bc
00000130: 850a 853d 8727 a13c b517 4ebd 12ea 5a3d
00000140: 22be aa3a 8eb0 653b f8ed f83c aa08 f13c
00000150: deb3 d9bb d2ee d3bb 5eaf ba3c 0eb6 983b
00000160: cdf7 13bc f5a8 ec3c 9b66 673c 2f65 8ebc
00000170: 0c96 713c e5d7 99bb 3d20 c93c 5a65 eabc
00000180: d96e a13b de2c d0bd 5dab 8fbd 04ba c1bc
00000190: 6508 c93c ef22 873d fb90 073d 2612 00bd
000001a0: 97cc c23b 1e0e 30bc 80a3 65bd 85f8 c8bb
000001b0: 2a99 c33b 5791 473c fbbc c7bc fb7d 55bd
000001c0: d396 a7bb a396 373c 2234 8fbc 0b9b 6fbc
000001d0: b955 a13b e038 c13c 31a0 f93c 7447 e23c
000001e0: 56c0 433c ace9 8e3b 906d 62bc b96e 94bc
000001f0: 3d14 263a 4531 57bd 01b8 85bc f124 8b3c
