checkpoint_critic0.pth (torch_old, 189850 bytes, 9 tensors)

bn.weight f4 [256]
0	0x3f41f425	0.7576316
1	0x3e8f01d6	0.27931088
2	0x3ece5f18	0.40306926
3	0x3f3c1448	0.73468447
4	0x3cefdfe0	0.029281557
5	0x3f4cc389	0.7998586
6	0x3ecb5596	0.39713734
7	0x3f411e85	0.75437194
8	0x3f11cb4f	0.5695085
9	0x3ee0a780	0.43877792
10	0x3f238090	0.63868046
11	0x3f065081	0.5246659
12	0x3f2ebfcc	0.6826141
13	0x3e9c3c8e	0.3051495
14	0x3eed55da	0.46354562
15	0x3ee8f3f8	0.45498633
16	0x3f128d86	0.572472
17	0x3efefa32	0.4980026
18	0x3f6fe4b2	0.93708336
19	0x3f27d514	0.65559506
20	0x3ea0a9fc	0.31379688
21	0x3e4ac594	0.19801933
22	0x3ed51724	0.41619217
23	0x3e9193a8	0.28432965
24	0x3eadf716	0.33977574
25	0x3f0620fc	0.5239408
26	0x3f4c4dea	0.7980639
27	0x3f45929c	0.77176833
28	0x3c37e740	0.011224568
29	0x3f4f598e	0.80996025
30	0x3f23c232	0.63968194
31	0x3f796a44	0.97427773
32	0x3f547cd7	0.8300299
33	0x3d35fd70	0.04443115
34	0x3cc97d20	0.024595797
35	0x3e8485e2	0.25883394
36	0x3f7065f7	0.93905586
37	0x3ed55bbc	0.4167155
38	0x3f36c760	0.7139797
39	0x3e8908ac	0.2676443
40	0x3f7d988d	0.990609
41	0x3e93afd2	0.28845078
42	0x3f5ffd89	0.8749624
43	0x3f018407	0.5059208
44	0x3e7244fc	0.23659128
45	0x3f41cb3d	0.7570074
46	0x3e703858	0.23458993
47	0x3f25a539	0.64705235
48	0x3eb61402	0.3556214
49	0x3ee3ef00	0.4451828
50	0x3c9e2780	0.019305944
51	0x3e85f1a2	0.26160914
52	0x3f457508	0.771317
53	0x3ec1c5b0	0.37846136
54	0x3f7f7e8d	0.99802476
55	0x3f669a73	0.9007942
56	0x3ef4035e	0.4765882
57	0x3e2a3fa8	0.16625845
58	0x3f4df279	0.8044811
59	0x3f27b9c8	0.65517855
60	0x3e350878	0.17679012
61	0x3f532447	0.8247723
62	0x3f4db583	0.8035509
63	0x3f7185c6	0.9434475
64	0x3e60fe54	0.21972018
65	0x3ed5dc62	0.417697
66	0x3efb0a72	0.49031407
67	0x3f12b203	0.57302874
68	0x3df6de20	0.12054086
69	0x3e14ac60	0.14518881
70	0x3f45a1f1	0.7720023
71	0x3ec3f856	0.38275403
72	0x3f3e864c	0.7442367
73	0x3f074c1a	0.52850497
74	0x3f2a0734	0.6641724
75	0x3f1c2550	0.60994434
76	0x3f2e8a6d	0.6817997
77	0x3f3f7373	0.74785537
78	0x3d175290	0.036943972
79	0x3f406dd2	0.7516757
80	0x3e18003c	0.1484384
81	0x3dfb6200	0.122745514
82	0x3f07c8c4	0.5304072
83	0x3ed46032	0.4147964
84	0x3f4b2d6f	0.793662
85	0x3e577b88	0.21043217
86	0x3d635d70	0.05550903
87	0x3f5d2787	0.8638844
88	0x3eda0a34	0.4258591
89	0x3f47fe99	0.7812286
90	0x3f292668	0.6607423
91	0x3e001058	0.12506235
92	0x3f19b709	0.60044914
93	0x3f1ebec3	0.6200983
94	0x3e292f9c	0.16522068
95	0x3e8688fc	0.26276386
96	0x3f2ba517	0.6704878
97	0x3f16ed7d	0.5895613
98	0x3e931ac8	0.2873137
99	0x3eb28136	0.34864205
100	0x3f753ba5	0.95794135
101	0x3ed0a272	0.40748936
102	0x3f482a53	0.7818958
103	0x3f376ca6	0.7165016
104	0x3e350a20	0.17679644
105	0x3d992900	0.07478523
106	0x3f7adda2	0.97994435
107	0x3f06af0a	0.5261084
108	0x3f57bd17	0.84272903
109	0x3f1a868f	0.6036157
110	0x3f292aef	0.66081136
111	0x3f5f9c57	0.8734793
112	0x3f795f19	0.9741073
113	0x3e2c3f1c	0.1682095
114	0x3f1000f3	0.5625145
115	0x3f5f855c	0.87312865
116	0x3f5cba4a	0.86221755
117	0x3f4f84be	0.81061924
118	0x3e0d74b8	0.13814056
119	0x3e0f4e80	0.13994789
120	0x3e4a5b60	0.1976142
121	0x3f101497	0.5628142
122	0x3f7f92b7	0.99833244
123	0x3e3c9504	0.1841622
124	0x3f443571	0.76644045
125	0x3e649d34	0.22325593
126	0x3cf4e060	0.029892147
127	0x3ec99700	0.39373016
128	0x3f49bff8	0.78808546
129	0x3f76d4fd	0.96418744
130	0x3e420734	0.1894806
131	0x3f1bc706	0.6085056
132	0x3f6e7234	0.9314301
133	0x3f54d1d5	0.8313268
134	0x3f4fc5c6	0.81161153
135	0x3f5af602	0.8553163
136	0x3f50f64c	0.8162582
137	0x3f210fdb	0.6291482
138	0x3e21e254	0.15808994
139	0x3da41658	0.08012074
140	0x3e8ab20e	0.2708897
141	0x3ee2309a	0.44177705
142	0x3e462b20	0.19352388
143	0x3f2ed44b	0.68292683
144	0x3f279d4c	0.6547439
145	0x3ec60856	0.38678235
146	0x3f313214	0.6921704
147	0x3f295e1e	0.66159236
148	0x3f4e2624	0.8052695
149	0x3f563367	0.83672184
150	0x3ea94e0e	0.33067364
151	0x3f7d0f2d	0.9885128
152	0x3ee26788	0.44219613
153	0x3ef73472	0.482822
154	0x3ce5de00	0.02805996
155	0x3e3677f0	0.1781919
156	0x3e54e348	0.20789826
157	0x3e9280c0	0.28613853
158	0x3f5b010d	0.8554848
159	0x3eac5814	0.33660948
160	0x3e01645c	0.1263594
161	0x3f313f7c	0.69237494
162	0x3f28fb51	0.6600848
163	0x3f52e787	0.8238453
164	0x3e770de4	0.24126393
165	0x3f1bc098	0.6084075
166	0x3ea2cd94	0.3179747
167	0x3ec67bb8	0.38766265
168	0x3dcff4a0	0.101540804
169	0x3e8b5340	0.27211952
170	0x3eb19918	0.34687114
171	0x3f36bcc1	0.71381766
172	0x3f17625e	0.5913447
173	0x3f1f9e3c	0.6235082
174	0x3f7fc1e9	0.9990526
175	0x3f7cc098	0.98731375
176	0x3f574d52	0.84102356
177	0x3f041373	0.5159218
178	0x3e1dcd84	0.15410429
179	0x3f640882	0.8907548
180	0x3ebffbd8	0.3749683
181	0x3eeb4db8	0.45957732
182	0x3d8dd338	0.069250524
183	0x3ecd6ec4	0.4012357
184	0x3e35c428	0.17750609
185	0x3f759eb6	0.959453
186	0x3d8abb00	0.06773949
187	0x3de1cf48	0.11025864
188	0x3ef74ea4	0.48302186
189	0x3e6b2758	0.22964227
190	0x3f2dccc6	0.67890584
191	0x3e9d7584	0.3075372
192	0x3e87c28e	0.2651562
193	0x3f073fe7	0.5283188
194	0x3f5ca8b0	0.86194897
195	0x3e17d8d8	0.14828813
196	0x3f3c1c0f	0.73480314
197	0x3f523b85	0.8212207
198	0x3f7d3591	0.9890986
199	0x3e19a2a8	0.15003455
200	0x3f1f0014	0.62109494
201	0x3e0569d8	0.13028657
202	0x3f6d47b0	0.9268751
203	0x3e9cb22c	0.30604684
204	0x3f4d19e5	0.80117637
205	0x3f03cf8d	0.5148857
206	0x3eec0fe2	0.46105868
207	0x3ef7d4e4	0.4840461
208	0x3f15c261	0.58499724
209	0x3f3c56b5	0.73569804
210	0x3f148754	0.58018994
211	0x3f270c0a	0.65252745
212	0x3d4dc600	0.050237656
213	0x3f5d40b7	0.8642687
214	0x3f6f993d	0.935932
215	0x3f69ce38	0.9133029
216	0x3f5e9ed9	0.8696113
217	0x3e0e8654	0.1391843
218	0x3ea119ce	0.31465
219	0x3f70dc60	0.94086266
220	0x3df40fc8	0.119170725
221	0x3f741fd3	0.9536106
222	0x3ddaa0c8	0.10675198
223	0x3e1757c4	0.14779574
224	0x3f3e938e	0.744439
225	0x3e102234	0.14075547
226	0x3ec559a8	0.38544965
227	0x3f5d1e74	0.8637459
228	0x3f65632b	0.89604443
229	0x3f790e86	0.97287786
230	0x3ecc0d9a	0.39854127
231	0x3de415c0	0.11136961
232	0x3f7e07bb	0.99230546
233	0x3ec9771e	0.39348692
234	0x3e96ac30	0.29428244
235	0x3f1f33fb	0.6218869
236	0x3e19f224	0.15033776
237	0x3f5421c2	0.8286401
238	0x3f5038c7	0.81336635
239	0x3dd379a8	0.103259385
240	0x3db6ea28	0.089313805
241	0x3ee99348	0.4562018
242	0x3f35c365	0.71001273
243	0x3ef895f0	0.48551893
244	0x3e7c6054	0.24646121
245	0x3f02ed28	0.5114312
246	0x3cf609a0	0.030033886
247	0x3e16236c	0.1466195
248	0x3e2b2ac4	0.16715533
249	0x3f696971	0.91176516
250	0x3f70d52f	0.9407529
251	0x3ea90b9a	0.33016664
252	0x3f05bda8	0.5224252
253	0x3f3915ce	0.72298896
254	0x3f0f562d	0.5599087
255	0x3e7f9d5c	0.24962372

bn.bias f4 [256]
0	0x00000000	0.0
1	0x00000000	0.0
2	0x00000000	0.0
3	0x00000000	0.0
4	0x00000000	0.0
5	0x00000000	0.0
6	0x00000000	0.0
7	0x00000000	0.0
8	0x00000000	0.0
9	0x00000000	0.0
10	0x00000000	0.0
11	0x00000000	0.0
12	0x00000000	0.0
13	0x00000000	0.0
14	0x00000000	0.0
15	0x00000000	0.0
16	0x00000000	0.0
17	0x00000000	0.0
18	0x00000000	0.0
19	0x00000000	0.0
20	0x00000000	0.0
21	0x00000000	0.0
22	0x00000000	0.0
23	0x00000000	0.0
24	0x00000000	0.0
25	0x00000000	0.0
26	0x00000000	0.0
27	0x00000000	0.0
28	0x00000000	0.0
29	0x00000000	0.0
30	0x00000000	0.0
31	0x00000000	0.0
32	0x00000000	0.0
33	0x00000000	0.0
34	0x00000000	0.0
35	0x00000000	0.0
36	0x00000000	0.0
37	0x00000000	0.0
38	0x00000000	0.0
39	0x00000000	0.0
40	0x00000000	0.0
41	0x00000000	0.0
42	0x00000000	0.0
43	0x00000000	0.0
44	0x00000000	0.0
45	0x00000000	0.0
46	0x00000000	0.0
47	0x00000000	0.0
48	0x00000000	0.0
49	0x00000000	0.0
50	0x00000000	0.0
51	0x00000000	0.0
52	0x00000000	0.0
53	0x00000000	0.0
54	0x00000000	0.0
55	0x00000000	0.0
56	0x00000000	0.0
57	0x00000000	0.0
58	0x00000000	0.0
59	0x00000000	0.0
60	0x00000000	0.0
61	0x00000000	0.0
62	0x00000000	0.0
63	0x00000000	0.0
64	0x00000000	0.0
65	0x00000000	0.0
66	0x00000000	0.0
67	0x00000000	0.0
68	0x00000000	0.0
69	0x00000000	0.0
70	0x00000000	0.0
71	0x00000000	0.0
72	0x00000000	0.0
73	0x00000000	0.0
74	0x00000000	0.0
75	0x00000000	0.0
76	0x00000000	0.0
77	0x00000000	0.0
78	0x00000000	0.0
79	0x00000000	0.0
80	0x00000000	0.0
81	0x00000000	0.0
82	0x00000000	0.0
83	0x00000000	0.0
84	0x00000000	0.0
85	0x00000000	0.0
86	0x00000000	0.0
87	0x00000000	0.0
88	0x00000000	0.0
89	0x00000000	0.0
90	0x00000000	0.0
91	0x00000000	0.0
92	0x00000000	0.0
93	0x00000000	0.0
94	0x00000000	0.0
95	0x00000000	0.0
96	0x00000000	0.0
97	0x00000000	0.0
98	0x00000000	0.0
99	0x00000000	0.0
100	0x00000000	0.0
101	0x00000000	0.0
102	0x00000000	0.0
103	0x00000000	0.0
104	0x00000000	0.0
105	0x00000000	0.0
106	0x00000000	0.0
107	0x00000000	0.0
108	0x00000000	0.0
109	0x00000000	0.0
110	0x00000000	0.0
111	0x00000000	0.0
112	0x00000000	0.0
113	0x00000000	0.0
114	0x00000000	0.0
115	0x00000000	0.0
116	0x00000000	0.0
117	0x00000000	0.0
118	0x00000000	0.0
119	0x00000000	0.0
120	0x00000000	0.0
121	0x00000000	0.0
122	0x00000000	0.0
123	0x00000000	0.0
124	0x00000000	0.0
125	0x00000000	0.0
126	0x00000000	0.0
127	0x00000000	0.0
128	0x00000000	0.0
129	0x00000000	0.0
130	0x00000000	0.0
131	0x00000000	0.0
132	0x00000000	0.0
133	0x00000000	0.0
134	0x00000000	0.0
135	0x00000000	0.0
136	0x00000000	0.0
137	0x00000000	0.0
138	0x00000000	0.0
139	0x00000000	0.0
140	0x00000000	0.0
141	0x00000000	0.0
142	0x00000000	0.0
143	0x00000000	0.0
144	0x00000000	0.0
145	0x00000000	0.0
146	0x00000000	0.0
147	0x00000000	0.0
148	0x00000000	0.0
149	0x00000000	0.0
150	0x00000000	0.0
151	0x00000000	0.0
152	0x00000000	0.0
153	0x00000000	0.0
154	0x00000000	0.0
155	0x00000000	0.0
156	0x00000000	0.0
157	0x00000000	0.0
158	0x00000000	0.0
159	0x00000000	0.0
160	0x00000000	0.0
161	0x00000000	0.0
162	0x00000000	0.0
163	0x00000000	0.0
164	0x00000000	0.0
165	0x00000000	0.0
166	0x00000000	0.0
167	0x00000000	0.0
168	0x00000000	0.0
169	0x00000000	0.0
170	0x00000000	0.0
171	0x00000000	0.0
172	0x00000000	0.0
173	0x00000000	0.0
174	0x00000000	0.0
175	0x00000000	0.0
176	0x00000000	0.0
177	0x00000000	0.0
178	0x00000000	0.0
179	0x00000000	0.0
180	0x00000000	0.0
181	0x00000000	0.0
182	0x00000000	0.0
183	0x00000000	0.0
184	0x00000000	0.0
185	0x00000000	0.0
186	0x00000000	0.0
187	0x00000000	0.0
188	0x00000000	0.0
189	0x00000000	0.0
190	0x00000000	0.0
191	0x00000000	0.0
192	0x00000000	0.0
193	0x00000000	0.0
194	0x00000000	0.0
195	0x00000000	0.0
196	0x00000000	0.0
197	0x00000000	0.0
198	0x00000000	0.0
199	0x00000000	0.0
200	0x00000000	0.0
201	0x00000000	0.0
202	0x00000000	0.0
203	0x00000000	0.0
204	0x00000000	0.0
205	0x00000000	0.0
206	0x00000000	0.0
207	0x00000000	0.0
208	0x00000000	0.0
209	0x00000000	0.0
210	0x00000000	0.0
211	0x00000000	0.0
212	0x00000000	0.0
213	0x00000000	0.0
214	0x00000000	0.0
215	0x00000000	0.0
216	0x00000000	0.0
217	0x00000000	0.0
218	0x00000000	0.0
219	0x00000000	0.0
220	0x00000000	0.0
221	0x00000000	0.0
222	0x00000000	0.0
223	0x00000000	0.0
224	0x00000000	0.0
225	0x00000000	0.0
226	0x00000000	0.0
227	0x00000000	0.0
228	0x00000000	0.0
229	0x00000000	0.0
230	0x00000000	0.0
231	0x00000000	0.0
232	0x00000000	0.0
233	0x00000000	0.0
234	0x00000000	0.0
235	0x00000000	0.0
236	0x00000000	0.0
237	0x00000000	0.0
238	0x00000000	0.0
239	0x00000000	0.0
240	0x00000000	0.0
241	0x00000000	0.0
242	0x00000000	0.0
243	0x00000000	0.0
244	0x00000000	0.0
245	0x00000000	0.0
246	0x00000000	0.0
247	0x00000000	0.0
248	0x00000000	0.0
249	0x00000000	0.0
250	0x00000000	0.0
251	0x00000000	0.0
252	0x00000000	0.0
253	0x00000000	0.0
254	0x00000000	0.0
255	0x00000000	0.0

bn.running_mean f4 [256]
0	0x00000000	0.0
1	0x00000000	0.0
2	0x00000000	0.0
3	0x00000000	0.0
4	0x00000000	0.0
5	0x00000000	0.0
6	0x00000000	0.0
7	0x00000000	0.0
8	0x00000000	0.0
9	0x00000000	0.0
10	0x00000000	0.0
11	0x00000000	0.0
12	0x00000000	0.0
13	0x00000000	0.0
14	0x00000000	0.0
15	0x00000000	0.0
16	0x00000000	0.0
17	0x00000000	0.0
18	0x00000000	0.0
19	0x00000000	0.0
20	0x00000000	0.0
21	0x00000000	0.0
22	0x00000000	0.0
23	0x00000000	0.0
24	0x00000000	0.0
25	0x00000000	0.0
26	0x00000000	0.0
27	0x00000000	0.0
28	0x00000000	0.0
29	0x00000000	0.0
30	0x00000000	0.0
31	0x00000000	0.0
32	0x00000000	0.0
33	0x00000000	0.0
34	0x00000000	0.0
35	0x00000000	0.0
36	0x00000000	0.0
37	0x00000000	0.0
38	0x00000000	0.0
39	0x00000000	0.0
40	0x00000000	0.0
41	0x00000000	0.0
42	0x00000000	0.0
43	0x00000000	0.0
44	0x00000000	0.0
45	0x00000000	0.0
46	0x00000000	0.0
47	0x00000000	0.0
48	0x00000000	0.0
49	0x00000000	0.0
50	0x00000000	0.0
51	0x00000000	0.0
52	0x00000000	0.0
53	0x00000000	0.0
54	0x00000000	0.0
55	0x00000000	0.0
56	0x00000000	0.0
57	0x00000000	0.0
58	0x00000000	0.0
59	0x00000000	0.0
60	0x00000000	0.0
61	0x00000000	0.0
62	0x00000000	0.0
63	0x00000000	0.0
64	0x00000000	0.0
65	0x00000000	0.0
66	0x00000000	0.0
67	0x00000000	0.0
68	0x00000000	0.0
69	0x00000000	0.0
70	0x00000000	0.0
71	0x00000000	0.0
72	0x00000000	0.0
73	0x00000000	0.0
74	0x00000000	0.0
75	0x00000000	0.0
76	0x00000000	0.0
77	0x00000000	0.0
78	0x00000000	0.0
79	0x00000000	0.0
80	0x00000000	0.0
81	0x00000000	0.0
82	0x00000000	0.0
83	0x00000000	0.0
84	0x00000000	0.0
85	0x00000000	0.0
86	0x00000000	0.0
87	0x00000000	0.0
88	0x00000000	0.0
89	0x00000000	0.0
90	0x00000000	0.0
91	0x00000000	0.0
92	0x00000000	0.0
93	0x00000000	0.0
94	0x00000000	0.0
95	0x00000000	0.0
96	0x00000000	0.0
97	0x00000000	0.0
98	0x00000000	0.0
99	0x00000000	0.0
100	0x00000000	0.0
101	0x00000000	0.0
102	0x00000000	0.0
103	0x00000000	0.0
104	0x00000000	0.0
105	0x00000000	0.0
106	0x00000000	0.0
107	0x00000000	0.0
108	0x00000000	0.0
109	0x00000000	0.0
110	0x00000000	0.0
111	0x00000000	0.0
112	0x00000000	0.0
113	0x00000000	0.0
114	0x00000000	0.0
115	0x00000000	0.0
116	0x00000000	0.0
117	0x00000000	0.0
118	0x00000000	0.0
119	0x00000000	0.0
120	0x00000000	0.0
121	0x00000000	0.0
122	0x00000000	0.0
123	0x00000000	0.0
124	0x00000000	0.0
125	0x00000000	0.0
126	0x00000000	0.0
127	0x00000000	0.0
128	0x00000000	0.0
129	0x00000000	0.0
130	0x00000000	0.0
131	0x00000000	0.0
132	0x00000000	0.0
133	0x00000000	0.0
134	0x00000000	0.0
135	0x00000000	0.0
136	0x00000000	0.0
137	0x00000000	0.0
138	0x00000000	0.0
139	0x00000000	0.0
140	0x00000000	0.0
141	0x00000000	0.0
142	0x00000000	0.0
143	0x00000000	0.0
144	0x00000000	0.0
145	0x00000000	0.0
146	0x00000000	0.0
147	0x00000000	0.0
148	0x00000000	0.0
149	0x00000000	0.0
150	0x00000000	0.0
151	0x00000000	0.0
152	0x00000000	0.0
153	0x00000000	0.0
154	0x00000000	0.0
155	0x00000000	0.0
156	0x00000000	0.0
157	0x00000000	0.0
158	0x00000000	0.0
159	0x00000000	0.0
160	0x00000000	0.0
161	0x00000000	0.0
162	0x00000000	0.0
163	0x00000000	0.0
164	0x00000000	0.0
165	0x00000000	0.0
166	0x00000000	0.0
167	0x00000000	0.0
168	0x00000000	0.0
169	0x00000000	0.0
170	0x00000000	0.0
171	0x00000000	0.0
172	0x00000000	0.0
173	0x00000000	0.0
174	0x00000000	0.0
175	0x00000000	0.0
176	0x00000000	0.0
177	0x00000000	0.0
178	0x00000000	0.0
179	0x00000000	0.0
180	0x00000000	0.0
181	0x00000000	0.0
182	0x00000000	0.0
183	0x00000000	0.0
184	0x00000000	0.0
185	0x00000000	0.0
186	0x00000000	0.0
187	0x00000000	0.0
188	0x00000000	0.0
189	0x00000000	0.0
190	0x00000000	0.0
191	0x00000000	0.0
192	0x00000000	0.0
193	0x00000000	0.0
194	0x00000000	0.0
195	0x00000000	0.0
196	0x00000000	0.0
197	0x00000000	0.0
198	0x00000000	0.0
199	0x00000000	0.0
200	0x00000000	0.0
201	0x00000000	0.0
202	0x00000000	0.0
203	0x00000000	0.0
204	0x00000000	0.0
205	0x00000000	0.0
206	0x00000000	0.0
207	0x00000000	0.0
208	0x00000000	0.0
209	0x00000000	0.0
210	0x00000000	0.0
211	0x00000000	0.0
212	0x00000000	0.0
213	0x00000000	0.0
214	0x00000000	0.0
215	0x00000000	0.0
216	0x00000000	0.0
217	0x00000000	0.0
218	0x00000000	0.0
219	0x00000000	0.0
220	0x00000000	0.0
221	0x00000000	0.0
222	0x00000000	0.0
223	0x00000000	0.0
224	0x00000000	0.0
225	0x00000000	0.0
226	0x00000000	0.0
227	0x00000000	0.0
228	0x00000000	0.0
229	0x00000000	0.0
230	0x00000000	0.0
231	0x00000000	0.0
232	0x00000000	0.0
233	0x00000000	0.0
234	0x00000000	0.0
235	0x00000000	0.0
236	0x00000000	0.0
237	0x00000000	0.0
238	0x00000000	0.0
239	0x00000000	0.0
240	0x00000000	0.0
241	0x00000000	0.0
242	0x00000000	0.0
243	0x00000000	0.0
244	0x00000000	0.0
245	0x00000000	0.0
246	0x00000000	0.0
247	0x00000000	0.0
248	0x00000000	0.0
249	0x00000000	0.0
250	0x00000000	0.0
251	0x00000000	0.0
252	0x00000000	0.0
253	0x00000000	0.0
254	0x00000000	0.0
255	0x00000000	0.0

bn.running_var f4 [256]
0	0x3f800000	1.0
1	0x3f800000	1.0
2	0x3f800000	1.0
3	0x3f800000	1.0
4	0x3f800000	1.0
5	0x3f800000	1.0
6	0x3f800000	1.0
7	0x3f800000	1.0
8	0x3f800000	1.0
9	0x3f800000	1.0
10	0x3f800000	1.0
11	0x3f800000	1.0
12	0x3f800000	1.0
13	0x3f800000	1.0
14	0x3f800000	1.0
15	0x3f800000	1.0
16	0x3f800000	1.0
17	0x3f800000	1.0
18	0x3f800000	1.0
19	0x3f800000	1.0
20	0x3f800000	1.0
21	0x3f800000	1.0
22	0x3f800000	1.0
23	0x3f800000	1.0
24	0x3f800000	1.0
25	0x3f800000	1.0
26	0x3f800000	1.0
27	0x3f800000	1.0
28	0x3f800000	1.0
29	0x3f800000	1.0
30	0x3f800000	1.0
31	0x3f800000	1.0
32	0x3f800000	1.0
33	0x3f800000	1.0
34	0x3f800000	1.0
35	0x3f800000	1.0
36	0x3f800000	1.0
37	0x3f800000	1.0
38	0x3f800000	1.0
39	0x3f800000	1.0
40	0x3f800000	1.0
41	0x3f800000	1.0
42	0x3f800000	1.0
43	0x3f800000	1.0
44	0x3f800000	1.0
45	0x3f800000	1.0
46	0x3f800000	1.0
47	0x3f800000	1.0
48	0x3f800000	1.0
49	0x3f800000	1.0
50	0x3f800000	1.0
51	0x3f800000	1.0
52	0x3f800000	1.0
53	0x3f800000	1.0
54	0x3f800000	1.0
55	0x3f800000	1.0
56	0x3f800000	1.0
57	0x3f800000	1.0
58	0x3f800000	1.0
59	0x3f800000	1.0
60	0x3f800000	1.0
61	0x3f800000	1.0
62	0x3f800000	1.0
63	0x3f800000	1.0
64	0x3f800000	1.0
65	0x3f800000	1.0
66	0x3f800000	1.0
67	0x3f800000	1.0
68	0x3f800000	1.0
69	0x3f800000	1.0
70	0x3f800000	1.0
71	0x3f800000	1.0
72	0x3f800000	1.0
73	0x3f800000	1.0
74	0x3f800000	1.0
75	0x3f800000	1.0
76	0x3f800000	1.0
77	0x3f800000	1.0
78	0x3f800000	1.0
79	0x3f800000	1.0
80	0x3f800000	1.0
81	0x3f800000	1.0
82	0x3f800000	1.0
83	0x3f800000	1.0
84	0x3f800000	1.0
85	0x3f800000	1.0
86	0x3f800000	1.0
87	0x3f800000	1.0
88	0x3f800000	1.0
89	0x3f800000	1.0
90	0x3f800000	1.0
91	0x3f800000	1.0
92	0x3f800000	1.0
93	0x3f800000	1.0
94	0x3f800000	1.0
95	0x3f800000	1.0
96	0x3f800000	1.0
97	0x3f800000	1.0
98	0x3f800000	1.0
99	0x3f800000	1.0
100	0x3f800000	1.0
101	0x3f800000	1.0
102	0x3f800000	1.0
103	0x3f800000	1.0
104	0x3f800000	1.0
105	0x3f800000	1.0
106	0x3f800000	1.0
107	0x3f800000	1.0
108	0x3f800000	1.0
109	0x3f800000	1.0
110	0x3f800000	1.0
111	0x3f800000	1.0
112	0x3f800000	1.0
113	0x3f800000	1.0
114	0x3f800000	1.0
115	0x3f800000	1.0
116	0x3f800000	1.0
117	0x3f800000	1.0
118	0x3f800000	1.0
119	0x3f800000	1.0
120	0x3f800000	1.0
121	0x3f800000	1.0
122	0x3f800000	1.0
123	0x3f800000	1.0
124	0x3f800000	1.0
125	0x3f800000	1.0
126	0x3f800000	1.0
127	0x3f800000	1.0
128	0x3f800000	1.0
129	0x3f800000	1.0
130	0x3f800000	1.0
131	0x3f800000	1.0
132	0x3f800000	1.0
133	0x3f800000	1.0
134	0x3f800000	1.0
135	0x3f800000	1.0
136	0x3f800000	1.0
137	0x3f800000	1.0
138	0x3f800000	1.0
139	0x3f800000	1.0
140	0x3f800000	1.0
141	0x3f800000	1.0
142	0x3f800000	1.0
143	0x3f800000	1.0
144	0x3f800000	1.0
145	0x3f800000	1.0
146	0x3f800000	1.0
147	0x3f800000	1.0
148	0x3f800000	1.0
149	0x3f800000	1.0
150	0x3f800000	1.0
151	0x3f800000	1.0
152	0x3f800000	1.0
153	0x3f800000	1.0
154	0x3f800000	1.0
155	0x3f800000	1.0
156	0x3f800000	1.0
157	0x3f800000	1.0
158	0x3f800000	1.0
159	0x3f800000	1.0
160	0x3f800000	1.0
161	0x3f800000	1.0
162	0x3f800000	1.0
163	0x3f800000	1.0
164	0x3f800000	1.0
165	0x3f800000	1.0
166	0x3f800000	1.0
167	0x3f800000	1.0
168	0x3f800000	1.0
169	0x3f800000	1.0
170	0x3f800000	1.0
171	0x3f800000	1.0
172	0x3f800000	1.0
173	0x3f800000	1.0
174	0x3f800000	1.0
175	0x3f800000	1.0
176	0x3f800000	1.0
177	0x3f800000	1.0
178	0x3f800000	1.0
179	0x3f800000	1.0
180	0x3f800000	1.0
181	0x3f800000	1.0
182	0x3f800000	1.0
183	0x3f800000	1.0
184	0x3f800000	1.0
185	0x3f800000	1.0
186	0x3f800000	1.0
187	0x3f800000	1.0
188	0x3f800000	1.0
189	0x3f800000	1.0
190	0x3f800000	1.0
191	0x3f800000	1.0
192	0x3f800000	1.0
193	0x3f800000	1.0
194	0x3f800000	1.0
195	0x3f800000	1.0
196	0x3f800000	1.0
197	0x3f800000	1.0
198	0x3f800000	1.0
199	0x3f800000	1.0
200	0x3f800000	1.0
201	0x3f800000	1.0
202	0x3f800000	1.0
203	0x3f800000	1.0
204	0x3f800000	1.0
205	0x3f800000	1.0
206	0x3f800000	1.0
207	0x3f800000	1.0
208	0x3f800000	1.0
209	0x3f800000	1.0
210	0x3f800000	1.0
211	0x3f800000	1.0
212	0x3f800000	1.0
213	0x3f800000	1.0
214	0x3f800000	1.0
215	0x3f800000	1.0
216	0x3f800000	1.0
217	0x3f800000	1.0
218	0x3f800000	1.0
219	0x3f800000	1.0
220	0x3f800000	1.0
221	0x3f800000	1.0
222	0x3f800000	1.0
223	0x3f800000	1.0
224	0x3f800000	1.0
225	0x3f800000	1.0
226	0x3f800000	1.0
227	0x3f800000	1.0
228	0x3f800000	1.0
229	0x3f800000	1.0
230	0x3f800000	1.0
231	0x3f800000	1.0
232	0x3f800000	1.0
233	0x3f800000	1.0
234	0x3f800000	1.0
235	0x3f800000	1.0
236	0x3f800000	1.0
237	0x3f800000	1.0
238	0x3f800000	1.0
239	0x3f800000	1.0
240	0x3f800000	1.0
241	0x3f800000	1.0
242	0x3f800000	1.0
243	0x3f800000	1.0
244	0x3f800000	1.0
245	0x3f800000	1.0
246	0x3f800000	1.0
247	0x3f800000	1.0
248	0x3f800000	1.0
249	0x3f800000	1.0
250	0x3f800000	1.0
251	0x3f800000	1.0
252	0x3f800000	1.0
253	0x3f800000	1.0
254	0x3f800000	1.0
255	0x3f800000	1.0

fcs1.weight f4 [256, 48]
0	0xbd2ba520	-0.041905522
1	0x3ed40cc7	0.41415998
2	0xb93097b7	-0.00016841186
3	0xbe310cef	-0.1729009
4	0xbed204f1	-0.41019395
5	0x3e2c5a3a	0.16831294
6	0xbdaabfd7	-0.08337372
7	0xbe59b2a4	-0.21259552
8	0x3da0b442	0.078468814
9	0x3f32bec1	0.6982232
10	0x3ce7cef1	0.02829692
11	0x3e8962c2	0.2683316
12	0xbcd9a37d	-0.026567215
13	0xbf3b361c	-0.7312944
14	0xbd93464c	-0.071911424
15	0x3e863240	0.26210213
16	0x3daefb23	0.08543994
17	0x3f6ce21f	0.92532533
18	0x3da056b5	0.07829038
19	0xbdd9f381	-0.10642148
20	0x3f146b62	0.57976353
21	0xbff81b1a	-1.9383271
22	0xbcfbf2ad	-0.030755365
23	0xbd95b0f3	-0.07309141
24	0x4030aeb3	2.7606628
25	0x3effd42a	0.49966556
26	0xbe5097d9	-0.20370425
27	0x3e45604b	0.19275014
28	0x3ebec9e1	0.37263396
29	0x3e599205	0.21247108
30	0xbe4b6d45	-0.19865902
31	0x3e6e936b	0.23298423
32	0x3fd0eb6e	1.6321847
33	0x3f3c1bb3	0.73479766
34	0xbe36745b	-0.17817824
35	0x3e92bbd3	0.28658924
36	0x3ca828b8	0.020527229
37	0xbf24f528	-0.6443658
38	0xbd70de76	-0.058805905
39	0x3ebea5ae	0.3723578
40	0x4006fbbc	2.1091146
41	0x3f4044bb	0.75104874
42	0xbe3060da	-0.17224446
43	0xbeb1044e	-0.34573597
44	0xbf04ddc2	-0.51900876
45	0xbffe51a1	-1.9868661
46	0xbdcd996c	-0.100390285
47	0xbedd4b94	-0.43221724
48	0x3ed626be	0.41826433
49	0x3ec35602	0.38151556
50	0xbdaa8e29	-0.08327896
51	0xbeab331e	-0.33437437
52	0x3db37270	0.087620616
53	0xbea6275a	-0.32451898
54	0xbd7d81a3	-0.06189121
55	0xbea83ed8	-0.32860446
56	0x3f1ad7ef	0.6048574
57	0x3e772477	0.24135004
58	0xbd299f5b	-0.04141174
59	0xbcaa37cc	-0.02077856
60	0x3e2e5649	0.17025103
61	0xbe4c5ad2	-0.1995652
62	0xbd9e4206	-0.07727437
63	0xbc8defb3	-0.017326212
64	0x3f3bbf4c	0.7333877
65	0x3e5e55ab	0.21712367
66	0xbd7f399c	-0.0623108
67	0xbc806e81	-0.015677692
68	0x3dea6366	0.1144474
69	0xbdcc8d3a	-0.09987874
70	0xbd5532cb	-0.052050393
71	0x3d4936b7	0.049124446
72	0x3e06cbab	0.1316363
73	0xbda241bc	-0.07922694
74	0xbc1acd60	-0.009448379
75	0x3df4ca7a	0.11952682
76	0xbe143ba7	-0.1447588
77	0xbeab1678	-0.3341558
78	0xbd95842a	-0.07300599
79	0x3e1d5aa2	0.15366605
80	0x3e6301d0	0.2216866
81	0xbc0dff72	-0.00866686
82	0xbca0ee42	-0.01964486
83	0x3ebce512	0.36893517
84	0xbe044be1	-0.1291957
85	0xbe823704	-0.254326
86	0xbd459356	-0.048236214
87	0x3eb4acd2	0.352881
88	0x3e9b7ca1	0.30368522
89	0x3d3db8b4	0.046318725
90	0xbd5607ab	-0.052253406
91	0x3ec27596	0.37980336
92	0xbda7eede	-0.08199857
93	0xbde98842	-0.11402942
94	0x3c90f1ce	0.017693426
95	0x3eb5c9fc	0.35505664
96	0x3ec7feec	0.39061677
97	0x3dec1ad2	0.11528553
98	0xbd349a22	-0.044092305
99	0x3c81488c	0.015781663
100	0x3d814355	0.06311671
101	0xbf004e87	-0.50119823
102	0xbc9b46de	-0.01895469
103	0x3d6cd026	0.057815693
104	0x3eb73973	0.35786018
105	0x3dceb494	0.10093036
106	0xbd2a95cb	-0.04164676
107	0xbd59cfc4	-0.053176656
108	0xbd68ff4e	-0.056884103
109	0xbe8245fc	-0.2544402
110	0x3c214c7b	0.0098448945
111	0xbdb9df87	-0.090758376
112	0x3e9e5415	0.30923524
113	0x3e0b5d3b	0.13609783
114	0xbd19e9a1	-0.03757632
115	0xb9244a98	-0.00015668047
116	0x3da31992	0.079638615
117	0xbd8b476c	-0.06800732
118	0xbc91dcc0	-0.017805457
119	0xbad2a163	-0.0016069826
120	0x3e69703d	0.22796722
121	0x3e900da8	0.2813542
122	0xbdb28ba5	-0.08718041
123	0xbd7c1b13	-0.061549257
124	0x3d02887c	0.031868443
125	0xbed65bb5	-0.41866842
126	0xbdb0d71d	-0.086347796
127	0xbdae3011	-0.08505262
128	0x3e98a889	0.29816082
129	0x3e8c3310	0.27382708
130	0xbce563da	-0.028001714
131	0xbc669d7f	-0.014075636
132	0xbd6fea38	-0.058572978
133	0xbe73a173	-0.23792057
134	0xbd4ad795	-0.049522
135	0x3c04dc8e	0.008109225
136	0x3eafe4ac	0.3435415
137	0x3eaa910e	0.33313793
138	0xbd880711	-0.06641973
139	0xbe0381d4	-0.12842494
140	0x3ce0e3ad	0.027452314
141	0xbd948cb6	-0.07253401
142	0xbcd91989	-0.026501434
143	0xbdaa5d2e	-0.08318554
144	0x3ebe73b5	0.37197652
145	0xbcd0a253	-0.025468027
146	0xbdbc5b3c	-0.09197089
147	0xbd294025	-0.04132094
148	0x3dc4a022	0.096008554
149	0xbdc73d87	-0.09728532
150	0xbd98dd34	-0.07464066
151	0xbd9024a0	-0.07038236
152	0x3f12bcaf	0.5731916
153	0x3d588ebf	0.05287051
154	0x3c44ecba	0.012019331
155	0xbdbde51f	-0.09272217
156	0x3dcb0b56	0.099142715
157	0xbdf55836	-0.119797155
158	0xbdb7d7b7	-0.08976691
159	0xbcc83b6f	-0.024442403
160	0x3f20bf15	0.6279157
161	0x3d5a876a	0.053351797
162	0xbd54df98	-0.051971048
163	0xbdf7fa40	-0.12108278
164	0x3eaedea3	0.34154233
165	0xbcbd4273	-0.023102975
166	0xbcbb4ee4	-0.022864766
167	0xbd8adc35	-0.067802824
168	0x3f13c95f	0.5772914
169	0x3ec57ccf	0.38571784
170	0xbd04cd36	-0.032422267
171	0x3d791d07	0.0608187
172	0xbe0fb225	-0.140328
173	0xbe330b55	-0.17484792
174	0xbd798f6b	-0.06092779
175	0x3d403715	0.04692753
176	0x3f24962b	0.6429164
177	0x3eff4ab3	0.49861678
178	0xbbc59bad	-0.006030521
179	0xbd991bf1	-0.074760325
180	0xbd8a0155	-0.06738535
181	0xbe0c425d	-0.1369719
182	0xbd4f3f35	-0.05059739
183	0xbc76169e	-0.015020041
184	0x3f2f5480	0.6848831
185	0x3efcf4fc	0.49405658
186	0xbd200fc0	-0.03907752
187	0xbd697322	-0.056994565
188	0xbebee98f	-0.37287566
189	0xbcd59ed7	-0.026076717
190	0x3da24f74	0.07925311
191	0x3cf233e1	0.029565753
192	0x3e51f78e	0.20504591
193	0xbd38f7e5	-0.045158286
194	0xbd1098a1	-0.03530181
195	0x3d7f8181	0.062379364
196	0xbbbf6d57	-0.0058418917
197	0xbe5a4edb	-0.21319143
198	0xbcdf96cc	-0.027293585
199	0x3df172c4	0.11789468
200	0x3e2f74bb	0.17134373
201	0xbd2eaac2	-0.042643316
202	0x3cc0e7d2	0.02354804
203	0xbd239764	-0.0399393
204	0xbd11de63	-0.035612475
205	0xbdbea200	-0.09308243
206	0xbcfef9a3	-0.031124895
207	0xbd516a74	-0.051126912
208	0x3e8b4838	0.27203536
209	0xbd6d7e43	-0.05798174
210	0x3ada3813	0.0016648791
211	0xbd044146	-0.032288812
212	0x3cf5599d	0.029949958
213	0xbc721b64	-0.014777038
214	0xbc56b951	-0.013105706
215	0xbd4b68c3	-0.049660455
216	0x3e7149b8	0.23563278
217	0x3e65a418	0.22425878
218	0xbc10d0cf	-0.008838846
219	0x3d5b19b6	0.053491317
220	0x3d916315	0.070989765
221	0xbe03902b	-0.12847964
222	0xbd88d4a9	-0.06681187
223	0x3d2075e3	0.039174926
224	0x3e7a5414	0.24446136
225	0x3e62f262	0.22162774
226	0xbc9ff1a6	-0.019524407
227	0xbcb937a5	-0.022609541
228	0xbd605229	-0.054765854
229	0xbe348664	-0.17629391
230	0xbc1aee68	-0.009456255
231	0x3d4dc126	0.05023303
232	0x3e164950	0.14676404
233	0x3e7d55e8	0.24739802
234	0xbcec8ea3	-0.028876608
235	0x3d0e6601	0.034765247
236	0xbde0f115	-0.10983483
237	0xbd9d0b07	-0.07668119
238	0xbb3a5fd9	-0.0028438477
239	0x3d1b10dd	0.03785788
240	0x3e98ae61	0.2982054
241	0x3e80e93c	0.25177944
242	0xbd847183	-0.06466963
243	0xbeb3f2a4	-0.35146058
244	0xbd91e434	-0.071236044
245	0xbec1a3da	-0.3782032
246	0xbd6ccf63	-0.057814967
247	0xbe8d267c	-0.27568424
248	0x3eaebac3	0.34126863
249	0x3e82de8a	0.2556041
250	0xbd29eeab	-0.041487377
251	0x3dcf9652	0.10136093
252	0x3e0a2f79	0.13494672
253	0xbf2a3fcc	-0.66503596
254	0xbc539af1	-0.012915359
255	0x3d0bb60a	0.034109153

fcs1.bias f4 [256]
0	0xbf151d8f	-0.5824823
1	0xbef50be7	-0.47860643
2	0xbe4914d7	-0.19636856
3	0xbe8578c3	-0.26068696
4	0xbdbc9f26	-0.09210043
5	0xbf123e49	-0.5712629
6	0xbf017c82	-0.5058061
7	0xbfc1940e	-1.5123308
8	0xbfac4503	-1.3458561
9	0xbf3329ef	-0.6998586
10	0xbef58b98	-0.47958064
11	0xbf3d119d	-0.73855
12	0xbe7955fc	-0.24349207
13	0xbf17348d	-0.5906456
14	0xbf2f5cec	-0.6850116
15	0xbe90fb80	-0.2831688
16	0xc01bf678	-2.4369183
17	0xbf06e318	-0.5269027
18	0xbf254a91	-0.64566904
19	0xc01dcdc4	-2.465684
20	0xc014a0e7	-2.3223207
21	0xbe9d11af	-0.30677554
22	0xbf0b7579	-0.54476124
23	0xc00dc072	-2.214871
24	0xbf0ba300	-0.54545593
25	0xc0228af1	-2.5397303
26	0xbfa88bb9	-1.316764
27	0xbf3fdc50	-0.74945545
28	0xbeb9bd67	-0.36277315
29	0xbf2b140b	-0.6682746
30	0xbeeeb9e8	-0.4662621
31	0xbf396e4a	-0.7243391
32	0xbeace76a	-0.33770305
33	0xbf6b19bc	-0.9183614
34	0xbe8be0c0	-0.27319908
35	0xbed51e7c	-0.4162482
36	0xbf944c9d	-1.158588
37	0xbeed7090	-0.4637494
38	0xbebf1f59	-0.37328604
39	0xbf0587b4	-0.5216019
40	0xbe11fe18	-0.14257085
41	0xbce9f84a	-0.028560776
42	0xbecf3efa	-0.40477735
43	0xbe9db706	-0.30803698
44	0xc007a389	-2.1193564
45	0xbff034c5	-1.8766104
46	0xc01485b3	-2.3206604
47	0xbe881f76	-0.26586503
48	0xbedf7557	-0.4364421
49	0xbfbb0a7c	-1.4612575
50	0xbf84b989	-1.0369121
51	0xbed378d6	-0.41303128
52	0xbfe6834a	-1.8008816
53	0xbf39f3d5	-0.72637683
54	0xbf02fa6e	-0.51163375
55	0xbfd1d487	-1.6392983
56	0xbef9775e	-0.48723882
57	0xbe8c003f	-0.27343938
58	0xbf2734f0	-0.6531515
59	0xbe9381df	-0.2881002
60	0xbf467b7a	-0.7753216
61	0xbf19d405	-0.6008914
62	0xbf2730f5	-0.6530908
63	0xbe9122dc	-0.28346908
64	0xbfb03043	-1.3764728
65	0xbf6e9125	-0.9319022
66	0xbf360bf9	-0.7111202
67	0xbdb9f5d6	-0.090800926
68	0xbec8118a	-0.3907588
69	0xbe94c869	-0.2905915
70	0xbeaff449	-0.34366062
71	0xbf5bf9de	-0.8592814
72	0xbe2817da	-0.16415349
73	0xbf2b5fce	-0.6694306
74	0xbff6af73	-1.9272293
75	0xbf3b16e9	-0.73081833
76	0xbf0a3e8c	-0.5400169
77	0xbf8b4c70	-1.0882702
78	0xbf759e0e	-0.959443
79	0xbe5e1108	-0.21686184
80	0xbe9e95ad	-0.3097357
81	0xbf2d2f4c	-0.67650294
82	0xbe90670f	-0.28203627
83	0xbf239515	-0.63899356
84	0xbfa90582	-1.3204806
85	0xbf02d85e	-0.511114
86	0xbf037137	-0.5134463
87	0xbf4e4990	-0.80581
88	0xbe71873c	-0.23586744
89	0xc04181ec	-3.0235548
90	0xbf734e1f	-0.9504108
91	0xbfec11ed	-1.844297
92	0xbeaca46d	-0.33719197
93	0x3ea0ff06	0.31444567
94	0xbf522b47	-0.82097286
95	0xbed29bc0	-0.41134453
96	0xbf86fbb0	-1.0545559
97	0xbf07bdda	-0.53024065
98	0xbf001dc4	-0.5004542
99	0xbf4107c4	-0.75402474
100	0xc005eccc	-2.092578
101	0xbffef6b2	-1.9919035
102	0xbf0477d5	-0.5174535
103	0xbe58e0cb	-0.21179502
104	0xbf9e6ca4	-1.2376904
105	0xbe75ae3d	-0.23992248
106	0xbe9d34f8	-0.30704474
107	0xbfae0502	-1.3595278
108	0xbf0dff78	-0.5546794
109	0x3e4a7cde	0.19774196
110	0xbfaa2d86	-1.3295143
111	0xbea46a59	-0.32112387
112	0xbee2672c	-0.4421934
113	0xbe7d7ca9	-0.24754585
114	0xbf39c3c4	-0.7256434
115	0xbf7365d0	-0.9507723
116	0xbe8ecfb0	-0.27892828
117	0xbea145bf	-0.31498525
118	0xc00dee67	-2.217676
119	0xbeeffbef	-0.46871898
120	0xbff6345b	-1.9234728
121	0xbfbec5dc	-1.4904132
122	0xbfa38b90	-1.2776966
123	0xbf08d0de	-0.53443706
124	0xbe9e32a9	-0.30898026
125	0xbed76fea	-0.4207757
126	0xbf082ccd	-0.5319336
127	0xbfbd9100	-1.4809875
128	0xbf7c9b84	-0.986748
129	0xbe70e871	-0.2352617
130	0xbf000241	-0.5000344
131	0xbec9d475	-0.39419904
132	0xbf8fdabe	-1.123863
133	0xbf12023b	-0.57034653
134	0xbec3e647	-0.38261625
135	0xbeb746c8	-0.3579619
136	0xbfa9e265	-1.3272215
137	0xbf319fa5	-0.69384223
138	0xbf624bbf	-0.8839683
139	0xbee47232	-0.44618374
140	0xbdefaa04	-0.1170235
141	0xbe3c1de0	-0.18370771
142	0xbe76f30a	-0.2411615
143	0x3e0810f3	0.13287716
144	0xbe2ef653	-0.17086153
145	0xbeeb55ab	-0.45963797
146	0xbe8159e7	-0.25263903
147	0xbe82bcaf	-0.2553458
148	0xbebd1146	-0.3692724
149	0xbf1b42c7	-0.6064877
150	0x3fd740b0	1.6816616
151	0xbf07f94f	-0.5311479
152	0xbe7af985	-0.24509247
153	0xbedfa5c2	-0.4368115
154	0xbee96afa	-0.4558943
155	0xbf3f61a8	-0.74758387
156	0xbea860df	-0.32886407
157	0xbfbec552	-1.4903967
158	0xbe917e7b	-0.2841681
159	0xbdce4c84	-0.10073188
160	0xbef9bde0	-0.48777676
161	0xbeabd13e	-0.33558077
162	0xbfe0a9f9	-1.7551872
163	0xbf2be3d8	-0.67144537
164	0xbfaddb74	-1.3582597
165	0xbfbf880c	-1.4963393
166	0xbee2629f	-0.44215867
167	0xbe94f6b8	-0.2909448
168	0xbeab1039	-0.33410814
169	0xbf685322	-0.9075185
170	0xbf8ce944	-1.1008687
171	0xbf3db85d	-0.7410944
172	0xbf02af22	-0.5104848
173	0xbeeb1401	-0.459137
174	0xbee626b4	-0.44951403
175	0xbeef90f3	-0.46790275
176	0xbe93f205	-0.28895584
177	0xbee0b37c	-0.43886936
178	0xbe3cca01	-0.18436433
179	0xbf162214	-0.5864575
180	0xbed2c3ff	-0.41165158
181	0xbeaad748	-0.33367372
182	0xbef26a2c	-0.47346628
183	0xbf1be5b6	-0.60897386
184	0xbed1493f	-0.40876195
185	0xbf0f344d	-0.5593918
186	0xbf0eeb3d	-0.55827695
187	0xbec8d113	-0.3922201
188	0xbed38ca3	-0.41318235
189	0xbf3e5536	-0.7434877
190	0xbf0da30d	-0.5532692
191	0xbeca1072	-0.39465672
192	0xbf6c425f	-0.92288774
193	0xbf7d5a1f	-0.9896564
194	0xbee6a763	-0.4504958
195	0xbf309640	-0.68979263
196	0xbe9fc4d5	-0.31204858
197	0xbefade96	-0.48997945
198	0xbed854a9	-0.4225209
199	0xbf22173e	-0.63316715
200	0xbea2e88b	-0.3181804
201	0xbedcc33c	-0.43117702
202	0xbf1151d9	-0.56765515
203	0xc011fc20	-2.2810135
204	0xbeeceb85	-0.46273437
205	0xbfc059ca	-1.5027401
206	0xbe3deef1	-0.1854818
207	0xbf500d23	-0.81270045
208	0xbe9d6ec5	-0.30748573
209	0xbe3d4ab9	-0.18485536
210	0xbedd07be	-0.4316997
211	0xbecdf5ad	-0.40226498
212	0xbf1bafc7	-0.6081509
213	0xbeec1e51	-0.4611688
214	0xbfb335ac	-1.4000754
215	0xbf668697	-0.9004912
216	0xbeb8110b	-0.35950503
217	0xbe8300af	-0.2558646
218	0xc0723e6c	-3.78506
219	0xbec188fa	-0.37799817
220	0xbeb5d9a9	-0.35517624
221	0xbe91e8cf	-0.2849793
222	0xbe02423c	-0.12720579
223	0xbef531f2	-0.47889668
224	0xbf800212	-1.0000632
225	0x3d9fae15	0.077968754
226	0xbf0b25fd	-0.5435484
227	0xc00d496d	-2.2076066
228	0xbe47d91b	-0.19516413
229	0xbfb9d041	-1.4516679
230	0xbf085b14	-0.53263974
231	0xbe84bc5d	-0.2592496
232	0xbf6c2ab3	-0.92252654
233	0xbfec8415	-1.8477808
234	0xbf1e5e05	-0.6186221
235	0xbf10f38d	-0.5662163
236	0xbedb60d6	-0.42847317
237	0x3fd4313a	1.6577523
238	0xbe7c193b	-0.24619
239	0xbe76a4b3	-0.24086265
240	0xbf2af12d	-0.66774255
241	0xbf24f18f	-0.6443109
242	0xbe99fd06	-0.30075854
243	0xbf32fdca	-0.699185
244	0xbf0e6f54	-0.55638623
245	0xbee396a4	-0.44450867
246	0xbefe0161	-0.49610427
247	0xbe002aaf	-0.12516282
248	0xbf3c3c4c	-0.73529506
249	0xbeeeae10	-0.46617174
250	0xbeb22154	-0.34791052
251	0xbf8fc858	-1.1233015
252	0xbf9a69ea	-1.2063572
253	0xbf9f8464	-1.2462277
254	0xbf9ec623	-1.2404217
255	0xbed228af	-0.41046664

fc2.weight f4 [128, 260]
0	0xbd8a3b5f	-0.067496054
1	0xbdf9865f	-0.121838324
2	0x3d764bb6	0.060130797
3	0xbd796a2e	-0.060892276
4	0xbcc15e10	-0.023604423
5	0xbda679ed	-0.08128724
6	0x3d85b2aa	0.06528218
7	0xbd8a7556	-0.06760661
8	0x3c2d115f	0.010563224
9	0x3d4dd239	0.050249312
10	0xbde5899c	-0.112078875
11	0xbd4b8bc4	-0.049693838
12	0x3bf71582	0.0075404057
13	0xbe0fad38	-0.14030921
14	0xbca42b3e	-0.02004015
15	0xbcc9f91d	-0.02465492
16	0xb72c531f	-1.0271352e-05
17	0x3d01406a	0.03155557
18	0xbd2dc4a9	-0.042423878
19	0xbe57a5be	-0.2105932
20	0xbd490f2f	-0.049086746
21	0xbdaa3e22	-0.08312632
22	0xbcf2639b	-0.029588511
23	0x3cca95e8	0.024729684
24	0x3db380d0	0.087648034
25	0xbe639080	-0.22223091
26	0xbc9f4025	-0.019439766
27	0xbde7a501	-0.11310769
28	0xbd93bc66	-0.072136685
29	0xbd0146e6	-0.031561755
30	0x3d093f76	0.033507787
31	0xbd194e88	-0.03742841
32	0xb8da89b5	-0.000104207
33	0xbd4a7fc8	-0.049438268
34	0x3d79579d	0.06087457
35	0x3d9dc605	0.07703785
36	0xbdd1291e	-0.102129206
37	0xbe10107f	-0.14068793
38	0xbdf7bc1f	-0.12096428
39	0xbdddbd7e	-0.108271584
40	0xbd089d69	-0.033353243
41	0x3ccfbc8f	0.025358466
42	0xbd16813f	-0.036744352
43	0x3c21f3a2	0.009884747
44	0x3c259bcc	0.010107946
45	0xbd47fe78	-0.048826665
46	0xbdc58b58	-0.09645718
47	0x3d1f0f1d	0.038832773
48	0x3cbf65cf	0.023363976
49	0xbd3c4fab	-0.045974415
50	0xbd8d83e2	-0.0690992
51	0xbd560bc4	-0.052257314
52	0xbe02756d	-0.12740107
53	0x3d335f74	0.043792203
54	0xbd103f30	-0.03521651
55	0xbc24401a	-0.010025049
56	0xbd81d0be	-0.063386425
57	0xbccba2b7	-0.024857862
58	0xbe304c7b	-0.17216675
59	0xbd191c18	-0.037380308
60	0xbdd5efc7	-0.104461245
61	0x3c2bd989	0.010488876
62	0xbc8e47da	-0.017368246
63	0x3bbdf4f3	0.0057970225
64	0x3d9e206a	0.07721026
65	0x3d7251f0	0.059160173
66	0x3ca04c18	0.019567534
67	0xbdbf9c71	-0.09356011
68	0x3d5a4fae	0.053298645
69	0x3cb9d840	0.022686124
70	0xbda889cf	-0.0822941
71	0xbd638b13	-0.055552553
72	0xbd9a4af9	-0.07533831
73	0xbd82c3c0	-0.063849926
74	0xbd34d7a6	-0.04415097
75	0xbd9ead75	-0.07747928
76	0xbc13615d	-0.008995381
77	0x3d484ef3	0.048903417
78	0xbd0c6265	-0.034273524
79	0x3ca10af9	0.019658552
80	0xbb93b1f8	-0.0045072995
81	0x3d167bb4	0.036739066
82	0x3cf5d130	0.030006975
83	0xbceea5f6	-0.02913187
84	0xbe57db3a	-0.21079722
85	0xbd948632	-0.07252158
86	0xbb2787e9	-0.0025563187
87	0xbc8d8fd8	-0.017280504
88	0x3d5a8150	0.05334598
89	0x3cc29632	0.02375326
90	0xbd9c3cdd	-0.07628796
91	0xbd2091c7	-0.039201524
92	0xbcc6ee8f	-0.024283675
93	0xbe76dd0d	-0.24107762
94	0xbc593341	-0.013256849
95	0xbda5818e	-0.08081351
96	0xbdae4754	-0.085096985
97	0xbdd96028	-0.106140435
98	0x3d73751a	0.05943785
99	0xbddbad88	-0.10726458
100	0xbd33f517	-0.043934908
101	0xbd1f657f	-0.038915154
102	0xbcdd396d	-0.027004922
103	0xbd186a2c	-0.03721063
104	0xbdd34371	-0.10315598
105	0xbd566686	-0.052343868
106	0xbae81d8c	-0.0017709001
107	0xbd2fe055	-0.04293855
108	0x3d3af056	0.04563936
109	0xbe26b269	-0.16278996
110	0xbdaaaaf4	-0.08333388
111	0xbdb8bb76	-0.0902013
112	0xbd7cc5d3	-0.061712097
113	0xbd55d83a	-0.052208163
114	0x3c619b4b	0.013769935
115	0xbd6eaa87	-0.058268096
116	0xbe0edc34	-0.13951188
117	0x3a9a536c	0.0011774129
118	0xbdae1b89	-0.08501346
119	0x3d7fe11f	0.06247055
120	0x3c99681a	0.018726397
121	0xbd125e57	-0.0357345
122	0xbe39560c	-0.1809923
123	0xbdda2736	-0.1065201
124	0x3b57618a	0.0032864534
125	0x3d8ac6b6	0.06776182
126	0x3d55e7f1	0.05222315
127	0xbc8905cc	-0.016726397
128	0xbd95661d	-0.07294867
129	0x3d4585c0	0.048223257
130	0xbd44bc5f	-0.048031207
131	0x3c61cf58	0.013782345
132	0xbbf9db7b	-0.007625041
133	0x3c9722e3	0.018449252
134	0xbd048823	-0.032356393
135	0xbd286378	-0.041110486
136	0xbd7219a2	-0.059106477
137	0xbdd1cdcb	-0.1024433
138	0xbda13e39	-0.07873196
139	0xbdacd0ac	-0.084382385
140	0xbd3cf2b5	-0.0461299
141	0xbd440edb	-0.04786573
142	0xbdfc46f1	-0.123182185
143	0xbc9e600d	-0.01933291
144	0x3d862e89	0.065518446
145	0x3d3b8328	0.045779377
146	0xbde3de4a	-0.11126383
147	0x3b5913c3	0.0033123351
148	0xbd4c3d46	-0.049863122
149	0xbd3f1d62	-0.04665888
150	0x3d5b3143	0.053513777
151	0xbdcc3162	-0.099703565
152	0xbd9061d6	-0.07049911
153	0xbb5291f9	-0.0032130464
154	0xbc8bfbbd	-0.017087812
155	0xbe0fcbe9	-0.1404263
156	0xbbe97cb4	-0.0071254615
157	0xbd09b1b7	-0.033616748
158	0x3d271cd4	0.040798977
159	0xbd329e83	-0.0436082
160	0xbc6377d8	-0.013883553
161	0x3c85c3b5	0.016328672
162	0x3d0c0b87	0.03419068
163	0xbcd80a45	-0.026372084
164	0xbd920e52	-0.07131638
165	0xbe01badd	-0.12668939
166	0xbd8d2955	-0.06892649
167	0xbd48a94d	-0.048989583
168	0xbe6bdb24	-0.23032814
169	0xbd2530ae	-0.040329628
170	0xbdd6014e	-0.104494676
171	0xbe003147	-0.12518798
172	0xbda75b8f	-0.0817176
173	0xbd46be38	-0.04852125
174	0xbdaa1a22	-0.08305766
175	0xbcc0d1ff	-0.023537634
176	0xbc4d6b2b	-0.012537758
177	0x3c141e45	0.00904042
178	0x3d8d8980	0.06910992
179	0xbe23035d	-0.15919252
180	0xbd04e184	-0.03244163
181	0xbb329ac8	-0.0027252901
182	0x3cb08a20	0.021550238
183	0xbe1aa4c5	-0.15101917
184	0xbdcf65b3	-0.101268195
185	0xbdbc0349	-0.09180314
186	0xbdfd2642	-0.12360813
187	0xbdd9d541	-0.10636378
188	0xbdba1cc6	-0.09087519
189	0xbddfd529	-0.10929329
190	0x3c5bff2f	0.01342754
191	0xbdaecb2a	-0.08534844
192	0xbd3b180f	-0.04567724
193	0xbc817902	-0.015804771
194	0xbd0abcd9	-0.033871505
195	0xbe193507	-0.14961635
196	0xbc4639b9	-0.012098723
197	0xbd35901c	-0.044326887
198	0xbc3e40b6	-0.011612108
199	0x3c87fd7d	0.016600365
200	0x3c687453	0.01418789
201	0xbca7c154	-0.020477928
202	0xbc3a6227	-0.01137594
203	0xbdea3620	-0.11436105
204	0xbdaefb62	-0.08544041
205	0xbe830658	-0.25590777
206	0xbd9b2c54	-0.07576814
207	0xbd919eb0	-0.07110345
208	0xbc57974e	-0.013158632
209	0xbd4536cb	-0.048147958
210	0xbd441d14	-0.047879294
211	0xbd834e77	-0.0641145
212	0xbccdb40f	-0.025110273
213	0xbcffb8c4	-0.031216033
214	0xbc9d52c4	-0.019204505
215	0xbd55c722	-0.05219186
216	0xbdbb8eaf	-0.09158074
217	0xbdb4046a	-0.087899044
218	0x3d450c72	0.048107572
219	0x3bfbbab5	0.0076821693
220	0x3c1d086d	0.009584528
221	0x3d0396fc	0.03212641
222	0x3ad292a1	0.0016065427
223	0xbe11d5b0	-0.14241672
224	0x3c8be47c	0.017076723
225	0x3cec6f3d	0.028861636
226	0xbd00afb6	-0.03141757
227	0xbc8c9eac	-0.017165504
228	0xbc31db01	-0.010855437
229	0xbe1b9262	-0.1519256
230	0xbb042666	-0.0020164489
231	0x3d940864	0.07228163
232	0x3c4e8745	0.012605493
233	0xbda29724	-0.07938984
234	0xbc6e79da	-0.014555419
235	0xbda8146f	-0.082070224
236	0x3cbb802f	0.022888271
237	0x3d2b503f	0.041824576
238	0x3d1050b9	0.035233233
239	0xbdbf19df	-0.093311064
240	0xbe15b072	-0.1461809
241	0xbda66367	-0.08124428
242	0x3d0e57dc	0.034751758
243	0xbd8a6ca0	-0.06759
244	0xbd5e919c	-0.054338083
245	0x3d20796f	0.039178308
246	0xbd87a0a3	-0.06622436
247	0xbdbd2d7e	-0.092371926
248	0x3caa60b7	0.02079807
249	0x3c64b8ed	0.013960105
250	0xbd0be06b	-0.03414957
251	0xbd3e9d1e	-0.046536557
252	0xbde5b0c8	-0.11215359
253	0xbd5f20ec	-0.054474756
254	0x3c15e8a2	0.009149702
255	0xbc2f797b	-0.010710116

fc2.bias f4 [128]
0	0xbea216aa	-0.31657916
1	0xbeab072e	-0.33403915
2	0xbec98e6d	-0.39366475
3	0xbeac4b6c	-0.33651292
4	0xbee43c3b	-0.44577202
5	0xbeaba95e	-0.33527654
6	0xbe6c70da	-0.23089924
7	0x404ec4dd	3.2307656
8	0xbe919b0a	-0.28438598
9	0xbfa884ec	-1.3165565
10	0xbebb4eb5	-0.36583486
11	0xbe87e94e	-0.26545185
12	0xbe94f33b	-0.2909182
13	0xbebe90ce	-0.37219852
14	0xbe9c8688	-0.3057139
15	0xbfafe82f	-1.3742732
16	0xbf0c5f72	-0.5483314
17	0x3e2acf47	0.16680633
18	0xbeae804e	-0.34082264
19	0xbea6f7df	-0.32610986
20	0xbea0d166	-0.31409758
21	0xbe644861	-0.22293235
22	0xbed4279e	-0.41436476
23	0xbf908102	-1.128937
24	0xbebdcd2f	-0.37070605
25	0xbe5e8732	-0.2173126
26	0xbea25df9	-0.3171232
27	0xbe8e1d0d	-0.2775654
28	0xbeacdc95	-0.3376204
29	0xbe934253	-0.2876154
30	0xbe531269	-0.20612492
31	0xbfbe468b	-1.4865278
32	0xbec71e7b	-0.38890442
33	0xbee5ec6f	-0.44906947
34	0xbe8f5c07	-0.279999
35	0xbeb838b3	-0.35980758
36	0xbe6b95c9	-0.23006357
37	0xbe6b3e3c	-0.2297296
38	0xbec17dde	-0.37791342
39	0xbe8e9e1c	-0.27855003
40	0xbeeb3442	-0.45938307
41	0xbea5636e	-0.3230242
42	0xbf061fd4	-0.52392316
43	0xbea0b6aa	-0.31389362
44	0xbeaba7b5	-0.33526388
45	0xbedaaeea	-0.42711574
46	0xbea7b14c	-0.32752454
47	0xbea0ac4a	-0.31381446
48	0xbe770e04	-0.2412644
49	0xbeab63fa	-0.33474714
50	0xc03c8535	-2.9456303
51	0xbe8d002d	-0.27539197
52	0xbe840b5a	-0.2578991
53	0xbe740715	-0.23830827
54	0xbeca76ab	-0.3954366
55	0xbe3c11e9	-0.18366207
56	0xbea6b84c	-0.32562482
57	0xbe8c066c	-0.2734865
58	0xbea59a6a	-0.3234437
59	0xbeb819a0	-0.3595705
60	0xbed23f13	-0.41063747
61	0xbebf5c05	-0.37374893
62	0xbe6856bf	-0.22689341
63	0xbe8826be	-0.26592058
64	0xbec71aa5	-0.38887516
65	0x3f704d5a	0.9386803
66	0xbe374dec	-0.17900819
67	0xbe9f5e43	-0.31126603
68	0xbea8897e	-0.32917398
69	0xbe267a9f	-0.16257714
70	0xbeaebb70	-0.34127378
71	0xbef8c99f	-0.48591325
72	0xbeaffcb1	-0.34372476
73	0xbea563d0	-0.32302713
74	0xc032c78a	-2.793429
75	0xbe9a7152	-0.30164582
76	0xbda13ccf	-0.078729264
77	0xbe9648ff	-0.29352567
78	0xbe4ac133	-0.19800262
79	0xbe33fac6	-0.17576131
80	0xbea621f7	-0.32447788
81	0xbee040f4	-0.43799555
82	0xbed6cb29	-0.41951874
83	0xbfc4cff8	-1.5375967
84	0xbe70a8ef	-0.23501943
85	0xbead1bae	-0.3381018
86	0xbea8d752	-0.32976776
87	0xbe721ceb	-0.23643844
88	0xbe96fdf8	-0.29490638
89	0xbe9e74ff	-0.30948636
90	0xbee02756	-0.4378001
91	0xbeb1f1c9	-0.3475478
92	0x3d97a460	0.07404399
93	0xbe8cb0d0	-0.27478647
94	0xbec6ec21	-0.38852027
95	0x3e1e3900	0.15451431
96	0x400f3709	2.237734
97	0xbed0e842	-0.408022
98	0xbf2b5fd4	-0.669431
99	0xbe3b37e0	-0.18283033
100	0xbf64e098	-0.894052
101	0xbe9dcf63	-0.30822286
102	0xbea67dfe	-0.32518
103	0xbeafac82	-0.343113
104	0xbea81192	-0.32825905
105	0xbece6248	-0.40309358
106	0xbf325d66	-0.69673765
107	0xbea840bf	-0.32861897
108	0xbebe8940	-0.37214088
109	0xbf96f132	-1.1792357
110	0xbd669de7	-0.05630293
111	0xbe82004d	-0.25390854
112	0xbe915f38	-0.2839296
113	0xbed39b8a	-0.41329604
114	0xbe907310	-0.28212786
115	0xbe94d060	-0.29065228
116	0xbdd378e0	-0.103257895
117	0x3daa99e9	0.08330137
118	0xbe963bba	-0.29342443
119	0xbe8c5da9	-0.27415207
120	0xbe7d4de0	-0.24736738
121	0xbebefc0e	-0.37301677
122	0xbea3c0ad	-0.31982937
123	0xbe4590b3	-0.1929348
124	0xbeaca28b	-0.3371776
125	0xbe68809e	-0.22705314
126	0x4035b030	2.8388786
127	0xbee0bfee	-0.4389643

fc3.weight f4 [1, 128]
0	0xbcbf5518	-0.023356006
1	0xbcbf631b	-0.023362687
2	0xbc72c34c	-0.01481707
3	0xbc59d75a	-0.013295973
4	0xbcad59a2	-0.021160904
5	0x3cf27c66	0.029600333
6	0xbc0413af	-0.008061334
7	0x3d047430	0.032337368
8	0x3aa25339	0.0012384421
9	0x3bedde2b	0.0072591505
10	0x3c1ccbe0	0.009570092
11	0xbc8c3b0d	-0.017118001
12	0x3c076955	0.008264859
13	0x3b9c585d	0.004771276
14	0xbbf81f7f	-0.007572114
15	0x3c27a136	0.010231307
16	0x3bc504c9	0.0060125333
17	0xbccfb2c8	-0.025353804
18	0x3ca377be	0.019954558
19	0xbccdae34	-0.02510748
20	0x3b2ebaac	0.0026661558
21	0xbafaeae4	-0.0019143489
22	0x3cf0c10c	0.029388927
23	0xbc84d8b7	-0.016216619
24	0x3c298468	0.0103465095
25	0xbc3d3007	-0.011547095
26	0xbca095bb	-0.019602647
27	0x3cd65210	0.026162177
28	0x3b0acc25	0.0021178809
29	0x3bc84298	0.006111454
30	0x3cc7d3cd	0.024392987
31	0x3da59abd	0.080861546
32	0xbcde5ad7	-0.027142925
33	0x3c31acdd	0.0108444365
34	0x3c8bba8d	0.017056728
35	0xbd02ffae	-0.031982116
36	0xbc98e7f3	-0.01866529
37	0x3cf35f23	0.02970845
38	0xbc7b4b9b	-0.01533785
39	0xbc8ad725	-0.016948292
40	0x3cdda46c	0.027055942
41	0xbcfafbea	-0.0306377
42	0x3cfc3b4e	0.030789997
43	0x3c849a46	0.016186845
44	0xbc0feef2	-0.008784996
45	0xbc48b9f1	-0.012251363
46	0xbbbf86d7	-0.0058449316
47	0xbcffc9f9	-0.031224238
48	0xbc0ed7d6	-0.0087184515
49	0x3d3f8a93	0.046763014
50	0xbd83166d	-0.06400762
51	0xbad0fa81	-0.0015943797
52	0xbcaa0d3c	-0.020758264
53	0x3ce09229	0.027413445
54	0x3cbe2ca7	0.023214651
55	0xbced2d52	-0.028952274
56	0x3c6b71fa	0.014370436
57	0x3c0599b7	0.008154324
58	0xbc7f63d9	-0.01558777
59	0x3a653fe0	0.0008745175
60	0xbba86250	-0.005138673
61	0xbb91f155	-0.004453818
62	0x3d5b4292	0.053530283
63	0xbc0fb568	-0.008771278
64	0x3d8f4ffa	0.06997676
65	0xbcbddb55	-0.023175875
66	0x3c0a5be3	0.008444759
67	0xbc894bcb	-0.016759774
68	0x3bd704d2	0.006561854
69	0xbae4942c	-0.0017439178
70	0x3ce5e359	0.02806251
71	0xbc76a754	-0.015054543
72	0x3c5d1382	0.013493421
73	0xb9dbb0c5	-0.0004190264
74	0xbc5d6b9c	-0.013514426
75	0xbd180eb3	-0.037123393
76	0xbca2bcd2	-0.019865427
77	0xbb0571b7	-0.0020361969
78	0x3d61800a	0.05505375
79	0xbae5e0de	-0.0017538329
80	0x3c2e9ed2	0.010657983
81	0x3ce17d82	0.027525667
82	0xbccc9957	-0.024975462
83	0xbc4db70d	-0.01255585
84	0x3c4ccdab	0.012500207
85	0xbc817f15	-0.015807668
86	0x3cd4ed02	0.02599192
87	0xbbcf41ae	-0.0063249683
88	0x3ccbfe07	0.024901403
89	0x3b45d6a1	0.0030187743
90	0x3cd7c0a2	0.026336972
91	0x3c70661f	0.014672785
92	0xbcd1c0ba	-0.025604594
93	0xbc1e7897	-0.009672306
94	0xbbc4fe42	-0.006011755
95	0xbd10a8d3	-0.035317253
96	0xbda67a9b	-0.08128854
97	0x3bbe7e2a	0.00581338
98	0x3b84b1d8	0.004049521
99	0x3cc07490	0.023493081
100	0x3c9582e9	0.0182509
101	0xbce1c7eb	-0.027561149
102	0x3cac0189	0.020996826
103	0xbca5dd45	-0.020247111
104	0x3c26d729	0.010183134
105	0xbc6eb1b7	-0.014568738
106	0xbc46b14b	-0.012127231
107	0x3c821570	0.015879363
108	0xbc394d98	-0.011310004
109	0xbd2fd25c	-0.042925224
110	0x3c973a3d	0.018460387
111	0x3c242a8e	0.010019911
112	0xbcacaacd	-0.021077538
113	0xbc7d0f34	-0.015445519
114	0xb86e7d3b	-5.686025e-05
115	0x3b448aee	0.0029990035
116	0xbba7559c	-0.005106641
117	0x3d842ef8	0.06454271
118	0x3cd96f95	0.026542464
119	0xbcb9fbc7	-0.022703065
120	0x3cae2c0c	0.021261238
121	0xbcbdcfc4	-0.02317036
122	0xbb7552b4	-0.0037433328
123	0x3c91c248	0.017792836
124	0x3be6c42c	0.0070424285
125	0xbc9031cc	-0.01760187
126	0x3c467c55	0.012114604
127	0x3ca697f9	0.020336138
